outputs/2023-04-04/04-37-02/rve_model.pt (torch, 570590 bytes, 19 tensors)

weight_ih_l0 f4 [512, 2]
0	0x3c896525	0.016771862
1	0xbe00f59f	-0.12593697
2	0xbdf17f1f	-0.117918245
3	0x3c8a8750	0.016910225
4	0x3d256e32	0.040388294
5	0xbbebdd45	-0.0071980082
6	0x3e0f7951	0.14011122
7	0xbe15bdb9	-0.14623155
8	0xbc02adbd	-0.007975993
9	0xbd2a925c	-0.041643485
10	0xbb509aa1	-0.0031830447
11	0xbcdc847a	-0.026918638
12	0x3d9bc547	0.07605987
13	0xbd8eb90a	-0.06968887
14	0x3c3c9c99	0.011511945
15	0x3d333fd7	0.043762054
16	0xbda94745	-0.08265547
17	0x3e0636e9	0.13106884
18	0xbcd84bf4	-0.026403405
19	0x3d446b86	0.047954105
20	0xbdf4203e	-0.11920212
21	0xbdee8f3a	-0.11648412
22	0x3daabef2	0.08337201
23	0xbd2bf57d	-0.041982163
24	0xbcf022e9	-0.029313521
25	0xbd6f0ddb	-0.058362823
26	0x3da60278	0.081059396
27	0xbd1e2550	-0.038609803
28	0xbd4a97ec	-0.04946129
29	0x3c58965a	0.01321944
30	0x3d346319	0.04403982
31	0x3c4aff0e	0.012389911
32	0x3c4cc5bc	0.012498315
33	0x3c06f296	0.008236548
34	0x3d180b6d	0.03712027
35	0x3c5071f3	0.01272248
36	0xbc9e3577	-0.019312603
37	0xbc0e87ec	-0.0086993985
38	0xbdcee03d	-0.10101364
39	0x3ceff804	0.029293068
40	0x3dc13454	0.09433809
41	0xbd4aeef9	-0.04954431
42	0x3d913771	0.07090653
43	0xbc0c718a	-0.008571992
44	0x3c5ed8cc	0.013601493
45	0x3ce536aa	0.027980167
46	0xbc1b747e	-0.009488223
47	0xbddff7f0	-0.10935962
48	0xbc8e19cf	-0.01734629
49	0xbded72e6	-0.11594181
50	0x3d1f4a9b	0.03888951
51	0xbdbecb32	-0.093161
52	0xbdc1b7e5	-0.09458903
53	0xbd94601d	-0.07244895
54	0xbc40b349	-0.011761495
55	0xbcb11b30	-0.02161941
56	0xbc1a422f	-0.009415193
57	0x3d755e81	0.05990458
58	0x3db4b3ae	0.08823334
59	0xbd28816e	-0.04113906
60	0x3daab5fd	0.08335493
61	0x3b0e5e99	0.0021723865
62	0xbdb9c2ff	-0.09070396
63	0x3d6bc933	0.057564925
64	0x3de04c6c	0.10952076
65	0x3dabf9c1	0.08397246
66	0xbc33231c	-0.010933664
67	0xbde3f37e	-0.11130427
68	0x3d95e20e	0.07318507
69	0xbdbff03c	-0.09371993
70	0xbdcd3d56	-0.100214645
71	0x3cb589c4	0.022160418
72	0xbce39f12	-0.027785812
73	0x3c57b33a	0.01316529
74	0xba4ae81b	-0.0007740275
75	0x3bd71d46	0.006564769
76	0xbd8e2fe5	-0.06942729
77	0x3d8f3e2c	0.0699428
78	0xbc703ea5	-0.014663373
79	0x3c9f176d	0.01942035
80	0xbcdc9756	-0.026927631
81	0x3ca79901	0.0204587
82	0xbcb0b968	-0.021572784
83	0xbd9ab013	-0.07553115
84	0xbbde1b44	-0.0067781527
85	0x3c77e163	0.01512942
86	0x3d90f647	0.07078224
87	0xbc5e13f7	-0.013554565
88	0x3dc35fe6	0.095397756
89	0xbde35c96	-0.11101644
90	0xbd443c59	-0.047909115
91	0xbdcb83cd	-0.099372484
92	0xbd84aa70	-0.06477821
93	0xbcc2a54a	-0.023760457
94	0x3ddf82fa	0.10913654
95	0xbe4866c9	-0.1957046
96	0x3e005c0e	0.12535116
97	0xbe60486e	-0.2190263
98	0x3ddab319	0.106786914
99	0xb8adc462	-8.285862e-05
100	0xbdc87723	-0.097883485
101	0xbd866389	-0.065619536
102	0xbc90e102	-0.017685417
103	0xbd1ad791	-0.037803236
104	0x3dd2b662	0.10288693
105	0x3dd013d2	0.101600304
106	0xbda6e728	-0.08149558
107	0xbcd2608c	-0.025680803
108	0xbcb865dd	-0.02250951
109	0x3c5f008c	0.01361097
110	0x3db2ae8e	0.087247
111	0xbdf66a2b	-0.12031969
112	0xbce57831	-0.028011413
113	0x3dc36d82	0.09542371
114	0x3e07dbb4	0.13267404
115	0xbd702146	-0.058625482
116	0x3c46a11f	0.012123375
117	0xbc936e9f	-0.017997084
118	0xbd92d710	-0.07169926
119	0x3e06288e	0.13101408
120	0x3d8a50a7	0.067536645
121	0xbdce7ff2	-0.100829974
122	0x3d2a0a11	0.041513506
123	0x3d335165	0.043778796
124	0x3cc9d36e	0.02463695
125	0xbd0dd882	-0.034630306
126	0x3de4f137	0.111788206
127	0xbd991937	-0.074755125
128	0xbd3927bf	-0.04520392
129	0xbd17de4b	-0.03707723
130	0xbbfd4b8b	-0.0077299527
131	0x3d889610	0.06669247
132	0x3d5e89ed	0.054330755
133	0x3da1cad0	0.079000115
134	0xbd556fc4	-0.05210854
135	0x3d5ae064	0.05343665
136	0x3aef5f3a	0.0018262633
137	0x3d70bcd5	0.058773834
138	0x3d4564cf	0.04819184
139	0x3b0d418e	0.0021553966
140	0x3d9770b0	0.0739454
141	0xbd97e89f	-0.07417416
142	0x3d7bf78c	0.061515376
143	0x3d5e599c	0.054284677
144	0xbbd74e73	-0.006570631
145	0x3c155b84	0.009116057
146	0x3cf8274d	0.030292178
147	0x3d86abd7	0.065757446
148	0xbc6b7031	-0.01437001
149	0x3d6fd3e6	0.05855169
150	0xbda3cff9	-0.07998652
151	0xbda467e1	-0.08027626
152	0xbdcba7e0	-0.09944129
153	0x3df8e8f4	0.12153807
154	0xbbd4c04d	-0.0064926506
155	0x3d02a5ba	0.03189633
156	0xbd514246	-0.051088594
157	0x3d758c7e	0.059948437
158	0xbd9e7686	-0.0773745
159	0x3caf9e9f	0.021437941
160	0x3c970bc1	0.018438222
161	0xbd388179	-0.04504535
162	0xbdb050d4	-0.08609167
163	0x3dc47390	0.09592354
164	0x3c5d1edb	0.013496126
165	0xbe10d8e4	-0.14145237
166	0x3cfade1a	0.030623484
167	0x3d048699	0.032354925
168	0x3c8bb059	0.017051863
169	0xbdc5ede6	-0.09664516
170	0x3e25922b	0.1616904
171	0xbe0504c3	-0.12990098
172	0x3d8e9b96	0.069632694
173	0xbd87f13d	-0.066378094
174	0x3da21c97	0.07915609
175	0x3d3f4354	0.04669507
176	0x3d9dea00	0.077106476
177	0xbd30be4e	-0.04315024
178	0x3cbd9f39	0.023147212
179	0x3e01caf3	0.12675075
180	0x3d24bb47	0.040217664
181	0x3b926b01	0.0044683223
182	0x3d1d882b	0.038459938
183	0xbe4b71a1	-0.19867565
184	0x3d2a5ee5	0.041594405
185	0xbdb61b56	-0.08891933
186	0x3de09d0c	0.10967454
187	0xbca4995c	-0.020092659
188	0xbd1baba6	-0.038005494
189	0x3d423b5d	0.047419894
190	0xbc5dcc9f	-0.013537555
191	0xbdc896e4	-0.09794405
192	0xbc8dd8e2	-0.017315332
193	0x3dc5e873	0.09663477
194	0xbd099aca	-0.033594884
195	0xbd104089	-0.035217796
196	0xbc18f05e	-0.009334652
197	0x3dbf2e52	0.09335007
198	0xbde12849	-0.10994012
199	0x3ba1d66d	0.0049388916
200	0x3d18212f	0.03714102
201	0xbdb8dcaa	-0.09026463
202	0x3b7f0070	0.0038910173
203	0xbb7edf7e	-0.0038890536
204	0x3d31da4e	0.043421082
205	0xbe0941ec	-0.13404053
206	0x3dc6a052	0.096985474
207	0xbda7ba09	-0.0818978
208	0xbd60c702	-0.05487729
209	0xbda7d634	-0.08195153
210	0x3dea61ac	0.11444411
211	0xbe2afd95	-0.16698296
212	0xbc9b4fd2	-0.01895896
213	0x3dde800f	0.10864269
214	0x3d3d28f4	0.046181634
215	0xbddf33cb	-0.108985506
216	0x3d96855a	0.073496535
217	0xbe061eb9	-0.13097657
218	0xbd61e1ff	-0.055147167
219	0x3d95f0e3	0.07321336
220	0xbb39d43e	-0.0028355266
221	0xbd8451ae	-0.06460892
222	0x3da45cfa	0.08025546
223	0x3cae2e62	0.021262351
224	0x3bc558c2	0.0060225436
225	0x3d64fd83	0.05590583
226	0x3cb26e57	0.02178113
227	0xbde21088	-0.11038309
228	0xbd03d4d4	-0.03218539
229	0x3d91b5f7	0.07114785
230	0xbd58498c	-0.052804515
231	0x3d946e98	0.072476566
232	0x3dbb2eff	0.09139823
233	0xbd85716d	-0.06515775
234	0x3d42a3d1	0.04751951
235	0xbe002854	-0.12515384
236	0x3da4df71	0.080504306
237	0xbd111a6c	-0.03542559
238	0xbe0389d2	-0.12845543
239	0x3d210a98	0.039316744
240	0x3c145f0a	0.009055862
241	0xbd0bbd8f	-0.034116324
242	0x3dd53217	0.104099445
243	0x3be55c87	0.0069995555
244	0x3d7d4fef	0.06184381
245	0xbd8355d1	-0.064128526
246	0x3df69e75	0.12041942
247	0xbd12aa0d	-0.035806704
248	0x3d21eb5d	0.0395311
249	0xbe17d720	-0.14828157
250	0xbc5b2438	-0.013375334
251	0x3d83016c	0.063967556
252	0x3e38dcba	0.1805295
253	0x3d28cf76	0.041213475
254	0x3cae62b3	0.021287298
255	0xbdc15ac9	-0.09441144

weight_hh_l0 f4 [512, 128]
0	0xbd6cd4df	-0.057820197
1	0x3d00e645	0.031469602
2	0xbe089566	-0.13338241
3	0x3cd54d3f	0.02603781
4	0x3d9caf2e	0.076506004
5	0xbd8b5831	-0.068039306
6	0xbd7f204d	-0.062286664
7	0x3de9c5fd	0.114147164
8	0x3d68da04	0.05684854
9	0x3d9697e1	0.07353187
10	0x3e363ee5	0.1779743
11	0xbd79f506	-0.06102469
12	0xbdc3414f	-0.09533941
13	0xbcbef669	-0.023310857
14	0xbcf7b2ed	-0.030236686
15	0x3dbc0b4e	0.09181844
16	0x3cc40a46	0.02393068
17	0x3cd2be3b	0.025725475
18	0x3dc9b88e	0.09849654
19	0xbd05aa55	-0.032633144
20	0x3e04af87	0.12957583
21	0xbd4f67d2	-0.05063612
22	0x3d61bf9a	0.055114366
23	0xbd136a1a	-0.03598986
24	0xbba35495	-0.004984448
25	0xbddf6151	-0.109072335
26	0xbd661490	-0.056171954
27	0xbde20d80	-0.11037731
28	0xbced0cae	-0.02893671
29	0x3d0dbaa2	0.034601815
30	0xbdb52774	-0.08845416
31	0x3cc51db2	0.024062011
32	0x3e29cda3	0.1658235
33	0x3d0afbc2	0.0339315
34	0xbdf26b5f	-0.11836886
35	0x3e20701c	0.15667766
36	0xbd80c7ab	-0.06288084
37	0xbdc8d76b	-0.09806713
38	0x3e36c95d	0.17850251
39	0x3c6ee527	0.014581001
40	0xbe02af62	-0.12762216
41	0xbd84aac7	-0.06477886
42	0x3ddecf6d	0.10879407
43	0xbe0fc47e	-0.140398
44	0x3d3aac4f	0.045574483
45	0x3daee175	0.08539096
46	0xbb8a73d7	-0.004225235
47	0xbdaa99bf	-0.08330106
48	0xbaa482d5	-0.0012551198
49	0x3cd55bf7	0.026044829
50	0x3dcca9f3	0.09993353
51	0xbe26b0c5	-0.1627837
52	0xbd890ccf	-0.06691896
53	0x3dc9acb7	0.09847396
54	0xbdcf27f5	-0.10115043
55	0xbdfdd2ac	-0.12393698
56	0xbda823dc	-0.08209965
57	0x3de7642b	0.112984024
58	0x3be1910e	0.006883747
59	0x3d44d115	0.04805096
60	0xbce33bc0	-0.027738452
61	0xbd58ab37	-0.05289766
62	0xbd198c7f	-0.037487503
63	0xbd9f1bee	-0.07768999
64	0x3e1f02b4	0.15528375
65	0x3ccae1d2	0.024765883
66	0xbe1863e3	-0.14881854
67	0xbdd5dbf7	-0.104423456
68	0x3cdda62a	0.027056772
69	0xbddd015d	-0.10791276
70	0x3cbbd20f	0.022927312
71	0x3d3e56da	0.046469547
72	0xbdbe7744	-0.09300092
73	0xbda8d849	-0.08244378
74	0xbd0e1490	-0.03468758
75	0xbc6fe3cd	-0.014641714
76	0x3dd8b3a2	0.10581137
77	0x3d8ba755	0.068190254
78	0xbc3e0702	-0.0115983505
79	0xbb013814	-0.0019717263
80	0x3d3c21f1	0.045930807
81	0xbe13b7da	-0.14425603
82	0x3e1208b5	0.14261134
83	0x3d4cc3b6	0.049991332
84	0x3cd9ff2b	0.026610931
85	0xbd781bc2	-0.060573347
86	0x3c5eb92a	0.013593951
87	0x3da66ae7	0.08125859
88	0x3cce2adc	0.025166921
89	0xbd01124a	-0.031511582
90	0xbd535212	-0.05159194
91	0x3c9e9d61	0.019362153
92	0xbd30ac19	-0.043132875
93	0x3bf78d56	0.0075546904
94	0x3d4e1c67	0.050320055
95	0x3c90100c	0.017585777
96	0xbc218cd3	-0.009860235
97	0xbdfbf7c2	-0.123031154
98	0x3d4969d0	0.049173176
99	0xbdc65e15	-0.096859135
100	0x3d8c11d4	0.06839338
101	0xbd57814f	-0.052613553
102	0xbd5d3d3a	-0.05401347
103	0x3cbb9773	0.022899365
104	0xbc48afe2	-0.012248965
105	0x3daab142	0.083345905
106	0xbd7296df	-0.059225913
107	0xbe2e2902	-0.1700783
108	0x3e609aa9	0.21933998
109	0xbe11c0c5	-0.14233692
110	0xbddb5d80	-0.10711193
111	0xbd7fc853	-0.062446903
112	0x3d98181b	0.07426473
113	0x3dfbdacf	0.12297594
114	0xbd917427	-0.071022324
115	0xbd135113	-0.03596599
116	0xbcad994c	-0.021191262
117	0x3d0352c3	0.03206135
118	0xbd0eeb53	-0.03489239
119	0x3d69219a	0.05691681
120	0x3d1f5465	0.038898844
121	0x3d85d8b6	0.06535475
122	0xbc465454	-0.012105066
123	0xbe101682	-0.14071086
124	0xbcd410da	-0.025886942
125	0x3c720159	0.014770829
126	0x3d1c2a44	0.038126245
127	0xbd177599	-0.036977384
128	0xbdac8c7a	-0.08425231
129	0x3cd5ae81	0.026084187
130	0xbe29bc95	-0.16575845
131	0xbd939b94	-0.072074085
132	0x3e347bba	0.17625323
133	0xbe018dee	-0.12651798
134	0xbd9d4f5c	-0.07681152
135	0x3d092292	0.033480234
136	0x3d97d451	0.07413543
137	0x3df0bc3f	0.11754655
138	0x3c98565a	0.018595863
139	0x3d40cc9b	0.047070127
140	0xb9aa5dcc	-0.0003249481
141	0xbc219fba	-0.009864742
142	0x3c167480	0.009183049
143	0x3d442c90	0.04789406
144	0x3d040582	0.032231815
145	0xbde6b204	-0.112644225
146	0x3e023c84	0.12718397
147	0x3de0ebf8	0.109825075
148	0xbdeba56f	-0.11506163
149	0xbdbfd49d	-0.09366725
150	0x3c4fcea3	0.012683543
151	0xbc7628f9	-0.015024417
152	0xbe39ac55	-0.18132146
153	0xbda6c41c	-0.08142874
154	0xbc8f847b	-0.017519226
155	0xbd1acb55	-0.03779157
156	0xbe02fc2e	-0.12791511
157	0x3c6d2818	0.014474891
158	0xbd604bc2	-0.05475975
159	0x3d848afd	0.064718224
160	0x3e0b5288	0.13605702
161	0x3dceb82f	0.10093724
162	0x3bd86c05	0.006604674
163	0x3cf2b383	0.029626613
164	0x3c14082c	0.009035151
165	0xbd35377a	-0.04424236
166	0x3de260f1	0.11053646
167	0xbe3e8799	-0.18606414
168	0x3c6006aa	0.013673464
169	0xbd758c2a	-0.059948124
170	0x3e2b27f3	0.16714458
171	0xbe085acd	-0.13315888
172	0xbb87132f	-0.00412216
173	0x3ca59451	0.020212324
174	0xbdfa7a8a	-0.12230404
175	0x3d82793e	0.06370781
176	0x3db8da87	0.09026056
177	0x3d547365	0.05186786
178	0x3d4829a7	0.048867848
179	0xbd8fd354	-0.070227295
180	0x3b55aec1	0.0032605382
181	0x3d67b26d	0.056566644
182	0xbd971368	-0.07376748
183	0xbda4ff16	-0.08056466
184	0xbd700150	-0.058595
185	0x3dc6d637	0.09708827
186	0xbdf4325b	-0.11923667
187	0xbc975cb6	-0.018476825
188	0x3da7f7e2	0.08201577
189	0xbceb78f8	-0.028744206
190	0x3bacba80	0.005271256
191	0x3d201f3c	0.039092287
192	0x3dcc37d6	0.09971587
193	0x3dd39e09	0.10332877
194	0xbd701e7f	-0.058622833
195	0x3d43d937	0.047814574
196	0x3e14c1ba	0.14527026
197	0xbe56332b	-0.20917957
198	0x3e00f46b	0.12593238
199	0x3c87dd42	0.016584996
200	0xbe0bff48	-0.13671601
201	0xbceab088	-0.02864863
202	0x3c67fda2	0.014159592
203	0xbbd1246a	-0.0063825147
204	0x3d22008c	0.039551303
205	0x3e04941e	0.12947127
206	0xbd33d5bc	-0.043905005
207	0xbddf2d68	-0.108973324
208	0xbd936634	-0.07197228
209	0x3c5a0104	0.013305906
210	0x3d65a506	0.05606558
211	0x3db3e16b	0.087832294
212	0x3d1aff1e	0.037840955
213	0xbd79e1f2	-0.061006494
214	0x3d2e36d0	0.042532742
215	0xbd97880c	-0.07398996
216	0x3d94b8ed	0.07261834
217	0x3d110b1c	0.035410985
218	0xbd962732	-0.07331695
219	0xbd18ca7c	-0.03730248
220	0xbd0a2112	-0.033722945
221	0x3e076541	0.13222219
222	0x3c98c15c	0.018646888
223	0x3da6556e	0.08121763
224	0x3cb659f6	0.022259694
225	0x3d7a3536	0.061085902
226	0x3da36104	0.07977489
227	0x3d8dafc0	0.06918287
228	0x3dc40cae	0.09572731
229	0xbdcc14a8	-0.09964877
230	0xbdcdc967	-0.1004818
231	0x3dd74392	0.10510935
232	0x3bde471f	0.0067833806
233	0xbc0ed6ed	-0.0087182345
234	0x3b795494	0.0038044797
235	0xbe2baf48	-0.16766083
236	0x3e02def7	0.12780367
237	0xbe2c2bb0	-0.1681354
238	0xbcb8e0d5	-0.022568146
239	0xbd108199	-0.035279844
240	0x3e0daf17	0.13836323
241	0x3c86d73b	0.016460052
242	0x3b6c5508	0.0036061425
243	0x3c1232d3	0.00892325
244	0xbdca9e79	-0.098935075
245	0x3e07d2d5	0.1326402
246	0xbdcd6b26	-0.100302026
247	0x3cebd861	0.028789701
248	0xbceae6d7	-0.028674526
249	0x3db5277a	0.0884542
250	0x3db050c9	0.086091585
251	0xbe0baa8d	-0.13639279
252	0xbb6e0ce9	-0.0036323613
253	0xbc1e26ea	-0.0096528325
254	0x3c3ad833	0.011404085
255	0xbdc5c310	-0.09656346

bias_ih_l0 f4 [512]
0	0x3d67eb9c	0.05662118
1	0xbd1b3eb1	-0.037901584
2	0x3d2a73ab	0.041614216
3	0x3e42ef38	0.19036567
4	0xbcb1dfff	-0.021713255
5	0xbc70effa	-0.014705652
6	0xbd18d7b6	-0.037315093
7	0x3b890945	0.004182013
8	0xbcbdedea	-0.023184735
9	0xbd3b0905	-0.0456629
10	0xbc0e9274	-0.008701909
11	0x3c4f149f	0.012639194
12	0x3d1f300e	0.038864188
13	0x3d2c659f	0.0420891
14	0xbd8dc7ed	-0.069228984
15	0x3deb176a	0.11479075
16	0xba6072dd	-0.0008562038
17	0x3dcaa363	0.09894445
18	0x3d8d62a2	0.06903578
19	0xbb970e6c	-0.0046098735
20	0x3b12590a	0.0022330903
21	0x3ddb34f8	0.10703462
22	0x3dfef862	0.12449719
23	0xbd964b89	-0.07338626
24	0x3ca896bc	0.020579688
25	0x3cd3b0f5	0.025841216
26	0x3dc185af	0.09449326
27	0x3ca39210	0.019967109
28	0xbbe8e4c1	-0.0071073477
29	0x3dd3ae15	0.10335938
30	0x3e205bb2	0.15659979
31	0x3b6c9cbe	0.0036104168
32	0x3d7e1157	0.062028255
33	0x3dc9eae7	0.09859257
34	0x3e47a3f5	0.19496138
35	0xbd012385	-0.031528015
36	0x3e0583cc	0.13038558
37	0x3d00fd4f	0.031491574
38	0x3c2678e0	0.010160655
39	0xbc924ce0	-0.017858922
40	0x3e20fc52	0.15721253
41	0x3c48eefc	0.01226401
42	0x3db9ec4c	0.09078273
43	0xbd4c53b9	-0.04988453
44	0x3d364d56	0.044507347
45	0x3c348513	0.0110180555
46	0x3def87b0	0.11695802
47	0x3e05081e	0.12991378
48	0x3c8d0a91	0.017216953
49	0x3dd6bd31	0.10485304
50	0x3d627739	0.05528948
51	0xba4a6983	-0.0007721411
52	0x3d9fbf11	0.07800115
53	0xbd3898f6	-0.04506775
54	0x3dfd452b	0.12366708
55	0xbd68c136	-0.056824885
56	0x3cfb3f60	0.030669868
57	0x3e0439a9	0.1291262
58	0x3d26c5cd	0.04071598
59	0x3d1460d3	0.03622515
60	0x3dc9130d	0.09818087
61	0x3dfe1c47	0.12407737
62	0x3b15ba18	0.0022846516
63	0x3d6362ca	0.055514134
64	0x3d76f882	0.06029559
65	0x3d5a034f	0.05322581
66	0x3cf1e077	0.029525978
67	0xbca2efe8	-0.019889787
68	0x3c7d09f0	0.015444264
69	0x3d3a5064	0.045486823
70	0x3d3cc373	0.046084832
71	0x3dad0bdb	0.08449527
72	0x3dd62721	0.10456682
73	0x3d47e720	0.048804402
74	0x3d829856	0.06376712
75	0xbd820ada	-0.06349726
76	0x3c8181f3	0.015809035
77	0x3c385600	0.011250973
78	0x3df9cd11	0.121973164
79	0x3df6a954	0.120440155
80	0x3b059197	0.0020380968
81	0xbce6830d	-0.028138662
82	0x3d8de82c	0.06929049
83	0xbc8506f5	-0.016238669
84	0xbbe7e2b0	-0.007076584
85	0x3dcd40b6	0.10022108
86	0x3c27414d	0.01020844
87	0xbcf3ea05	-0.029774675
88	0xbd03a94c	-0.032143876
89	0xbc9513e4	-0.018197961
90	0x3df33ea2	0.11877181
91	0x3df1565b	0.11784049
92	0x3e831042	0.2559834
93	0x3d831e9e	0.06402324
94	0xbd607f8a	-0.05480913
95	0x3de7a162	0.11310078
96	0xbd189bba	-0.037257887
97	0x3c9ed564	0.019388862
98	0xbc958c02	-0.018255237
99	0xbc018c98	-0.007907055
100	0x3db4671e	0.088087305
101	0x3cf1d1e8	0.029519036
102	0x3d2196ab	0.03945033
103	0x3cc949fe	0.024571415
104	0x3d5d4fc4	0.05403115
105	0x3d0259a0	0.031823754
106	0xbd4f7de5	-0.05065717
107	0x3d20afab	0.03923003
108	0x3dbfdadb	0.09367915
109	0x3d46314f	0.048386868
110	0x3af2e054	0.001852999
111	0x3d2ee70f	0.042700823
112	0x3b91c317	0.0044483053
113	0x3c624165	0.013809537
114	0x3d44da4b	0.048059743
115	0xbd4fd4ab	-0.050739925
116	0x3bdb6a3e	0.0066960147
117	0x3d94f675	0.072735704
118	0x3ccd05ef	0.025027243
119	0x3dfac587	0.122447066
120	0x3dd52239	0.10406918
121	0x3d3a1cd8	0.045437664
122	0x3e017deb	0.1264569
123	0x3d73eb66	0.059550665
124	0x3e60f1db	0.2196726
125	0x3b8b0c03	0.0042433753
126	0x3de0e1d1	0.10980571
127	0xbcd53c7d	-0.02602982
128	0x3dc2aa42	0.0950513
129	0x3d53eaae	0.05173748
130	0xbc1c9ec6	-0.009559339
131	0x3c95fedb	0.018310001
132	0x3d093888	0.033501178
133	0x3d95233e	0.072821125
134	0xbcc8191d	-0.024426037
135	0x38aac385	8.14265e-05
136	0x3dc7c4c6	0.097543284
137	0xbd9e9cf8	-0.07744783
138	0xbd1ae6f4	-0.03781791
139	0x3ad3d12c	0.001616036
140	0x3d6a9990	0.057275355
141	0xbd47408f	-0.048645552
142	0xbdb1bc72	-0.08678521
143	0xbc9ecc56	-0.019384544
144	0xbcb2f70d	-0.021846319
145	0x3cb17684	0.021662958
146	0x3dc4fcd1	0.096185334
147	0xbcfde49a	-0.030992795
148	0x3cbb588c	0.02286937
149	0xbdbf9f3b	-0.09356543
150	0x3d99ec4f	0.075157754
151	0xbda59f23	-0.080869935
152	0x3d1119dc	0.035425052
153	0x3dbbf075	0.09176723
154	0x3de11558	0.10990399
155	0x3cd60772	0.026126597
156	0x3d9e9729	0.07743675
157	0xbc61f618	-0.0137915835
158	0x3dcc4080	0.0997324
159	0x3e02f95e	0.12790439
160	0xbcd982ca	-0.026551623
161	0x3dcb6fcb	0.09933432
162	0xbda897f3	-0.08232107
163	0xbd4b496e	-0.049630575
164	0x3da11a6b	0.07866367
165	0x3de6749b	0.112527095
166	0xbb8f725f	-0.004377648
167	0x3d4abb06	0.049494766
168	0x3d482702	0.048865326
169	0xbc43ea47	-0.011957712
170	0xbbb722d0	-0.005588867
171	0xbccf0a02	-0.025273327
172	0xbde087f1	-0.10963429
173	0x3ddfcc3f	0.10927629
174	0xbda3c5b2	-0.07996692
175	0xbc90ac54	-0.017660297
176	0x3dac0a5d	0.08400414
177	0x3d99eea2	0.07516219
178	0x3b9f93c0	0.004869908
179	0x3ce0118d	0.027352119
180	0xbbc3a034	-0.0059700254
181	0x3db99c19	0.090629764
182	0xbbea5975	-0.0071517774
183	0xbd7b1fee	-0.061309747
184	0x3d0f5958	0.034997314
185	0x3d9a806d	0.075440265
186	0xbc1cb21b	-0.009563948
187	0x3d97e571	0.07416809
188	0xbb5fccf7	-0.0034149268
189	0x3d890a26	0.06691389
190	0xbc93c58d	-0.018038535
191	0x3dbd5dfe	0.09246443
192	0xbd8e6725	-0.06953267
193	0xbd94cf92	-0.072661534
194	0xbd85816e	-0.065188274
195	0x3d30a912	0.043129988
196	0xbd16b95d	-0.03679787
197	0x3a4634f9	0.0007560994
198	0x3d09e7fa	0.033668496
199	0x3b44b3c5	0.0030014378
200	0x397b906a	0.00023991024
201	0xbc959c09	-0.01826288
202	0x3e07dfce	0.13268968
203	0xbd8b5788	-0.06803805
204	0xbdb5f57e	-0.088847145
205	0xbcffd6d3	-0.031230366
206	0x3dc24080	0.09484959
207	0x3d906720	0.070509195
208	0xbd6ba5a5	-0.057531018
209	0xbdc11f8f	-0.094298474
210	0x3c888783	0.01666618
211	0xbd16f386	-0.036853336
212	0x3d5cb667	0.05388489
213	0x3cb57f9e	0.02215558
214	0x3d92565b	0.07145377
215	0xbd0ab117	-0.033860292
216	0xbd9a05ff	-0.07520675
217	0x3a84df44	0.0010137339
218	0xbd12726a	-0.035753645
219	0x3dca9657	0.09891956
220	0x3d144909	0.036202464
221	0xbd89db4c	-0.06731281
222	0x3cf3064c	0.029666089
223	0x3d85ad02	0.06527139
224	0x3cf9ada2	0.030478302
225	0xbd8e19d0	-0.06938517
226	0x3de379eb	0.111072384
227	0xbcf4861d	-0.029849106
228	0x3b2653d4	0.0025379555
229	0x3db6f421	0.08933283
230	0xbc225946	-0.00990898
231	0x3d5a1ef0	0.05325216
232	0xbd43fdeb	-0.047849577
233	0xbdd38bef	-0.103294246
234	0xbdaad245	-0.08340887
235	0x3d856a1a	0.06514378
236	0xbc99f496	-0.018793385
237	0x3dd8d4a4	0.10587433
238	0xbc984645	-0.018588195
239	0xbcb2d81b	-0.021831563
240	0x3dbfe6b4	0.09370175
241	0xbd7a89ea	-0.06116668
242	0xbdc837e6	-0.09776287
243	0xbc5b7a0b	-0.0133957965
244	0xbbcd2cef	-0.00626146
245	0xbc3e502c	-0.011615794
246	0x3d2d2654	0.04227288
247	0x3c61f27c	0.013790723
248	0xbde45423	-0.1114886
249	0x3d6e9232	0.05824489
250	0x3dae9b24	0.085256845
251	0xbd3fc5b5	-0.046819407
252	0x3da1ef9a	0.079070285
253	0x3c148e68	0.009067155
254	0x3dc23bef	0.09484088
255	0x3d41dcef	0.04732984

bias_hh_l0 f4 [512]
0	0x3d1efbf9	0.03881452
1	0xbb9832f6	-0.004644747
2	0x3d607e69	0.054808054
3	0x3df1fd50	0.11815894
4	0x3d328f7e	0.043593876
5	0x3c9ba21f	0.018998204
6	0x3d51d983	0.051232826
7	0x3dbe496b	0.09291347
8	0x3de1718a	0.11007984
9	0x3d408511	0.047001902
10	0xbcecf584	-0.028925665
11	0x3c0c4f32	0.0085638035
12	0x3de131a7	0.109957986
13	0x3d026371	0.031833116
14	0xbd5548b5	-0.052071292
15	0xbc027f5b	-0.007964934
16	0x3d826afc	0.06368062
17	0x3defdee7	0.11712437
18	0x3dac16ac	0.08402762
19	0x3dba04e2	0.090829626
20	0x3d592a7d	0.053019036
21	0x3d348287	0.044069793
22	0x3d0b49df	0.034005996
23	0xbc1c16f2	-0.009526955
24	0x3de2a9ae	0.1106752
25	0x3d527a4e	0.05138617
26	0x3e0a4ca4	0.13505799
27	0x3dcd3369	0.10019571
28	0x3da5b1df	0.08090567
29	0x3dbd0fa6	0.092315
30	0x3cc35738	0.0238453
31	0xbc447d55	-0.011992772
32	0x3c9db3e5	0.01925082
33	0x3dcb4a85	0.09926323
34	0x3e37fd2c	0.17967671
35	0x3cf0e0a8	0.029404
36	0x3e1c8bda	0.15287724
37	0x3d8450aa	0.06460698
38	0xbd1173d1	-0.03551084
39	0x3d8304e9	0.06397421
40	0x3e07a136	0.13245091
41	0x3c4ab41f	0.012372046
42	0x3d3d5f38	0.046233386
43	0x3da8225f	0.08209681
44	0xbda2b8e0	-0.07945418
45	0x3d04855d	0.032353748
46	0x3dac4b5e	0.08412813
47	0x3e6450e7	0.22296487
48	0x3e05f60f	0.13082145
49	0x3df2dcdd	0.118585326
50	0x3d96aa79	0.07356734
51	0x3dae5a5a	0.08513327
52	0x3d1eec48	0.038799554
53	0x3de20e3a	0.1103787
54	0x3dbd0f42	0.09231426
55	0x3d932f22	0.07186724
56	0x3d7ba16c	0.06143324
57	0x3e7ce322	0.2469602
58	0xbbead7aa	-0.0071668224
59	0x3daf252d	0.085520126
60	0x3d1b0e8c	0.03785567
61	0x3df442ed	0.119268276
62	0x3cb1cf9c	0.021705441
63	0x3d9eea3b	0.0775952
64	0x3da3f8a9	0.080064125
65	0x3dc0b361	0.09409214
66	0x3d4aacb0	0.049481094
67	0xbc07d831	-0.00829129
68	0x3ded065d	0.11573479
69	0x3cc53781	0.024074318
70	0xbc93da39	-0.018048393
71	0x3cf0354e	0.029322293
72	0x3de9414e	0.11389409
73	0x3d947a6b	0.07249912
74	0x3cd59713	0.026073014
75	0x3ba181e2	0.0049288133
76	0xbd30e3fa	-0.043186165
77	0x3d81fa47	0.06346565
78	0x3dcee191	0.10101617
79	0x3da96523	0.082712434
80	0x3dbb0f7d	0.091338135
81	0xbd2e58b5	-0.042565066
82	0x3c1f8caf	0.009738131
83	0x3c2ed3ed	0.010670644
84	0xbc96083b	-0.018314471
85	0x3e341343	0.17585473
86	0x3dd60817	0.10450762
87	0x3dd31859	0.10307378
88	0x3b5a1d2e	0.0033281553
89	0x3dc7388f	0.097275846
90	0x3e0a34a2	0.1349664
91	0x3cdd5e83	0.027022606
92	0x3e33d3a5	0.17561205
93	0xbb02edad	-0.0019978092
94	0x3dec5622	0.11539866
95	0x3bab65d2	0.005230644
96	0x3ba5402a	0.0050430493
97	0xbd1e442a	-0.038639225
98	0xbcc4de56	-0.0240318
99	0x3d97ce23	0.07412364
100	0xbc40ee04	-0.011775497
101	0x3d097007	0.033554103
102	0x3e2283c4	0.15870577
103	0x3debde7b	0.11517044
104	0xbda5f4f2	-0.0810336
105	0x3d481f18	0.04885778
106	0xbdd02fdc	-0.101653785
107	0x3e1ab303	0.1510735
108	0x3e65d2c6	0.22443685
109	0x3da24302	0.07922937
110	0x3c9ad73f	0.018901465
111	0x3ccae50d	0.024767423
112	0x3e04142a	0.12898317
113	0xbc8ab241	-0.016930701
114	0xbd8225e9	-0.06354887
115	0x3da9e062	0.08294751
116	0x3d142977	0.036172356
117	0x3cdc8150	0.02691713
118	0x3ce56ba7	0.028005434
119	0x3dfd62d4	0.123723656
120	0x3cb4f5e4	0.022089906
121	0x3e1053e0	0.14094496
122	0x3df06105	0.11737255
123	0xbc7142da	-0.014725411
124	0x3e5d571f	0.21615265
125	0xbc804b13	-0.015660798
126	0x3d99bac4	0.07506326
127	0x3dc7ba3d	0.09752319
128	0x3d7280fb	0.059205037
129	0x3d16c1cb	0.03680591
130	0x3dbb24e5	0.091378964
131	0xbca587b5	-0.020206312
132	0xba7a7f67	-0.00095557276
133	0x3c90e29d	0.017686183
134	0x3d5e9321	0.05433953
135	0x3cc1dfdc	0.023666315
136	0x3d9081db	0.07056018
137	0x3db87fa8	0.090087235
138	0x3cc5d275	0.024148205
139	0x3d6a5d7b	0.057218056
140	0x3d845219	0.064609714
141	0x3d80eafa	0.06294818
142	0xbdbf448c	-0.09339246
143	0x3c7cb0d8	0.015423022
144	0xbd1a0302	-0.037600525
145	0x3d1cb48a	0.038258113
146	0x3d709f4d	0.05874567
147	0x3d531335	0.05153199
148	0x3df2e625	0.11860303
149	0xbcd12239	-0.025529014
150	0xbd7db3ff	-0.061939236
151	0x3b94a380	0.0045360923
152	0x3d56dec8	0.052458555
153	0x3ab5e296	0.0013876732
154	0x3d7e2a42	0.06205202
155	0x3d8548ee	0.06508051
156	0x3dbf5bb9	0.093436666
157	0xbcaf0f9f	-0.021369753
158	0xbc3f5902	-0.011678936
159	0x3d973f1c	0.07385084
160	0xba2fcffd	-0.0006706713
161	0xbcd926f3	-0.02650783
162	0x3ce544bd	0.027986879
163	0xbd92779d	-0.07151721
164	0x3db2bc2a	0.08727296
165	0x3d34ac19	0.044109438
166	0x3d9e6169	0.07733423
167	0xbd90ede3	-0.07076623
168	0x3da37cb9	0.07982773
169	0xbccc636f	-0.024949757
170	0x3d96ba7e	0.07359789
171	0xbca8a20d	-0.020585084
172	0xbd2d9070	-0.042374074
173	0xbd5446cb	-0.051825326
174	0xbd201b0d	-0.039088298
175	0x3d225a24	0.039636746
176	0xbd0d4144	-0.03448607
177	0xbc95fb28	-0.018308237
178	0x3c929b0c	0.017896198
179	0xbd1d7821	-0.038444642
180	0x3d31db29	0.043421898
181	0xbd6fd5df	-0.058553573
182	0x3d9c7415	0.076393284
183	0x3cf35ade	0.029706415
184	0x3e13bc24	0.14427239
185	0x3d8dbf86	0.06921296
186	0xbdba17cd	-0.09086571
187	0xbd71a6ba	-0.058996893
188	0x3bdbb0ee	0.0067044413
189	0xbd4b0d19	-0.049573038
190	0xbd2af00a	-0.041732825
191	0xbd97d385	-0.07413391
192	0xbca82085	-0.020523319
193	0x3c8d598a	0.01725461
194	0x3d691779	0.05690715
195	0x3d26f3d0	0.04075986
196	0xbcc6fe87	-0.02429129
197	0xbcb6a101	-0.02229357
198	0x3bd8ea91	0.0066197594
199	0x3c16ff43	0.009216133
200	0x3adc4b5d	0.0016807128
201	0xba9a4466	-0.0011769652
202	0x3da86b6c	0.08223614
203	0xbd6f10d0	-0.058365643
204	0xbd56a32a	-0.0524017
205	0xbd0e1a71	-0.034693185
206	0x3c4195ff	0.011815547
207	0x3d154781	0.036445145
208	0x3cd47155	0.025932947
209	0x3c485ca2	0.012229117
210	0xbd67033a	-0.05639956
211	0x3d88e90a	0.06685074
212	0xbd5d1247	-0.05397251
213	0x3d724ace	0.05915337
214	0xbd42bd2b	-0.047543686
215	0xbcce5a78	-0.025189623
216	0xbd9035a3	-0.070414804
217	0xbb073b27	-0.0020634623
218	0x3d1b60a7	0.03793397
219	0xbd0ee2de	-0.034884326
220	0x3e448f07	0.19195186
221	0x3c27d3ce	0.010243369
222	0xbcd4433e	-0.02591097
223	0x3d6a23e3	0.05716313
224	0xbd2ff45b	-0.042957645
225	0xbc8da68d	-0.017291332
226	0xbd0ec84e	-0.034858994
227	0x3dc888a0	0.09791684
228	0x3c9762dc	0.018479757
229	0xbbcc17cf	-0.006228424
230	0x3d53a209	0.0516682
231	0x3de4302e	0.11142002
232	0x3d817b44	0.06322339
233	0x3d282102	0.041047104
234	0xbd4ebc50	-0.050472558
235	0x39a5d554	0.00031630194
236	0xbcc87461	-0.024469556
237	0x3ba13950	0.0049201623
238	0x3d952759	0.072828956
239	0x3dec39c3	0.11534455
240	0x3dd40ef3	0.10354414
241	0x3ccd3dd2	0.025053892
242	0xbd80ed00	-0.06295204
243	0xbd50a5e6	-0.050939463
244	0x3c83c0ac	0.016083084
245	0x3d93cfff	0.072174065
246	0x3be79fe9	0.0070686233
247	0x3d1c1421	0.038105134
248	0x3d17cb4a	0.037059106
249	0x3d8a73db	0.06760379
250	0x3d81ecac	0.0634397
251	0xbdde0476	-0.108406946
252	0x3d324668	0.043524176
253	0xbdc22247	-0.09479194
254	0x3d80a30e	0.062811
255	0xbd356a5f	-0.044290897

weight_ih_l0 f4 [20, 128]
0	0xbec959f2	-0.39326435
1	0xbe457475	-0.19282706
2	0x3ed843cd	0.42239228
3	0x3e6d14af	0.23152421
4	0xbe875391	-0.26430944
5	0x3ea3e9fa	0.32014447
6	0xbd7487f7	-0.05969998
7	0x3ebf3c49	0.3735068
8	0xbeba4bed	-0.36386052
9	0x3ef43047	0.47693083
10	0xbdd710f3	-0.1050128
11	0xbd6c2ab2	-0.057657905
12	0x3e49fa80	0.19724464
13	0x3ee7cac0	0.45271873
14	0x3e5210c1	0.20514204
15	0x3dedc283	0.11609366
16	0xbe80544c	-0.25064313
17	0xbcc572eb	-0.024102649
18	0xbe338edf	-0.1753497
19	0x3ec7db3c	0.3903445
20	0x3ec7d562	0.39029986
21	0x3e29e02d	0.16589423
22	0x3e8cf332	0.27529293
23	0x3ebeb64e	0.37248462
24	0x3ec1af9e	0.37829298
25	0xbe03b2ee	-0.12861225
26	0xbee0c511	-0.4390035
27	0x3dbca449	0.092110224
28	0xbecb7b84	-0.39742672
29	0xbe933d34	-0.28757632
30	0x3e52b190	0.20575547
31	0xbeb33060	-0.34997845
32	0x3ef199ab	0.47187552
33	0x3e7c9a0f	0.24668144
34	0xbee53637	-0.44767925
35	0x3dc14d86	0.094386145
36	0x3e9f8a61	0.31160262
37	0xbeca0262	-0.39454943
38	0xbe56a380	-0.20960808
39	0xbe75af45	-0.23992641
40	0xbdfd562d	-0.12369952
41	0xbeb2ac6b	-0.3489717
42	0xbdf1c65f	-0.118054144
43	0xbe89b56c	-0.26896226
44	0xbe6372de	-0.22211787
45	0x3d28a40c	0.041172072
46	0x3eafe7ec	0.3435663
47	0x3dce8a14	0.1008493
48	0xbe02e818	-0.12783849
49	0x3ea022bc	0.312765
50	0x3ee7f3ea	0.4530328
51	0x3e517e30	0.20458293
52	0xbe7037a6	-0.23458728
53	0xbe198f4f	-0.14996074
54	0xbef8e5e2	-0.48612887
55	0x3c983b52	0.018582974
56	0x3db889f1	0.09010685
57	0xbdf256aa	-0.11832936
58	0xbe4aff27	-0.19823895
59	0xbd8e6d4a	-0.06954439
60	0xbefb1a8d	-0.49043694
61	0x3e417d4e	0.18895456
62	0xbec77cca	-0.38962394
63	0xbebba6c9	-0.36650684
64	0xbdcf19e6	-0.101123616
65	0x3efc90ee	0.49329323
66	0x3ee12b2b	0.43978247
67	0xbbe4ff04	-0.006988408
68	0xbe8c245f	-0.273715
69	0xbb15cb96	-0.0022856942
70	0xbc762a14	-0.015024681
71	0xbe5e667d	-0.21718784
72	0x3e96b1a0	0.29432392
73	0xbe5b8779	-0.21438397
74	0xbea7608f	-0.32690856
75	0x3eccd377	0.40005085
76	0xbdc3bc69	-0.09557421
77	0x3ea9f37f	0.33193585
78	0xbe06dc5d	-0.1317
79	0xbd76ba9e	-0.060236566
80	0xbefc6d55	-0.49302164
81	0xbe47303f	-0.19451998
82	0xbe97efbb	-0.29675087
83	0x3e8a1cd5	0.26975122
84	0xbeb618ec	-0.3556589
85	0x3e9b1524	0.30289567
86	0x3b741d31	0.0037248845
87	0x3e71d2eb	0.23615615
88	0x3e8a1f1e	0.26976866
89	0xbe2b4d98	-0.16728818
90	0xbe554b01	-0.20829393
91	0x3e824a35	0.2544724
92	0x3d47e7ec	0.048805162
93	0xbda8cf8c	-0.082427114
94	0xbe7cc415	-0.24684174
95	0xbe989a89	-0.298054
96	0x3d72318d	0.059129287
97	0xbe9278ff	-0.28607938
98	0x3ee7bce5	0.45261303
99	0x3e1b2879	0.15152158
100	0xbedf3c56	-0.4360072
101	0x3e01d0d8	0.12677324
102	0xbedee0f0	-0.4353099
103	0xbe46d2e8	-0.19416392
104	0xbe7cba8c	-0.24680537
105	0xbf0e4d12	-0.5558635
106	0xbeb7ef7d	-0.35924903
107	0x3e3a2acd	0.1818039
108	0x3d27263e	0.040807955
109	0xbeaf16ee	-0.3419718
110	0xbea72001	-0.32641605
111	0xbbfcd4d1	-0.0077157994
112	0xbe290840	-0.16507053
113	0x3e429283	0.19001202
114	0x3e32ee0a	0.17473617
115	0x3e25c171	0.16187073
116	0xbdc63779	-0.09678549
117	0xbec6bbb7	-0.3881509
118	0x3eddd08d	0.43323174
119	0xbcfe5ecc	-0.031051062
120	0x3e86be05	0.26316848
121	0xbbb0aca4	-0.005391674
122	0x3ebb9dbf	0.36643788
123	0x3eef5ace	0.46748966
124	0x3e8707c8	0.26373124
125	0x3e57dca8	0.21080267
126	0x3e262763	0.16225962
127	0x3ca0141d	0.01954084
128	0xbd2c108e	-0.042007975
129	0x3e95d51a	0.29264146
130	0xbe97a638	-0.29619002
131	0x3ea74de4	0.32676613
132	0x3eeb230e	0.45925182
133	0xbd8a59eb	-0.06755432
134	0xbe25646e	-0.16151592
135	0x3df16c34	0.11788216
136	0x3dfd9a8c	0.12382993
137	0xbca7664f	-0.020434527
138	0xbe627801	-0.2211609
139	0x3ee8f4f5	0.45499387
140	0xbe67e245	-0.22644909
141	0xba2c14c0	-0.0006564371
142	0xbe6d5cd2	-0.2317994
143	0x3d19f60a	0.037588157
144	0xbef839f0	-0.48481703
145	0xbe299cf4	-0.16563779
146	0xbe7a531e	-0.24445769
147	0xbdfbc4dc	-0.12293407
148	0xbecae606	-0.3962862
149	0xbee4d33a	-0.44692403
150	0xbe8e3caf	-0.27780673
151	0xbe9514d7	-0.29117462
152	0xbd912c83	-0.07088568
153	0x3e6d70dc	0.23187584
154	0xbdb865e1	-0.09003807
155	0x3cecc6df	0.028903423
156	0xbb999334	-0.0046867374
157	0xbe0aaf54	-0.13543445
158	0xbe51a281	-0.20472147
159	0xbd17761d	-0.036977876
160	0xbe494e32	-0.19658735
161	0x3e7de34c	0.24793738
162	0xbedb46ab	-0.42827353
163	0xbe007ffa	-0.12548819
164	0x3e83ed23	0.25766858
165	0xbe1a08c3	-0.15042405
166	0xbd9d5caf	-0.076836936
167	0xbf00a461	-0.5025082
168	0x3e007942	0.12546256
169	0x3edd50e7	0.43225786
170	0xbdd31466	-0.10306625
171	0x3e9de66d	0.30839863
172	0x3e7665e0	0.240623
173	0xbec77557	-0.3895671
174	0xbefda927	-0.49543115
175	0xbebcc799	-0.3687103
176	0x3e158755	0.14602406
177	0x3c11adeb	0.008891563
178	0x3ea4ad79	0.321636
179	0xbde60751	-0.11231864
180	0xbd08e580	-0.033421993
181	0x3e0d8322	0.13819554
182	0x3ed952aa	0.4244588
183	0xbb25c1c3	-0.0025292493
184	0x3e6c1bf6	0.23057541
185	0x3e42da7d	0.19028659
186	0xbe84e1dc	-0.25953567
187	0x3ddb5ae3	0.10710695
188	0xbd8b03b9	-0.067878194
189	0xbeb3a2eb	-0.35085234
190	0xbec5ab5a	-0.38607293
191	0x3ea97780	0.33098984
192	0xbecb96d1	-0.397635
193	0xbc38f6ed	-0.01128934
194	0x3ea2066f	0.31645533
195	0xbec0fc52	-0.37692505
196	0xbd9575c4	-0.07297853
197	0x3ed0e66f	0.40800807
198	0xbeb8a821	-0.36065772
199	0xbdee7b8a	-0.11644657
200	0xbdef46fa	-0.116834596
201	0xbe27c60b	-0.16384141
202	0xbeb98eee	-0.3624186
203	0x3f0a264f	0.53964704
204	0x3e2c6742	0.16836265
205	0x3da70e69	0.081570454
206	0xbdcd4d87	-0.10024553
207	0xbeab4272	-0.3344913
208	0xbf049dc1	-0.51803213
209	0xbd88c831	-0.066788085
210	0xbe036bd5	-0.12834103
211	0x3eb58de2	0.3545981
212	0x3f09514c	0.53639674
213	0x3f0df9de	0.5545939
214	0x3e809b52	0.251185
215	0x3ea3318a	0.31873733
216	0xbd850290	-0.064946294
217	0xbe1076dc	-0.14107841
218	0xbeb9d388	-0.36294198
219	0xbd8f30f4	-0.06991759
220	0xbeabdf0e	-0.33568615
221	0x3c95fada	0.018308092
222	0x3e0bddcc	0.13658828
223	0xbe0ac860	-0.13553
224	0x3e0f16e5	0.13973577
225	0xbea86989	-0.32893017
226	0xbee7ca01	-0.45271304
227	0xbe1a4f0e	-0.1506922
228	0xbecbd1de	-0.39808553
229	0xbeadd7d9	-0.3395374
230	0xbf09eb07	-0.5387425
231	0xbda95537	-0.082682066
232	0x3ead03b2	0.33791882
233	0xbe8547cb	-0.26031336
234	0x3c7e18a1	0.015508802
235	0xbe228628	-0.15871489
236	0x3e073582	0.13204005
237	0xbe8da3ac	-0.27663934
238	0x3e4a3ffd	0.19750972
239	0x3e952c3d	0.29135314
240	0x3cc6e331	0.024278255
241	0x3d88b72a	0.06675561
242	0xbe738df4	-0.2378462
243	0xbdc7242a	-0.097236946
244	0xbcb27529	-0.021784382
245	0x3f048dd4	0.5177891
246	0x3dc03830	0.09385717
247	0xbe76e1d8	-0.2410959
248	0xbd540e75	-0.0517716
249	0x3e363a82	0.17795756
250	0x3ef2db88	0.47433114
251	0xbd92ad04	-0.07161906
252	0xbe785148	-0.24249756
253	0x3ea8399f	0.3285646
254	0x3eb1d71d	0.3473443
255	0xbf127e79	-0.5722423

weight_hh_l0 f4 [20, 5]
0	0x3e1b4faf	0.15167116
1	0xbe440b0a	-0.19144836
2	0x3e02b05f	0.12762593
3	0x3e341f0d	0.1758997
4	0x3e67f525	0.22652109
5	0x3b4a46fb	0.0030865062
6	0xbe94b4fa	-0.29044324
7	0x3e1f3c33	0.15550308
8	0x3ead141d	0.33804408
9	0xbed1d60e	-0.40983623
10	0x3c88db0f	0.016706018
11	0xbdef74d9	-0.11692209
12	0x3e132454	0.14369327
13	0x3e347c26	0.17625484
14	0x3e86ed29	0.26352814
15	0xbef75c11	-0.4831243
16	0x3d9c3968	0.07628137
17	0x3da0342c	0.07822451
18	0x3dbd73c4	0.09250596
19	0xbdc741a9	-0.097293206
20	0x3ef1705b	0.47156033
21	0xbda16972	-0.0788144
22	0xbe8ce6ba	-0.2751978
23	0x3e8c2e50	0.27379084
24	0xbe3cacd9	-0.18425311
25	0xbe22920f	-0.1587603
26	0x3e60d648	0.21956742
27	0xbed94e54	-0.42442572
28	0x3e14371d	0.14474149
29	0xbd40c6a5	-0.047064442
30	0x3eaad866	0.33368224
31	0xbdd56c01	-0.10420991
32	0x3db8f258	0.090305984
33	0xbe8f6c2a	-0.2801221
34	0x3e70f1f6	0.23529801
35	0xbe29e935	-0.16592868
36	0x3ebdca9b	0.37068638
37	0x3ef8aa15	0.48567262
38	0xbee0a299	-0.43874052
39	0xbd417ea1	-0.047239903
40	0xbe17ab50	-0.14811444
41	0x3e94c77e	0.2905845
42	0xbe23c6d7	-0.1599382
43	0xbe64d407	-0.22346507
44	0xbd814218	-0.063114345
45	0x3eb08e5a	0.34483606
46	0xbdabd728	-0.08390647
47	0xbe70a119	-0.23498954
48	0xbd13e9a0	-0.036111474
49	0xbd2eb0e3	-0.04264916
50	0x3df855f0	0.12125766
51	0x3ea89133	0.32923278
52	0xbe869aa2	-0.2628985
53	0x3e4c2a49	0.19938006
54	0x3e08438c	0.13307017
55	0x3e3e7754	0.18600208
56	0x3d679d27	0.056546357
57	0xbecea4d8	-0.4036014
58	0x3dd44dfb	0.10366436
59	0x3e9491d5	0.2901751
60	0xbde5b424	-0.11216
61	0xbe9d017b	-0.30665192
62	0xbe4b42f0	-0.19849753
63	0xbeb2a37a	-0.34890348
64	0x3daf7c17	0.0856859
65	0x3e803dc4	0.25047123
66	0x3da6fbcb	0.081534944
67	0xbec65c0c	-0.387421
68	0xbe815cee	-0.25266212
69	0xbe07173c	-0.13192457
70	0xbe4c13c2	-0.19929412
71	0x3d78d352	0.060748406
72	0xbbfc3212	-0.0076963985
73	0xbdda7622	-0.10667063
74	0xbd415c05	-0.047206897
75	0x3ea7f998	0.32807612
76	0x3d3e6abd	0.046488512
77	0xbe9ed523	-0.31021985
78	0x3e99eba3	0.3006259
79	0xbe248db2	-0.16069677
80	0xbec45ae4	-0.38350594
81	0xbc718ca6	-0.014743006
82	0xbedcfb28	-0.43160367
83	0xbe8343ae	-0.25637573
84	0xbeea6a23	-0.457841
85	0xbe787911	-0.24264933
86	0xbeb4388a	-0.35199386
87	0xbe87bfbd	-0.26513472
88	0x3d917789	0.07102878
89	0xbeb0ad8c	-0.34507406
90	0xbefc409e	-0.4926805
91	0xbe7cc5df	-0.24684857
92	0xbd5a55cb	-0.053304475
93	0x3e43056f	0.19045042
94	0xbeed08d8	-0.4629581
95	0x3ec84b36	0.3911988
96	0xbd70e1be	-0.058809035
97	0x3e062596	0.13100275
98	0x3e9e5349	0.30922917
99	0x3ea3e602	0.3201142

bias_ih_l0 f4 [20]
0	0xbe8ddba6	-0.2770664
1	0x3eb903d9	0.36135748
2	0x3e1a816e	0.15088436
3	0x3e46951d	0.1939282
4	0xbe4ae85d	-0.19815202
5	0x3dfcd659	0.12345571
6	0x3ebc8601	0.36820987
7	0x3d890a34	0.06691399
8	0xbec03835	-0.37542883
9	0xbda5fd11	-0.08104909
10	0xbeb8e210	-0.36109972
11	0x3ebbe719	0.3669975
12	0x3ecf587a	0.4049719
13	0x3caa6b7b	0.020803204
14	0xbdae7d62	-0.085200086
15	0x3cc0b2a1	0.023522677
16	0xbe815748	-0.25261903
17	0x3e9fefa2	0.31237513
18	0xbcc60c76	-0.024175864
19	0xbd2bfff7	-0.041992154

bias_hh_l0 f4 [20]
0	0x3e9a9db1	0.30198434
1	0x3dbe0113	0.09277549
2	0x3dc836d8	0.097760856
3	0x3b8a37cf	0.0042180787
4	0x3eef9a4d	0.4679741
5	0x3ed8c2e4	0.4233619
6	0x3e3354ac	0.17512769
7	0x3df2e6c4	0.11860421
8	0xbe7cd851	-0.24691893
9	0xbe224ad1	-0.15848853
10	0xbe217a2b	-0.1576926
11	0xbe4e643d	-0.20155425
12	0x3dd04d12	0.1017095
13	0xbe012fdf	-0.12615918
14	0x3ed95618	0.42448497
15	0x3efcaef4	0.4935223
16	0x3ee0477b	0.43804535
17	0x3e3ebc06	0.18626413
18	0x3e086098	0.13318098
19	0x3cdc198c	0.02686765

weight_ih_l0 f4 [512, 5]
0	0x3d599c0c	0.053127334
1	0xbdb5d72c	-0.088789314
2	0xbd06cf5c	-0.032912597
3	0x3d187116	0.037217222
4	0x3d34a283	0.044100296
5	0xbd999457	-0.07498997
6	0x3cbde9fb	0.02318286
7	0xbe782a65	-0.24234922
8	0x3cffc108	0.031219974
9	0xbe6c5d03	-0.23082356
10	0x3d810533	0.0629982
11	0xbdbe95f1	-0.09305943
12	0xbd977b78	-0.07396597
13	0x3ca49c5d	0.020094091
14	0xbded667f	-0.11591815
15	0x3d4d0ca9	0.0500609
16	0xbd36ddbc	-0.044645056
17	0x3dbdf549	0.092753
18	0x3d242d9d	0.040082563
19	0xbd58dde4	-0.052945986
20	0xbddc4904	-0.10756114
21	0x3d016026	0.031585835
22	0x3bab03a1	0.0052189385
23	0xbd0afc44	-0.033931985
24	0xbd67cd52	-0.056592293
25	0xbdc115ef	-0.094280116
26	0xbdde828d	-0.10864744
27	0x3c3de3d5	0.011589964
28	0xbd597d7f	-0.053098198
29	0x3d244c49	0.040111814
30	0xbc8b3a31	-0.016995521
31	0xbd0d590e	-0.034508757
32	0xbbcfede2	-0.0063454965
33	0x3db6d7f9	0.08927912
34	0xbd6cdf6d	-0.057830263
35	0xbc606dff	-0.0136981
36	0xbdb84418	-0.08997363
37	0x3dc358f9	0.095384546
38	0x3d2cadfa	0.042158104
39	0x3da9892b	0.08278116
40	0xbe057ed4	-0.13036662
41	0xbe4ac175	-0.1980036
42	0x3e1a0f63	0.15044932
43	0xbe50e8e2	-0.20401338
44	0x3de39a52	0.11113419
45	0xbda2a818	-0.079422176
46	0x3ceb2513	0.028704202
47	0x3dad5040	0.08462572
48	0x3d457e2d	0.048216034
49	0x3d61269e	0.05496847
50	0xbd35a8a5	-0.044350285
51	0xbdbf0ed6	-0.093290016
52	0xbd461054	-0.048355415
53	0xbdd8071e	-0.105482325
54	0x3cb9dc99	0.022688197
55	0xbdafef5e	-0.085905775
56	0xbe240c91	-0.16020419
57	0x3d7aad78	0.06120059
58	0x3aa5295e	0.0012600829
59	0xbd5e680d	-0.05429845
60	0xbdc6c4b3	-0.09705486
61	0x3d1be329	0.038058434
62	0xbe1cbf22	-0.15307286
63	0x3cb09105	0.021553526
64	0xbcaef5e0	-0.021357477
65	0xbe0e69c4	-0.13907534
66	0xbdace8f2	-0.08442868
67	0x3e1c7fb9	0.15283097
68	0xbd9335a8	-0.071879685
69	0x3b48592b	0.0030570726
70	0x3c4b78a2	0.012418898
71	0x3d515ec1	0.051115755
72	0xba0500e0	-0.0005073678
73	0x3c6a83b9	0.014313632
74	0xbc6ed8af	-0.014578029
75	0xbcbd7127	-0.023125244
76	0x3c08ab52	0.008341627
77	0xbdabd199	-0.08389587
78	0xbdd60478	-0.10450071
79	0x3d8ea491	0.06964982
80	0xbd151d98	-0.036405176
81	0x3ceda05b	0.029007128
82	0xbd01fc17	-0.031734552
83	0xbc926489	-0.017870205
84	0xbdbf4efd	-0.09341238
85	0x3e01401d	0.12622114
86	0xbd92a413	-0.07160201
87	0x3cf90b74	0.03040097
88	0x3cf940f3	0.030426478
89	0x3bf3c838	0.0074396394
90	0xbdfda20d	-0.12384424
91	0xbc0dd1cc	-0.0086559765
92	0xbd77a7fe	-0.060462944
93	0x3d3b002c	0.04565446
94	0x3d2d4ce8	0.04230967
95	0xbd9a288a	-0.075272635
96	0xbd52e64d	-0.051489163
97	0xbd2df39b	-0.04246865
98	0x3c0a3614	0.008435745
99	0x3cd802aa	0.026368458
100	0x3daee9eb	0.0854071
101	0xbd723c2c	-0.059139416
102	0x3d6d91b7	0.058000293
103	0xbc8a56f0	-0.016887158
104	0x3defcdb3	0.11709156
105	0xbe4422d5	-0.19153912
106	0xbe2105fd	-0.1572494
107	0xbd5a40a4	-0.053284302
108	0xbc7a3589	-0.015271553
109	0xbdcf42d0	-0.10120165
110	0xbd1d7080	-0.038437366
111	0xbd8e90f1	-0.06961239
112	0xbdbdf279	-0.092747636
113	0xbc8d86a5	-0.017276118
114	0xbdbee3ae	-0.0932077
115	0xbe4d6f20	-0.20061922
116	0xbdf163b9	-0.11786599
117	0x3d9df447	0.07712608
118	0xbdcb5d83	-0.09929945
119	0xbc940721	-0.018069806
120	0xbd132aee	-0.035929613
121	0x3ca05e5d	0.019576246
122	0xbdeb13a7	-0.11478358
123	0xbd1f9d1b	-0.038968187
124	0xbe42f890	-0.19040132
125	0xbc7f65ae	-0.015588207
126	0x3d649ef9	0.05581567
127	0x3d9f043c	0.077644795
128	0x3d181151	0.03712589
129	0xbd1e3b5b	-0.038630825
130	0xbc51c462	-0.012803169
131	0xbdef38ca	-0.116807535
132	0x3cb8dcb8	0.022566184
133	0x3d7c9ca0	0.061672807
134	0xbd1b3df1	-0.03790087
135	0xbca4717b	-0.020073643
136	0xbbaffffa	-0.005371091
137	0x3d646fd8	0.055770725
138	0x3df01aec	0.11723885
139	0x3e0ecf11	0.13946177
140	0x3ba3b508	0.004995946
141	0xbd31ad6b	-0.043378275
142	0x3d606886	0.05478718
143	0x3a904aca	0.0011008617
144	0x3d3f61ef	0.046724256
145	0xbd5a16ce	-0.053244404
146	0xbdcb56f3	-0.099286936
147	0xbc8dc618	-0.017306373
148	0x3d0931df	0.033494826
149	0x3cf5a0af	0.029983846
150	0xbe234a6b	-0.15946357
151	0xbd884dbb	-0.06655451
152	0x3d2c54d2	0.04207308
153	0xbb9d74fc	-0.0048052054
154	0xbc101786	-0.008794671
155	0x3c227656	0.009915909
156	0xbd98123a	-0.074253514
157	0xbb865114	-0.0040990207
158	0xbd9cfa51	-0.076649316
159	0xbd345cc4	-0.04403378
160	0x3cfbe432	0.03074846
161	0x3d89fb17	0.06737345
162	0xbd72225d	-0.059114803
163	0xbd0a4c0d	-0.033763934
164	0xbdf0b477	-0.11753171
165	0xbe2bec6e	-0.1678941
166	0xbd145dbd	-0.03622221
167	0xbd355a47	-0.04427555
168	0xbdb2ad07	-0.087244086
169	0xbcac2b76	-0.021016818
170	0xbd5b2a53	-0.05350716
171	0x3d384993	0.04499204
172	0xbcccb384	-0.024987943
173	0x3d56750f	0.05235773
174	0x3d4bfa58	0.049799293
175	0xbbca0eba	-0.0061663063
176	0xbd65847b	-0.056034546
177	0xbe161043	-0.14654641
178	0xbd26b25f	-0.04069745
179	0xbe702432	-0.23451307
180	0xbcc944aa	-0.024568874
181	0xbc2738d5	-0.010206421
182	0x3d1940b0	0.037415206
183	0xbe077511	-0.13228251
184	0xbcaca838	-0.021076307
185	0xbd62404a	-0.055237092
186	0xbdc011b4	-0.093783766
187	0xbda09c36	-0.07842295
188	0xbe36589e	-0.17807242
189	0xbd9d2c81	-0.07674504
190	0xbd7294de	-0.059224002
191	0x3d6cddc5	0.057828683
192	0xbd253eb0	-0.040342987
193	0xbe066d8b	-0.13127725
194	0xbd80dcc1	-0.062921055
195	0xbceda8bd	-0.029011125
196	0xbe25c696	-0.16189036
197	0x3d22eb34	0.03977509
198	0xbd9f01fa	-0.07764049
199	0x3de0f4dd	0.10984204
200	0xbd658a4b	-0.05604009
201	0xbdbc81af	-0.09204423
202	0x3e2c01aa	0.1679751
203	0xbcfc87c0	-0.03082645
204	0x3e2dc038	0.16967857
205	0xbe0d461e	-0.13796279
206	0xbdb7709e	-0.08957027
207	0xbdc38b42	-0.09548046
208	0xbc880ced	-0.016607726
209	0xbd1d3e7f	-0.03838968
210	0xbdc34250	-0.095341325
211	0x3dab5947	0.08366638
212	0x3d651562	0.055928595
213	0xbd1c3de6	-0.03814497
214	0x3d4595f5	0.048238713
215	0xbd9e77ba	-0.0773768
216	0xbd6fdca6	-0.058560036
217	0xbceec387	-0.02914597
218	0xbd5aa2e7	-0.053378012
219	0xbda514c3	-0.080606006
220	0xbdd494b9	-0.10379929
221	0xbe0e9f59	-0.13927974
222	0xbdb06ad5	-0.086141266
223	0xbded4cc9	-0.11586911
224	0xbd7cf260	-0.061754584
225	0xbd168229	-0.036745224
226	0x3c9b9921	0.018993916
227	0xbe07a276	-0.13245568
228	0x3d4e7e9e	0.05041372
229	0xbdd38c70	-0.10329521
230	0xbcfec1d1	-0.031098278
231	0xbc7127ad	-0.014718932
232	0x3da4c851	0.0804602
233	0x3c36153f	0.011113464
234	0x3ce84a2c	0.02835568
235	0xbd3ed7a1	-0.04659236
236	0x3e13cbee	0.14433262
237	0xbd8ec037	-0.06970256
238	0x3dbbc5d2	0.091685906
239	0xbd1ba940	-0.038003206
240	0xbcfad0e3	-0.030617183
241	0xbdeb2776	-0.11482136
242	0x3d4c4d07	0.049878146
243	0x3c81805d	0.015808279
244	0x3b242337	0.0025045404
245	0x3cd0d60d	0.025492692
246	0xbc18d92b	-0.009329121
247	0xbd647e82	-0.05578471
248	0x3d3dc7ea	0.04633323
249	0xbe2d95c4	-0.16951662
250	0x3cb0427d	0.02151608
251	0x3bd4b432	0.0064912075
252	0xbdc50ae9	-0.096212216
253	0xbd836171	-0.0641507
254	0xbda5d084	-0.08096412
255	0xbd964684	-0.073376685
