outputs/2023-04-04/04-38-06/rve_model.pt (torch, 570590 bytes, 19 tensors)

weight_ih_l0 f4 [512, 2]
0.13930121 0.14628975 0.08540142 -0.10920363 -0.12631258 0.036082253 -0.0732126 0.02876297
-0.19513722 0.012996999 -0.103524104 -0.017472262 -0.05806566 0.029205393 0.036885858 0.059563044
0.007356963 0.07142085 0.039096143 -0.037962474 0.006441607 -0.04309856 -0.11565567 0.0144564025
0.038082287 0.015260396 -0.07381842 0.06572766 0.08835266 -0.082510695 -0.25006825 0.10841477
0.1046133 -0.097177796 0.01157938 0.07079856 -0.023119783 0.09885246 0.013583312 0.02293264
-0.16210693 0.038569104 -0.14012712 0.2585378 0.11737072 -0.0059586773 0.10798958 -0.040950034
0.01615648 0.0998325 -0.036122937 0.051872116 0.07539552 -0.114647046 0.032712553 -0.06943829
0.0033487198 0.08443469 0.061207246 0.05208784 -0.07979167 -0.005772317 0.0059757973 0.04537875
-0.035153117 0.07912394 -0.018513242 -0.026790187 -0.019417565 0.21378435 -0.011692875 -0.0816069
0.006797816 -0.0035873756 -0.0042344877 -0.08696901 -0.03618926 0.14319216 -0.223475 0.14499071
-0.05329428 0.04826152 -0.24136302 0.0012492774 0.06959018 0.03541623 -0.16674191 0.20136957
-0.09391017 0.11240652 -0.018337306 0.03418737 -0.0550517 0.0697574 -0.024480578 0.19240339
-0.012307792 -0.010145344 0.008584441 0.13865767 -0.14195557 0.026638955 0.0543053 0.0055703013
0.03433417 0.049456738 -0.047752906 -0.08851658 -0.07333271 0.13956994 -0.09244709 0.09144544
-0.119242065 0.10058923 -0.047422756 0.105015114 0.1025939 -0.101794556 -0.04534467 0.14288436
0.068638235 0.040428437 0.106180064 0.029144343 -0.047549825 0.058374967 -0.054356717 0.097280905
-0.034682445 0.047204975 -0.055589594 0.12965702 0.06233998 -0.014158955 -0.10481732 -0.022005491
-0.0391177 0.017475361 -0.18593271 0.26507908 -0.028198423 0.02400472 -0.039599366 0.057692647
0.06802518 0.017474977 -0.056677017 0.04650876 -0.0668722 -0.05115664 -0.051782817 0.113486245
0.052185494 0.103974104 -0.03753268 0.12939966 -0.005804659 -0.08464795 0.0064861663 0.26095635
0.094429865 0.15046538 -0.08524462 0.04467009 -0.018945929 0.1787552 -0.010621213 0.06685717
0.14823271 -0.1656678 0.13581039 0.033186205 0.09702628 0.0496204 0.03622419 0.09446033
-0.014398576 0.22466248 -0.20885034 0.20052138 0.053868707 -0.00091176236 0.07713855 0.1625374
0.054279782 0.21006899 0.066454515 0.03059381 0.11065768 0.009166406 -0.026766011 0.082586735
-0.10477387 -0.0462408 -0.068739496 0.006562542 -0.1821815 0.13633558 0.024107145 0.14000636
-0.020350385 0.16512279 0.007661943 -0.02419791 -0.12304797 0.14308888 -0.038536422 0.13468456
-0.38689837 0.092319794 -0.0980656 0.0010576961 -0.080200456 0.045143936 -0.0014265494 -0.08194051
0.1515842 0.07007607 0.030513208 -0.077709265 -0.005357162 -0.11913396 -0.06830731 0.09301469
0.13149165 -0.11128554 0.041366637 0.08160091 0.108218275 -0.01449154 0.100773975 0.05127199
0.06208085 -0.035696153 -0.21435207 0.092697985 -0.08786383 0.025368076 -0.030939423 -0.09806925
-0.026742846 -0.039305925 -0.08920274 -0.08383322 0.020951428 -0.016470648 0.08011951 -0.03813639
-0.06693693 0.1258963 -0.08806897 0.254086 -0.0042457166 -0.014037891 -0.10278851 0.18008019
00000000: faa4 0e3e fbcc 153e f1e6 ae3d 27a6 dfbd
00000010: 1658 01be fcca 133d 7df0 95bd 52a0 eb3c
00000020: 0dd2 47be 5df1 543c 7204 d4bd fd21 8fbc
00000030: 42d6 6dbd 2640 ef3c a015 173d 61f8 733d
00000040: ae12 f13b 1845 923d 4723 203d 8a7e 1bbd
00000050: 1e14 d33b 1e88 30bd e1dc ecbd 8cda 6c3c
00000060: 2cfc 1b3d bd06 7a3c 1d2e 97bd 399c 863d
00000070: 3df2 b43d 5efb a8bd f208 80be 9008 de3d
00000080: 7f3f d63d 2705 c7bd 71b7 3d3c d6fe 903d
00000090: b365 bdbc 2973 ca3d 8a8c 5e3c 3bdd bb3c
000000a0: 5cff 25be a3fa 1d3d 7c7d 0fbe 115f 843e
000000b0: 0f60 f03d 0241 c3bb a429 dd3d 39bb 27bd
000000c0: 985a 843c fb74 cc3d a5f5 13bd db77 543d
000000d0: f768 9a3d 12cc eabd 99fd 053d aa35 8ebd
000000e0: 3276 5b3b 18ec ac3d 73b4 7a3d 0f5a 553d
000000f0: d169 a3bd b425 bdbb 9fd0 c33b 11df 393d
00000100: b7fc 0fbd bb0b a23d 15a9 97bc 1877 dbbc
00000110: 9611 9fbc 49ea 5a3e 7993 3fbc 8521 a7bd
00000120: 37c0 de3b 2d1a 6bbb 75c1 8abb cf1c b2bd
00000130: 313b 14bd f7a0 123e a1d6 64be 7278 143e
00000140: 1a4b 5abd dfad 453d de27 77be cbbe a33a
00000150: 4c85 8e3d 9c10 113d 64be 2abe d333 4e3e
00000160: fa53 c0bd 6435 e63d 1e38 96bc 0e08 0c3d
00000170: e47d 61bd f8dc 8e3d 7e8b c8bc 6505 453e
00000180: 9fa6 49bc a838 26bc c1a5 0c3c 47fc 0d3e
00000190: cd5c 11be f039 da3c 3c6f 5e3d 1387 b63b
000001a0: fda1 0c3d 2693 4a3d 8d98 43bd 2e48 b5bd
000001b0: 762f 96bd 6ceb 0e3e e654 bdbd bf47 bb3d
000001c0: 2f35 f4bd ba01 ce3d 5d3e 42bd 2a12 d73d
000001d0: c01c d23d aa79 d0bd 55bb 39bd 4750 123e
000001e0: 3492 8c3d 4a98 253d ef74 d93d 1ec0 ee3c
000001f0: 9bc3 42bd 971a 6f3d 26a5 5ebd 363b c73d
00000200: 2e0f 0ebd 015a 413d eab1 63bd cfc4 043e
00000210: 3558 7f3d f6fa 67bc 77aa d6bd dc44 b4bc
00000220: e239 20bd 7d28 8f3c 2565 3ebe 72b8 873e
00000230: 6100 e7bc 8ca5 c43c f232 22bd 204f 6c3d
00000240: c950 8b3d af27 8f3c 2926 68bd f87f 3e3d
00000250: 4bf4 88bd a089 51bd 381a 54bd 7a6b e83d
00000260: 75c0 553d 60f0 d43d debb 19bd 5881 043e
00000270: 0235 bebb e85b adbd e889 d43b 129c 853e
00000280: 7264 c13d 9913 1a3e bb94 aebd fcf7 363d
00000290: 7e34 9bbc 9a0b 373e 9904 2ebc 69ec 883d
000002a0: 51ca 173e d2a4 29be e111 0b3e 42ee 073d
000002b0: b7b5 c63d c33e 4b3d d15f 143d 6b74 c13d
000002c0: 01e8 6bbc ec0d 663e dddc 55be 7a55 4d3e
000002d0: 6fa5 5c3d 5603 6fba d1fa 9d3d 3470 263e
000002e0: 7a54 5e3d 531c 573e 4e19 883d df9f fa3c
000002f0: 7ea0 e23d b12e 163c 6544 dbbc 3c23 a93d
00000300: af93 d6bd fe66 3dbd 4bc7 8cbd 980a d73b
00000310: ca8d 3abe 8e9b 0b3e 597c c53c d45d 0f3e
00000320: dab5 a6bc f315 293e 0911 fb3b b23a c6bc
00000330: 9300 fcbd e485 123e 5ed8 1dbd c0ea 093e
00000340: 8b17 c6be 2912 bd3d 9ed6 c8bd 64a2 8a3a
00000350: 2340 a4bd d9e8 383d 0efb baba 6dd0 a7bd
00000360: e338 1b3e 0b84 8f3d d6f6 f93c 0926 9fbd
00000370: 228b afbb 81fc f3bd b4e4 8bbd 7c7e be3d
00000380: bfa5 063e ace9 e3bd 1070 293d 611e a73d
00000390: 8ba1 dd3d ed6d 6dbc 9662 ce3d 9402 523d
000003a0: 7d48 7e3d 2136 12bd 1c7f 5bbe 71d8 bd3d
000003b0: f4f1 b3bd b6d0 cf3c ac74 fdbc 88d8 c8bd
000003c0: d013 dbbc 40ff 20bd edaf b6bd c0b0 abbd
000003d0: 54a2 ab3c 74ed 86bc b315 a43d e734 1cbd
000003e0: 3b16 89bd f6ea 003e 815d b4bd 8f17 823e
000003f0: a71f 8bbb 2fff 65bc c882 d2bd f166 383e

weight_hh_l0 f4 [512, 128]
-0.20128657 0.19434138 -0.077446006 -0.1028694 0.14574109 -0.23431349 -0.07110226 -0.17317499
-0.04305266 -0.025433715 0.1488031 -0.0060766153 0.07516634 0.10239898 -0.13361013 0.049058676
0.0935929 -0.17800784 0.059852943 0.09774137 -0.09228418 -0.22061557 0.25967023 0.056255102
-0.020864703 0.29822236 0.005053963 -0.19025661 -0.2288394 -0.108465515 -0.039384868 0.18036395
0.17916016 0.13675226 -0.18262003 -0.012305471 -0.079093404 -0.026877731 0.05852799 -0.030376123
0.09430026 -0.15819629 0.24328959 0.15212122 -0.016491521 -0.08483062 0.049525343 0.28171557
0.051103514 0.14035149 -0.25452408 -0.14156146 0.049826745 0.29625213 0.13152756 0.053988516
-0.1522001 -0.17849849 0.038086593 0.25939846 -0.24874383 -0.23655325 -0.15343314 0.36857894
0.067210235 -0.05925031 -0.038718753 0.11716562 -0.18197507 0.055677265 -0.0436582 -0.1267213
0.07105524 0.28699476 -0.064402215 0.0060974816 0.0207183 0.17226897 -0.12907074 0.46358907
-0.14917132 -0.15995511 0.24570635 -0.10399155 -0.16297045 -0.05488931 0.31503835 0.24486211
0.31861895 -0.040132575 0.18522184 0.37792525 0.36014047 -0.035248924 -0.16741025 -0.24296872
-0.06580003 0.27239916 0.087007955 0.10087396 -0.14990598 -0.1468234 0.03494259 -0.00060764543
-0.030270224 0.27227065 0.10382935 -0.097137146 -0.13317199 -0.05734144 0.047073808 -0.051483672
-0.058241144 -0.08646654 0.018368537 -0.30254018 -0.21274845 -0.23836018 0.0055202646 0.018662507
0.15256573 0.04691569 -0.09316252 0.2208698 -0.13150659 0.23787476 0.0053300736 -0.12968841
-0.0669504 0.049997922 0.01532115 -0.069067284 0.093707316 -0.025941554 0.043873783 -0.105183795
-0.048700254 0.09619651 -0.009876758 0.010738868 0.012331543 -0.010586689 -0.07962906 0.17102556
0.05362736 -0.08554602 0.05401911 -0.014804173 -0.12125711 -0.049354795 -0.02759427 0.060104094
0.085246086 -0.03311598 0.0029569755 0.036548413 -0.035357226 0.016907066 -0.10377821 0.1072418
0.059496295 0.06119261 -0.19604087 -0.08138778 -0.09283483 -0.030342232 0.035312023 -0.10731078
-0.0059268447 -0.056285907 -0.03368574 0.11029458 -0.011192577 0.036846958 0.017943751 0.07384706
0.1273854 0.011996387 0.0014884542 0.06274577 0.046844058 0.08980423 0.13361461 -0.017139517
-0.12695202 -0.108053 -0.09215054 0.091860525 -0.011561522 -0.008411958 0.058164936 0.053036597
0.04016019 -0.1433817 -0.05053126 0.07673693 -0.15519856 -0.0068544066 -0.019749934 -0.025729276
0.012756379 0.096909374 -0.08174138 0.10747889 0.003016573 0.09809752 0.001824266 0.06559718
0.0023888317 -0.0908929 0.108046725 0.06985878 -0.067345455 0.067493826 -0.004164446 0.047440827
0.032165855 0.029166704 0.06812769 0.022689 0.0075309067 0.07621613 0.0037966375 -0.053159576
0.06801195 0.016039789 0.027381025 -0.00076743355 -0.11777242 0.05089847 -0.0048057376 0.11148865
-0.047277834 0.10568366 0.05030204 -0.04188559 -0.13829766 0.06101681 0.053364947 -0.062520355
-0.064401634 0.09108479 0.0986922 -0.046870653 -0.021967104 -0.23203643 0.0054064956 0.1205217
0.03028312 0.06364965 0.0067362017 0.05725173 -0.085348025 0.13172887 0.05246994 -0.0872339
00000000: 111e 4ebe 6d01 473e 039c 9ebd 31ad d2bd
00000010: 273d 153e e0ef 6fbe 109e 91bd c954 31be
00000020: fc57 30bd 5e5a d0bc d75f 183e 581e c7bb
00000030: cff0 993d 8eb6 d13d 18d1 08be c0f1 483d
00000040: a2ad bf3d b047 36be 5c28 753d a12c c83d
00000050: 7dff bcbd 0ce9 61be 7ff3 843e c06b 663d
00000060: 74ec aabc 9ab0 983e b79b a53b a1d2 42be
00000070: e054 6abe 2b23 debd 0752 21bd 54b1 383e
00000080: c375 373e c908 0c3e bf00 3bbe e39c 49bc
00000090: b9fb a1bd b02e dcbc 0cbb 6f3d 59d7 f8bc
000000a0: 7f20 c13d 35fe 21be e820 793e aac5 1b3e
000000b0: 3a19 87bc adbb adbd 16db 4a3d 063d 903e
000000c0: eb51 513d 4db8 0f3e fb50 82be 7df5 10be
000000d0: 2117 4c3d 5cae 973e 29af 063e 1023 5d3d
000000e0: 58da 1bbe 4fc8 36be b000 1c3d e0cf 843e
000000f0: b4b6 7ebe 043b 72be 941d 1dbe 61b6 bc3e
00000100: 85a5 893d 74b0 72bd 8e97 1ebd 87f4 ef3d
00000110: ac57 3abe d80d 643d f1d2 32bd 3ac3 01be
00000120: 6985 913d faf0 923e 4fe5 83bd 62cd c73b
00000130: 6db9 a93c 4767 303e 1f2b 04be 8c5b ed3e
00000140: 5ec0 18be 46cb 23be 729a 7b3e 86f9 d4bd
00000150: bae1 26be 9dd3 60bd b54c a13e 22bd 7a3e
00000160: 0622 a33e 0e62 24bd cbaa 3d3e 6b7f c13e
00000170: 5564 b83e 2d61 10bd 986d 2bbe cbcc 78be
00000180: 2bc2 86bd e777 8b3e 3a31 b23d 0297 ce3d
00000190: f480 19be e058 16be f61f 0f3d 654a 1fba
000001a0: 43f9 f7bc 0f67 8b3e 7ba4 d43d d7ef c6bd
000001b0: 3d5e 08be dcde 6abd 77d0 403d 8be0 52bd
000001c0: 448e 6ebd 5f15 b1bd 9d79 963c 8ce6 9abe
000001d0: bbda 59be b114 74be 56e3 b43b 1de2 983c
000001e0: 313a 1c3e ab2a 403d fecb bebd b12b 623e
000001f0: aaa9 06be 7195 733e e6a7 ae3b 0acd 04be
00000200: 4b1d 89bd 9fca 4c3d 9005 7b3c 2673 8dbd
00000210: 9fe9 bf3d 6283 d4bc ffb4 333d 9a6a d7bd
00000220: eb79 47bd ad02 c53d 20d2 21bc 14f2 2f3c
00000230: 3d0a 4a3c cb73 2dbc 9014 a3bd 5321 2f3e
00000240: 5da8 5b3d c032 afbd 2443 5d3d 348d 72bc
00000250: a655 f8bd 4128 4abd 610d e2bc b62f 763d
00000260: 8095 ae3d 9fa4 07bd d1c9 413b cab3 153d
00000270: bdd2 10bd b080 8a3c ac89 d4bd 97a1 db3d
00000280: 63b2 733d 1aa5 7a3d f0be 48be a3ae a6bd
00000290: 3020 bebd 4690 f8bc 57a3 103d c1c5 dbbd
000002a0: fa35 c2bb 0d8c 66bd 0ffa 09bd 20e2 e13d
000002b0: 1261 37bc d6ec 163d c6fe 923c 213d 973d
000002c0: 5171 023e 7e8c 443c 3c18 c33a db80 803d
000002d0: 8edf 3f3d 48eb b73d 45d2 083e 2c68 8cbc
000002e0: b6ff 01be e44a ddbd 6cb9 bcbd 5f21 bc3d
000002f0: 8a6c 3dbc 4fd2 09bc 5b3e 6e3d e73c 593d
00000300: 037f 243d a7d2 12be def9 4ebd 4028 9d3d
00000310: 5fec 1ebe ee9a e0bb 9dca a1bc 34c6 d2bc
00000320: 2200 513c 6c78 c63d 0668 a7bd e41d dc3d
00000330: b2b1 453b 5ae7 c83d 361c ef3a d057 863d
00000340: f28d 1c3b 0f26 babd 9a47 dd3d 1f12 8f3d
00000350: 6aec 89bd 343a 8a3d e875 88bb 5051 423d
00000360: 58c0 033d 03ef ee3c 8886 8b3d 48de b93c
00000370: d3c5 f63b 3417 9c3d 02d1 783b dbbd 59bd
00000380: d949 8b3d e065 833c 2c4e e03c 982d 49ba
00000390: ab32 f1bd ea7a 503d 7379 9dbb 2954 e43d
000003a0: 67a6 41bd ad70 d83d 8309 4e3d 3990 2bbd
000003b0: e79d 0dbe c3ec 793d 3495 5a3d ac0a 80bd
000003c0: 01e5 83bd aa8a ba3d 231f ca3d 71fb 3fbd
000003d0: 5bf4 b3bc f59a 6dbe f928 b13b 15d4 f63d
000003e0: 4e14 f83c bf5a 823d 5bbb dc3b ca80 6a3d
000003f0: f2ca aebd efe3 063e b8ea 563d b0a7 b2bd

bias_ih_l0 f4 [512]
0.10435718 0.10025092 0.10529488 0.122691154 0.22402109 0.024165772 0.04012975 0.04060018
0.10562036 0.11824752 0.22442217 -0.004739741 -0.06820026 0.09187846 -0.010304489 0.04681447
0.059076037 -0.012559945 0.040673845 0.09414116 0.13644452 0.46051136 0.12512909 0.0006490346
0.28192687 0.0896009 0.0055825873 0.17891794 0.04569041 -0.0789404 0.19520591 0.03570886
0.37544537 0.13218473 0.08587478 0.086566985 -0.014032048 0.029331345 -0.00541351 0.18370023
0.044964623 0.03873762 0.18381497 0.1617107 0.18622693 0.123497285 0.39943582 0.016553285
0.10886969 0.2985955 0.11787364 0.1066347 -0.022501899 0.12691048 0.315102 0.048860535
0.029576018 0.050096367 0.14242707 0.0038686045 0.073238134 0.03194412 0.19344164 0.07817345
0.008556362 0.25166926 0.07966115 0.09563119 -0.05251746 0.42774773 0.23464888 0.063478254
-0.020669797 0.018816158 0.04990653 0.2814844 0.20982926 0.13597734 -0.03074889 0.25622192
0.04675928 0.17264368 0.23851918 0.095870115 0.18484323 0.07074563 0.24857451 0.26763982
0.422363 0.22259268 0.0796202 0.2317199 0.13002206 0.023570502 0.16099663 0.122610286
0.06595965 0.10431679 0.02983455 0.12915485 0.2083395 0.12721 0.14923202 0.17994374
0.16475002 0.35238788 0.11881921 0.04321606 0.3137156 0.0645026 0.05261789 0.05290579
0.007947343 0.104062915 0.06454185 0.35065305 0.06875009 0.1515123 0.11264643 -0.025056923
0.090491675 0.17234716 -0.01962833 -0.014826832 0.22335175 0.33154586 0.09529773 0.14303742
-0.068274625 0.06183369 0.066986516 0.071195796 -0.036749117 -0.00852499 -0.09223611 0.09633215
-0.015748695 -0.048387144 -0.062516235 0.0030053365 0.015396872 0.008439329 -0.056013174 -0.07909558
0.050703306 0.09478418 -0.091342986 0.05005668 -0.027014585 0.10796337 -0.074367076 0.020671863
0.10992202 -0.06038915 0.083158426 0.0889504 -0.07794958 -0.09983482 0.16106476 0.056034647
0.10534936 -0.099020585 0.15101373 -0.04203711 0.056813248 -0.090777054 0.018044049 0.05316021
0.092785284 -0.17174216 0.034216933 0.08257601 -0.07132589 -0.03971156 0.13162085 -0.04921434
-0.06392027 -0.025572456 0.0036560397 -0.09895233 0.0020968039 -0.04977912 0.02179808 -0.0800223
-0.0712581 -0.08177039 -0.13161641 0.07048991 0.007369742 0.09355685 0.011462251 0.08706541
0.0005324996 -0.0026064916 -0.0030447354 0.059652854 -0.028442135 0.041450545 -0.0537916 0.025322406
0.070157096 0.019093674 0.07557895 0.043515645 -0.06981591 0.024705416 -0.030955257 0.06401216
-0.016868584 0.102009445 0.039416652 0.038211916 0.0032557957 0.0461099 0.049635302 0.052384865
0.07211871 0.07051707 -0.038885415 -0.029328275 -0.0010184967 -0.085882254 0.06080856 -0.013244734
0.0522098 -0.016814876 -0.037804503 0.011241668 0.051513575 -0.019093663 -0.015946167 -0.050861187
0.010136749 -0.017283138 -0.10888019 0.03505252 0.0010172516 -0.00025772638 -0.10274356 0.02814725
0.07363949 -0.04403331 -0.067206286 0.014990278 0.00899891 -0.04518756 0.08991545 -0.032512367
0.035863154 0.11066669 -0.0081571005 0.02410263 0.050653342 0.1020462 0.0033450616 0.0890729
00000000: 38b9 d53d 5b50 cd3d d8a4 d73d 8045 fb3d
00000010: c965 653e 4cf7 c53c 185f 243d 604c 263d
00000020: 7d4f d83d c12b f23d edce 653e d44f 9bbb
00000030: 94ac 8bbd c62a bc3d 29d4 28bc 88c0 3f3d
00000040: b7f9 713d 3ac8 4dbc 9e99 263d 15cd c03d
00000050: 1db8 0b3e 25c8 eb3e d721 003e fa23 2a3a
00000060: b858 903e ad80 b73d 23ee b63b 4436 373e
00000070: de25 3b3d 81ab a1bd 0fe4 473e 7443 123d
00000080: 603a c03e 6f5b 073e 1edf af3d 084a b13d
00000090: ade6 65bc 4a48 f03c d063 b1bb ea1b 3c3e
000000a0: d32c 383d 57ab 1e3d fe39 3c3e 7d97 253e
000000b0: 46b2 3e3e 25ec fc3d da82 cc3e c19a 873c
000000c0: 12f7 de3d 82e1 983e bc67 f13d 4b63 da3d
000000d0: e755 b8bc d2f4 013e 0d55 a13e fc21 483d
000000e0: 6849 f23c d931 4d3d 67d8 113e 6a88 7d3b
000000f0: e0fd 953d d6d7 023d 9115 463e 6719 a03d
00000100: fc2f 0c3c cbda 803e 6325 a33d 49da c33d
00000110: 8c1c 57bd c001 db3e cc47 703e e300 823d
00000120: b553 a9bc 5824 9a3c ca6a 4c3d b91e 903e
00000130: 7bdd 563e a53d 0b3e 19e5 fbbc 852f 833e
00000140: a986 3f3d 81c9 303e 5f3e 743e 8d57 c43d
00000150: 8b47 3d3e 16e3 903d 518a 7e3e 1608 893e
00000160: f73f d83e 56ef 633e ea0f a33d fb47 6d3e
00000170: 8124 053e ed16 c13c 4ddc 243e 1a1b fb3d
00000180: da15 873d 0ba4 d53d 9667 f43c 2b41 043e
00000190: f356 553e 5743 023e 47d0 183e 2c43 383e
000001a0: 3bb4 283e 2f6c b43e 7c57 f33d 5303 313d
000001b0: 559f a03e f019 843d db85 573d beb3 583d
000001c0: 9335 023c f01e d53d 842e 843d cc88 b33e
000001d0: d9cc 8c3d 0a26 1b3e 2cb3 e63d 2d44 cdbc
000001e0: b353 b93d c67b 303e 97cb a0bc 3eec 72bc
000001f0: 52b6 643e 61c0 a93e 752b c33d 6778 123e
00000200: 91d3 8bbd 5345 7d3d 3a30 893d 1acf 913d
00000210: 3e86 16bd 66ac 0bbc 49e6 bcbd ca49 c53d
00000220: 6803 81bc 9931 46bd 8308 80bd 2ef5 443b
00000230: 2943 7c3c 1d45 0a3c 126e 65bd ddfc a1bd
00000240: 45ae 4f3d 351e c23d 0812 bbbd 3c08 4d3d
00000250: b14d ddbc e61b dd3d c44d 98bd 0a58 a93c
00000260: cc1e e13d 9d5a 77bd f74e aa3d a12b b63d
00000270: 08a4 9fbd 3376 ccbd 29ee 243e 9684 653d
00000280: 68c1 d73d 4ecb cabd 58a3 1a3e 1b2f 2cbd
00000290: 02b5 683d 52e9 b9bd 1dd1 933c 85be 593d
000002a0: 3606 be3d 2ddd 2fbe 0e27 0c3d 9c1d a93d
000002b0: 4f13 92bd 97a8 22bd 9ec7 063e fa94 49bd
000002c0: a1e8 82bd 547d d1bc 2b9a 6f3b 85a7 cabd
000002d0: 886a 093b 31e5 4bbd e391 b23c bbe2 a3bd
000002e0: c4ef 91bd 3c77 a7bd 74c6 06be 045d 903d
000002f0: e07d f13b bc9a bf3d 2acc 3b3c 5a4f b23d
00000300: 7197 0b3a acd1 2abb 2f8a 47bb 8d56 743d
00000310: 7bff e8bc 0cc8 293d 9554 5cbd ef70 cf3c
00000320: 86ae 8f3d 566a 9c3c 23c9 9a3d 763d 323d
00000330: a5fb 8ebd 0363 ca3c e195 fdbc cf18 833d
00000340: fc2f 8abc 54ea d03d 5b73 213d 1984 1c3d
00000350: 305f 553b bcdd 3c3d 634e 4b3d 8391 563d
00000360: f9b2 933d 416b 903d 5046 1fbd da41 f0bc
00000370: 147f 85ba 09e3 afbd 6612 793d 7100 59bc
00000380: f1d9 553d 5abf 89bc e5d8 1abd f92e 383c
00000390: e6ff 523d 506a 9cbc 89a1 82bc d253 50bd
000003a0: 9b14 263c 5e95 8dbc 94fc debd 3b93 0f3d
000003b0: 4d55 853a 731f 87b9 376b d2bd 1095 e63c
000003c0: 4dd0 963d 465c 34bd 73a3 89bd c899 753c
000003d0: 2a70 133c 9716 39bd 9725 b83d b02b 05bd
000003e0: 3ee5 123d 38a5 e23d 5ca5 05bc e172 c53c
000003f0: e179 4f3d 99fd d03d d238 5b3b da6b b63d

bias_hh_l0 f4 [512]
0.19384429 -0.03012982 0.052729234 -0.0069532283 0.22281289 0.0476385 0.07502952 0.031227924
0.06371684 0.13039266 0.29032683 -0.00863879 -0.018831275 0.039359316 0.010391512 0.062495597
-0.054959647 0.08184634 0.10149704 0.058407616 0.008574321 0.39703318 0.23408948 0.026773985
0.29696858 0.10216278 0.13200305 0.19641227 0.08962606 -0.07635135 0.17716515 0.15657559
0.30340707 0.26748058 0.21306258 0.10688984 0.07792083 0.07113557 0.0012236243 0.2319987
0.19685942 0.114487015 0.07987075 0.21867374 0.18596198 0.03626236 0.26912418 0.14743304
0.13451067 0.29979387 0.18030119 0.07507222 0.04588533 0.16788377 0.27129716 0.027378278
0.13648793 0.0007952395 0.14577545 0.05252869 0.08353516 0.15317199 0.2833412 0.21484983
0.038882993 0.2085024 0.07844796 0.07019234 -0.022473095 0.41679686 0.18317164 0.053312026
0.10104605 -0.0047246576 0.10419125 0.32290018 0.20317723 0.07314443 -0.04054655 0.2630624
0.06037567 0.073577665 0.30410546 0.18211819 0.19594887 -0.06252846 0.3384231 0.14528443
0.42324942 0.124000005 0.0990308 0.21888953 0.23223782 0.01667712 0.06364034 0.20961496
0.033505574 0.13832124 0.041856017 0.068722226 0.13669276 0.03187109 0.08202947 0.0722009
0.17111683 0.3303088 0.059182953 0.059402697 0.23016922 0.0012986009 0.08376785 0.017326355
0.057563893 0.001222204 -0.07727507 0.24394062 0.1971984 0.19082938 0.04016864 -0.04368792
0.0989826 0.15557423 0.026867665 0.03698145 0.1588761 0.35297814 0.14253554 0.027230449
0.02383736 0.062760495 0.081139095 -0.008125932 0.07858011 0.0064365957 -0.03188794 0.082412496
0.09937291 0.07820845 -0.054714732 -0.0412767 0.062025998 0.020584423 0.01067937 -0.11307025
-0.014366981 -0.046836376 -0.072969094 0.011800151 -0.034514472 0.15688886 -0.061962858 -0.095360115
0.01709154 -0.05289931 0.059905484 0.09183508 -0.056251425 -0.025502935 0.13502568 0.03923387
0.061367236 0.049599838 0.033144616 0.06074691 -0.053356934 -0.07242374 0.06459684 0.021426916
0.1071632 -0.056950524 -0.02188853 0.011611509 -0.04792476 0.021083307 0.04698583 0.06414575
-0.003346611 -0.06451886 -0.019134149 -0.03449085 0.04654309 -0.032670125 -0.044831984 0.024013406
-0.06172113 -0.005763221 -0.082356565 0.045580138 -0.061972063 -0.04310752 -0.042358294 0.09399108
-0.071355745 -0.06587668 -0.052526347 0.054005228 -0.006458135 0.18132868 0.0192006 0.075490706
-0.03538217 0.08557265 -0.059210803 0.031892966 -0.04947068 0.064407274 -0.06667155 0.07182306
0.09791031 0.10687161 0.022752723 -0.044473857 0.12646991 -0.084562294 0.18970506 0.047822133
-0.029976282 -0.01171311 -0.04638364 0.03951564 0.009499448 -0.06140155 0.07145962 0.08326445
0.028982729 0.053455338 -0.026576895 -0.043565936 0.011549334 0.012765017 -0.034440305 -0.09404012
-0.016375214 0.0621892 -0.04358754 0.006588012 0.10306968 0.07574549 0.025762752 0.022781916
-0.058641143 -0.07819198 0.064677775 0.041564547 0.00437723 0.08896371 -0.07394807 -0.020090826
0.00981001 0.12690268 -0.09350919 -0.07008428 0.010205008 0.0465934 0.06756435 0.08971236
00000000: 1e7f 463e d0d2 f6bc 9cfa 573d e8d7 e3bb
00000010: 1029 643e 9620 433d 14a9 993d b4d1 ff3c
00000020: fa7d 823d a785 053e b8a5 943e b689 0dbc
00000030: 0c44 9abc 3c37 213d 2941 2a3c 62fb 7f3d
00000040: 5e1d 61bd 0e9f a73d aedd cf3d d33c 6f3d
00000050: 4f7b 0c3c ef47 cb3e 27b5 6f3e 1e55 db3c
00000060: 440c 983e b83a d13d cf2b 073e 4c20 493e
00000070: de8d b73d 195e 9cbd c86a 353e 5a55 203e
00000080: 2c58 9b3e 37f3 883e 142d 5a3e 0fe9 da3d
00000090: f594 9f3d 87af 913d 0562 a03a 1191 6d3e
000000a0: 8495 493e 2b78 ea3d 4793 a33d 02ec 5f3e
000000b0: d16c 3e3e d787 143d a5ca 893e b0f8 163e
000000c0: 2abd 093e 957e 993e e0a0 383e 77bf 993d
000000d0: 41f2 3b3d b9e9 2b3e 76e7 8a3e 6948 e03c
000000e0: 7ec3 0b3e 9f77 503a 2946 153e 5328 573d
000000f0: 7b14 ab3d 1ed9 1c3e 1912 913e 9801 5c3e
00000100: c643 1f3d a781 553e 53a9 a03d 00c1 8f3d
00000110: 7f19 b8bc 6666 d53e 5991 3b3e b65d 5a3d
00000120: 3bf1 ce3d 4dd1 9abb 3962 d53d 2c53 a53e
00000130: b10d 503e bfcc 953d 2414 26bd 1db0 863e
00000140: 7b4c 773d e3af 963d b6b3 9b3e 317d 3a3e
00000150: d2a6 483e ec0e 80bd cb45 ad3e 71c5 143e
00000160: 26b4 d83e b7f3 fd3d a9d0 ca3d 9424 603e
00000170: c0cf 6d3e 759e 883c de55 823d 4ea5 563e
00000180: 243d 093d 15a4 0d3e 3771 2b3d 3dbe 8c3d
00000190: 30f9 0b3e 438b 023d 11ff a73d 11de 933d
000001a0: 4039 2f3e 3c1e a93e d369 723d 3e50 733d
000001b0: 7bb1 6b3e d135 aa3a 7b8e ab3d 00f0 8d3c
000001c0: 1ec8 6b3d 5c32 a03a 6442 9ebd 92cb 793e
000001d0: 61ee 493e c768 433e df87 243d 1bf2 32bd
000001e0: 64b7 ca3d da4e 1f3e 9419 dc3c dc79 173d
000001f0: 6bb0 223e 8db9 b43e d6f4 113e 6412 df3c
00000200: 9146 c33c 9388 803d 412c a63d a122 05bc
00000210: 9cee a03d 14ea d23b ee9c 02bd e2c7 a83d
00000220: 0684 cb3d c02b a03d 8e1c 60bd c211 29bd
00000230: f90e 7e3d aaa0 a83c 86f8 2e3c 6091 e7bd
00000240: 7c63 6bbc 80d7 3fbd d270 95bd 6c55 413c
00000250: 0c5f 0dbd 79a7 203e c4cc 7dbd 2a4c c3bd
00000260: 8f03 8c3c f2ac 58bd 745f 753d 0814 bc3d
00000270: e567 66bd 88eb d0bc 2c44 0a3e b2b3 203d
00000280: 365c 7b3d 3329 4b3d a6c2 073d c0d1 783d
00000290: cd8c 5abd e652 94bd 594b 843d 8087 af3c
000002a0: 6178 db3d f444 69bd 934f b3bc 333e 3e3c
000002b0: c14c 44bd e6b6 ac3c 3774 403d d95e 833d
000002c0: d152 5bbb 7722 84bd 38bf 9cbc 4746 0dbd
000002d0: f8a3 3e3d 1cd1 05bd bea1 37bd c3b7 c43c
000002e0: 4ccf 7cbd 67d9 bcbb 8faa a8bd 3db2 3a3d
000002f0: 6bd6 7dbd 8391 30bd e47f 2dbd 657e c03d
00000300: f622 92bd 5aea 86bd de25 57bd 9634 5d3d
00000310: c39e d3bb 3aae 393e 944a 9d3c df9a 9a3d
00000320: e5ec 10bd b740 af3d 0787 72bd 33a2 023d
00000330: c5a1 4abd f6e7 833d 188b 88bd f817 933d
00000340: 3385 c83d 81df da3d eb63 ba3c 382a 36bd
00000350: 5481 013e ff2e adbd 0b42 423e 24e1 433d
00000360: d290 f5bc 58e8 3fbc c6fc 3dbd 27db 213d
00000370: 93a3 1b3c 3180 7bbd 6c59 923d 8d86 aa3d
00000380: 306d ed3c fcf3 5a3d cab7 d9bc 3272 32bd
00000390: 6b39 3d3c 5d24 513c 4711 0dbd 1b98 c0bd
000003a0: 5025 86bc 1aba 7e3d d988 32bd 40e0 d73b
000003b0: 3216 d33d 7420 9b3d 680c d33c 24a1 ba3c
000003c0: b231 70bd 1e23 a0bd c875 843d 963f 2a3d
000003d0: de6e 8f3b 9b32 b63d 1672 97bd 8495 a4bc
000003e0: 2aba 203c c7f2 013e bf81 bfbd 5988 8fbd
000003f0: e832 273c b9d8 3e3d 2e5f 8a3d 1dbb b73d

weight_ih_l0 f4 [20, 128]
-0.29575577 0.3096081 -0.020926036 0.041236572 -0.12475117 -0.2790111 -0.57601714 0.37587222
-0.120595984 0.25518483 -0.09627199 0.045084037 -0.14589669 0.16993123 0.18738666 -0.6500508
-0.42459112 0.24137473 -0.3013663 -0.040370815 0.3931007 -0.64909345 0.444192 -0.09949734
0.3670162 -0.12423226 0.37188485 -0.34221318 -0.336746 -0.23997723 0.18735746 0.34974322
-0.28391132 0.4596432 -0.17706512 0.41769046 0.1908069 0.3361314 0.480871 0.17346697
0.13839267 0.66119045 0.20201644 -0.2069076 0.5462256 -0.3534763 0.34027845 0.031475574
0.18292768 0.09686254 0.5639818 -0.4131992 -0.4875583 -0.2776977 0.06850339 0.10012351
0.045899116 0.32441735 0.24645858 -0.14930506 0.03402122 0.18976073 0.23305595 -0.017975787
0.3178811 0.47071967 0.2893123 -0.3976259 -0.08196016 0.04568943 -0.4694384 0.22372779
-0.2834749 -0.35621956 -0.16710575 -0.3440596 -0.3324686 -0.36205158 -0.093045816 0.6614173
0.29904327 -0.23310897 -0.08791557 0.07912668 -0.44382614 -0.13476305 -0.2453478 0.21082021
-0.18311074 0.06504186 0.10310483 -0.23998536 -0.30406076 -0.38815218 0.05547934 -0.101656094
-0.41126037 -0.18342331 -0.02896586 0.1241628 0.041876264 -0.57860756 -0.1748986 -0.28998137
-0.1163267 -0.29259667 -0.39261365 0.28483677 -0.5517608 0.40792966 -0.4854425 0.40370804
0.4317795 0.29945934 -0.12258741 -0.5197406 -0.4990045 0.43287155 -0.29303876 0.0755822
-0.17259024 -0.3445559 -0.26096594 0.031933818 0.4787084 0.520014 0.3307781 0.25775984
-0.23013797 -0.36755374 -0.31729463 -0.23470375 -0.2791389 0.16725346 0.014653727 0.41668457
-0.38771516 -0.35544357 0.4989988 0.38919932 -0.24273133 -0.07749132 -0.023602968 -0.36477304
-0.33102137 -0.015752584 0.17944771 -0.15008262 0.24241294 0.26175937 0.31822062 -0.65538365
0.051410623 -0.16533367 0.50066924 -0.15621065 0.4289485 0.007576438 -0.08848961 0.60829335
-0.2627814 0.4219795 0.23631656 0.21801205 -0.26107684 -0.24446587 0.460722 0.3837115
0.2282654 0.037681393 0.45404235 -0.08386331 0.5620144 0.23667751 0.42342293 -0.30129758
-0.52369636 0.25865853 0.6655703 -0.39047113 0.22076753 -0.022839475 0.22362372 -0.33847678
0.60613215 0.59673035 0.28359175 0.07119146 0.13319993 -0.36472622 -0.105847254 -0.13401498
0.21284336 0.5558211 0.12313375 0.07873412 0.25585207 0.48926777 -0.24569441 0.10863755
0.21475172 -0.5492082 0.046992164 -0.26865017 0.13276152 -0.2527897 0.47083443 0.16737083
0.3124989 0.02534305 0.17733793 0.5711548 -0.27879158 0.15068966 0.03266398 -0.40693936
-0.17966595 -0.54310036 -0.29101178 -0.34509307 -0.24007586 0.36524498 0.24967372 -0.03351717
-0.081195444 0.15938418 0.64351285 0.20011611 -0.32162666 0.18784995 0.4753936 -0.3626009
0.3651089 -0.2875149 -0.4300039 -0.1698575 0.26171598 0.47290504 -0.64992213 0.27470627
-0.21740994 -0.14378679 0.13813607 -0.10276723 0.35560027 -0.092415564 -0.2273848 -0.13919978
-0.04277851 0.117193475 -0.14004554 -0.03343905 -0.08167736 0.03704439 -0.49443054 0.2936858
00000000: 4d6d 97be f484 9e3e 146d abbc aee7 283d
00000010: 8b7d ffbd 8bda 8ebe dc75 13bf 5372 c03e
00000020: 07fb f6bd 96a7 823e 402a c5bd 0aaa 383d
00000030: f165 15be 7402 2e3e 4ae2 3f3e bb69 26bf
00000040: 0264 d9be f02a 773e af4c 9abe de5b 25bd
00000050: 7f44 c93e fd2a 26bf 226d e33e 43c5 cbbd
00000060: 8ce9 bb3e 7c6d febd b167 be3e 9136 afbe
00000070: f969 acbe 97bc 75be a2da 3f3e 8b11 b33e
00000080: d35c 91be 5a56 eb3e 8f50 35be 86db d53e
00000090: e262 433e 6a19 ac3e b934 f63e 53a1 313e
000000a0: cfb6 0d3e c743 293f 66dd 4e3e 96df 53be
000000b0: 71d5 0b3f d8fa b4be fa38 ae3e 88ec 003d
000000c0: 6551 3b3e de5f c63d 1c61 103f d88e d3be
000000d0: 3ea1 f9be 652e 8ebe 814b 8c3d 8e0d cd3d
000000e0: b600 3c3d 081a a63e a35f 7c3e 6de3 18be
000000f0: d659 0b3d a350 423e 38a6 6e3e f541 93bc
00000100: 50c1 a23e 2b02 f13e be20 943e 9f95 cbbe
00000110: bada a7bd d724 3b3d 3b5a f0be e618 653e
00000120: 9f23 91be 6962 b6be c51d 2bbe 9428 b0be
00000130: 5339 aabe d35e b9be ce8e bebd a552 293f
00000140: 331c 993e 1eb4 6ebe 140d b4bd 2b0d a23d
00000150: 2e3d e3be 53ff 09be 743c 7bbe 41e1 573e
00000160: 6281 3bbe ab34 853d a028 d33d b9be 75be
00000170: daad 9bbe e2bb c6be 4e3e 633d 1231 d0bd
00000180: b890 d2be 52d3 3bbe d049 edbc 1149 fe3d
00000190: 7286 2b3d a01f 14bf 9e18 33be 7078 94be
000001a0: b13c eebd 3bcf 95be a804 c9be 20d6 913e
000001b0: 3240 0dbf 28dc d03e eb8b f8be d2b2 ce3e
000001c0: 3412 dd3e bc52 993e 1c0f fbbd b80d 05bf
000001d0: 857d ffbe 57a1 dd3e 2d09 96be d7ca 9a3d
000001e0: 7fbb 30be a269 b0be 549d 85be 09cd 023d
000001f0: 4419 f53e a31f 053f bf5b a93e 19f9 833e
00000200: 4aa9 6bbe 0130 bcbe 7174 a2be 2e56 70be
00000210: 4beb 8ebe 7e44 2b3e 3016 703c ae57 d53e
00000220: 9a82 c6be b3fc b5be c57c ff3e 2245 c73e
00000230: 908e 78be c5b3 9ebd 035b c1bc 88c3 babe
00000240: a27b a9be 900b 81bc 24c1 373e 42af 19be
00000250: 193b 783e 5305 863e d0ed a23e 39c7 27bf
00000260: f293 523d 3b4d 29be dc2b 003f aff5 1fbe
00000270: 239f db3e c543 f83b 0a3a b5bd 1db9 1b3f
00000280: 498b 86be b20d d83e f8fc 713e 8d3e 5f3e
00000290: ddab 85be 4355 7abe c1e3 eb3e d575 c43e
000002a0: 68be 693e ce57 1a3d 3d78 e83e 87c0 abbd
000002b0: 2de0 0f3f 975b 723e e4ca d83e ad43 9abe
000002c0: f710 06bf e46e 843e d162 2a3f d5eb c7be
000002d0: e210 623e da19 bbbc 9efd 643e d44c adbe
000002e0: 7a2b 1b3f 52c3 183f f032 913e d4cc 913d
000002f0: 9065 083e 65bd babe 72c6 d8bd 393b 09be
00000300: 9cf3 593e 4b4a 0e3f 8c2d fc3d 5b3f a13d
00000310: 0bff 823e 4e81 fa3e 5197 7bbe 5d7d de3d
00000320: e0e7 5b3e e998 0cbf db7a 403d 848c 89be
00000330: a3f2 073e a76d 81be 3611 f13e 4263 2b3e
00000340: dbff 9f3e 3a9c cf3c 1398 353e 3337 123f
00000350: c5bd 8ebe 644e 1a3e aaca 053d 5b5a d0be
00000360: 5afa 37be a008 0bbf 7fff 94be 0ab0 b0be
00000370: 72d6 75be 6401 bb3e 78aa 7f3e 4d49 09bd
00000380: cc49 a6bd 9b35 233e 42bd 243f 3deb 4c3e
00000390: 40ac a4be bd5b 403e ca66 f33e d3a6 b9be
000003a0: 8eef ba3e 2735 93be 7929 dcbe 20ef 2dbe
000003b0: a3ff 853e 9c20 f23e 4c61 26bf 4da6 8c3e
000003c0: b6a0 5ebe d83c 13be 8b73 0d3e a077 d2bd
000003d0: 3d11 b63e 5f44 bdbd 90d7 68be 638a 0ebe
000003e0: 8538 2fbd 2203 f03d 1968 0fbe 63f7 08bd
000003f0: 7646 a7bd dcbb 173d 0026 fdbe fc5d 963e

weight_hh_l0 f4 [20, 5]
0.25361156 -0.07296813 0.08416738 -0.40568012 0.29917693 -0.2559591 0.10254827 -0.059816882
-0.29597682 -0.4305794 -0.32459307 0.03498725 0.1425352 -0.16578375 0.1223777 -0.051789645
0.24753429 -0.23570576 -0.14605813 -0.67069304 -0.34198347 0.427199 -0.08831875 -0.1863075
-0.18180381 0.23340677 0.15525527 0.10301028 -0.29455742 -0.2875555 -0.015113319 -0.09563049
-0.062471583 -0.3760286 -0.07263187 -0.16706568 0.0034476882 0.22401424 0.0074406946 -0.08535024
-0.18566664 -0.29861334 -0.15479134 -0.42153323 0.23108605 -0.032914132 0.2207991 0.09778005
0.08556949 0.37556958 -0.1295856 -0.29507267 -0.28079495 0.17534594 -0.21042922 -0.07319608
-0.25465044 0.29307425 -0.07433524 -0.065430984 0.06453831 -0.08812418 -0.31235665 0.00086695654
-0.10480014 -0.44291264 -0.30025005 0.19258578 -0.12049911 -0.17531396 -0.4260029 -0.20211461
0.035696443 0.04161941 -0.029710606 -0.14835106 -0.11939974 0.026242778 0.19907153 -0.787719
0.3090372 0.34853697 0.2617146 -0.4360367 -0.30438912 0.037385374 0.27368012 0.44684628
-0.16421689 0.20860095 -0.46135953 -0.26765236 0.31098026 0.05307816 -0.3981125 -0.17326313
-0.24890049 -0.108918495 -0.23923542 0.18259756
00000000: 60d9 813e 5170 95bd f35f ac3d 4eb5 cfbe
00000010: b82d 993e 120d 83be d404 d23d 8c02 75bd
00000020: 468a 97be e774 dcbe 1031 a6be ca4e 0f3d
00000030: bff4 113e 37c3 29be 29a1 fa3d 6121 54bd
00000040: a179 7d3e da5c 71be 4390 15be 8ab2 2bbf
00000050: 7518 afbe d4b9 da3e 76e0 b4bd 65c7 3ebe
00000060: c72a 3abe 2f02 6f3e 3dfb 1e3e 0ef7 d23d
00000070: 3bd0 96be 793a 93be db9d 77bc ebd9 c3bd
00000080: 34e2 7fbd d286 c0be 05c0 94bd 4413 2bbe
00000090: 9cf2 613b fd63 653e 12d1 f33b 1bcc aebd
000000a0: 651f 3ebe d9e3 98be 9f81 1ebe 34d3 d7be
000000b0: d2a1 6c3e f8d0 06bd 2919 623e e840 c83d
000000c0: 0f3f af3d a84a c03e 16b2 04be c413 97be
000000d0: 5bc4 8fbe e38d 333e c27a 57be d4e7 95bd
000000e0: 8b61 82be d40d 963e 133d 98bd ae00 86bd
000000f0: a92c 843d 737a b4bd 36ed 9fbe 7844 633a
00000100: 75a1 d6bd 72c5 e2be 60ba 99be 3535 453e
00000110: 3dc8 f6bd 8185 33be 0d1d dabe 22f7 4ebe
00000120: 6f36 123d 1d79 2a3d a863 f3bc 57e9 17be
00000130: da87 f4bd 18fb d63c 68d9 4b3e f4a7 49bf
00000140: 203a 9e3e 7073 b23e 75ff 853e 3440 dfbe
00000150: e4d8 9bbe 6821 193d cd1f 8c3e 09c9 e43e
00000160: 7928 28be 7d9b 553e 5137 ecbe bb09 89be
00000170: ce38 9f3e 7c68 593d 67d5 cbbe e46b 31be
00000180: c5df 7ebe a910 dfbd 21fa 74be dbfa 3a3e

bias_ih_l0 f4 [20]
0.23541695 -0.070777684 0.6754342 0.23149525 0.616626 -0.16864976 -0.38407576 0.026234299
-0.24965094 0.30841175 0.36952478 -0.19707863 -0.299038 -0.31337702 -0.20555356 0.71818244
0.14961746 0.2495556 0.7219848 0.03188957
00000000: 2411 713e e4f3 90bd 41e9 2c3f 170d 6d3e
00000010: 34db 1d3f 86b2 2cbe 94a5 c4be 50e9 d63c
00000020: 7fa4 7fbe 25e8 9d3e 5a32 bd3e fbce 49be
00000030: 821b 99be f472 a0be a27c 52be ceda 373f
00000040: 5235 193e 818b 7f3e ffd3 383f a39e 023d

bias_hh_l0 f4 [20]
0.03424583 0.64937514 0.34993616 0.41251683 0.7368572 0.21805671 -0.01697024 0.2874147
-0.29827043 0.26302338 0.3562348 -0.23169766 0.2795144 0.24114761 0.100141555 0.13738653
0.44054997 0.37515974 0.8286178 0.39891124
00000000: 5b45 0c3d 733d 263f d52a b33e 6835 d33e
00000010: aca2 3c3f 424a 5f3e 2c05 8bbc 0528 933e
00000020: e7b6 98be 00ab 863e 6864 b63e 2742 6dbe
00000030: 831c 8f3e 66ef 763e 0417 cd3d 0eaf 0c3e
00000040: c48f e13e f014 c03e 4c20 543f 183e cc3e

weight_ih_l0 f4 [512, 5]
-0.009003396 -0.0065960865 0.022967711 0.04700891 -0.043351583 0.028508293 0.07429004 -0.016867602
0.16409612 0.052860506 -0.14671087 -0.08598895 0.050095953 -0.044088658 0.009136023 -0.086946376
-0.10138104 -0.10727589 -0.03236854 -0.08742597 0.04789294 0.000853987 -0.15598789 -0.033728663
-0.26853457 -0.022360321 -0.0071861143 0.10145516 -0.0010294105 -0.005291792 -0.19262671 -0.027832083
-0.026786752 -0.008713821 -0.02850063 0.04535227 0.13365471 0.07574533 0.045645963 0.09857127
-0.026117329 0.054722875 -0.13846447 -0.044338558 -0.26734415 -0.080749705 -0.11796013 0.20887528
-0.05666823 0.18995307 -0.08714857 0.030758705 0.034759358 -0.107775375 -0.037793074 0.07555718
-0.048846453 -0.019141195 -0.06308259 0.017280255 0.1087671 0.06173248 0.07937479 0.04972987
-0.035005968 0.044385653 0.0015027911 0.09432913 -0.040518284 0.049958404 0.03912083 0.038657915
0.07487728 -0.06529925 0.033454143 -0.15431468 -0.20366481 0.06785791 -0.26520246 -0.06747042
-0.123021476 -0.07550666 0.008370951 -0.051687483 0.03849347 0.0626861 0.07200491 0.083379686
0.02612458 -0.042504925 -0.16872463 -0.18032543 -0.07755436 -0.17472622 -0.06351489 0.0179342
-0.05683868 0.03804576 -0.0468047 0.06939273 -0.04048363 -0.0798242 -0.25340477 -0.04799792
-0.34830952 -0.12701924 -0.015572599 0.0058733057 0.0072814147 0.01527322 -0.10595588 -0.19443066
0.10821794 -0.17633916 0.10808981 -0.16878198 -0.099376574 -0.23362705 -0.12808384 -0.11118932
-0.08713524 -0.09226437 -0.04267827 -0.13890566 0.021452606 0.10983072 -0.10245207 0.22599654
-0.2039111 0.22821954 0.011011208 0.096407525 -0.0051111057 -0.006343315 0.014431685 -0.122986585
-0.12685262 -0.039327182 -0.15288602 -0.18030363 -0.036858495 -0.073556386 -0.26556733 -0.12050127
-0.20297794 0.051682245 0.020445079 0.11656386 -0.073206395 -0.0027693715 -0.23980168 -0.1090773
0.011175371 -0.13290972 0.12319596 -0.1634023 -0.113250785 -0.13294393 -0.10874484 -0.19994767
-0.06122798 -0.12593752 0.382016 -0.12312259 0.36471096 -0.011559319 -0.062536456 0.18239586
-0.07482738 0.14170952 0.028643392 -0.06502045 -0.0076335715 -0.15812542 -0.025269901 -0.072580524
-0.06871797 -0.053495802 -0.087546326 -0.038680527 -0.014808905 -0.1378431 -0.07436247 -0.17056625
-0.041488353 0.08653453 -0.08526148 0.048945047 -0.0943866 -0.020245284 -0.16015965 -0.18260843
-0.076298356 -0.046521 0.060948167 -0.016131967 -0.03958362 -0.09294595 -0.15046723 -0.027468288
-0.12095212 -0.14790732 -0.020980114 -0.08462516 0.0705483 -0.02847326 -0.06330858 -0.13570175
-0.20154303 -0.14495839 -0.018345172 0.08104424 -0.05382525 -0.085797556 -0.028235419 -0.124026164
-0.14725114 0.2097419 -0.15042365 0.2429204 0.027025962 0.14122078 0.10587859 -0.051155552
0.03557143 -0.0950528 -0.17356591 0.22022739 -0.054698635 0.16037618 0.019334195 -0.1356884
0.10157438 0.056465764 0.02117374 -0.11102946 -0.17567946 0.10210626 -0.14725 0.0060176826
0.004250673 0.035327397 -0.06203734 -0.004244018 0.0058552376 -0.1531102 -0.11493982 -0.16586186
0.08772565 -0.11549154 -0.12913688 -0.014401158 -0.10796577 0.06682602 -0.099515475 -0.02445254
00000000: fb82 13bc fc23 d8bb c826 bc3c 6a8c 403d
00000010: 6e91 31bd 398a e93c 6025 983d ed2d 8abc
00000020: d008 283e 4284 583d 603b 16be fa1a b0bd
00000030: 6a31 4d3d 4f96 34bd 42af 153c f110 b2bd
00000040: dda0 cfbd 76b3 dbbd e094 04bd 630c b3bd
00000050: 632b 443d 19de 5f3a 4abb 1fbe 1127 0abd
00000060: 5d7d 89be fe2c b7bc 7f79 ebbb b9c7 cf3d
00000070: 49ed 86ba c566 adbb f03f 45be 1c00 e4bc
00000080: e46f dbbc 6ac4 0ebc 277a e9bc 4dc3 393d
00000090: c8dc 083e 5e20 9b3d 43f7 3a3d bcdf c93d
000000a0: 02f4 d5bc 1825 603d a1c9 0dbe 599c 35bd
000000b0: 55e1 88be 1a60 a5bd 1595 f1bd 67e3 553e
000000c0: f21c 68bd 0f83 423e f37a b2bd aef9 fb3c
000000d0: d45f 0e3d 56b9 dcbd e9cc 1abd b9bd 9a3d
000000e0: 3813 48bd ffcd 9cbc 7231 81bd 528f 8d3c
000000f0: 49c1 de3d 32db 7c3d 408f a23d 8cb1 4b3d
00000100: 6b62 0fbd bbcd 353d 4df9 c43a a22f c13d
00000110: 80f6 25bd 2fa1 4c3d 2a3d 203d c357 1e3d
00000120: 4259 993d 9dbb 85bd 3607 093d ab04 1ebe
00000130: 828d 50be 17f9 8a3d 9ec8 87be ee2d 8abd
00000140: aff2 fbbd 3ca3 9abd 5026 093c 41b6 53bd
00000150: 54ab 1d3d 9261 803d 4f77 933d f8c2 aa3d
00000160: 3703 d63c a519 2ebd 26c6 2cbe 3ba7 38be
00000170: d2d4 9ebd 6eeb 32be 1814 82bd beea 923c
00000180: adcf 68bd dfd5 1b3d 49b6 3fbd c71d 8e3d
00000190: 2ad2 25bd df7a a3bd 45be 81be 7899 44bd
000001a0: a055 b2be 5511 02be 3724 7fbc dc74 c03b
000001b0: ef98 ee3b 873c 7a3c 65ff d8bd d518 47be
000001c0: 5ea1 dd3d 4192 34be 315e dd3d 2fd5 2cbe
000001d0: f285 cbbd ee3b 6fbe 6928 03be 3ab7 e3bd
000001e0: f673 b2bd 1af5 bcbd 69cf 2ebd 493d 0ebe
000001f0: 60bd af3c eeee e03d 64d2 d1bd a36b 673e
00000200: 12ce 50be 62b2 693e 5b68 343c 4f71 c53d
00000210: 107b a7bb 95db cfbb e072 6c3c 64e0 fbbd
00000220: a7e5 01be 8a15 21bd 278e 1cbe 84a1 38be
00000230: eff8 16bd bba4 96bd 71f8 87be 5fc9 f6bd
00000240: 73d9 4fbe c3b0 533d 707c a73c 08b9 ee3d
00000250: 3ced 95bd 587e 35bb 928e 75be eb63 dfbd
00000260: e718 373c 7c19 08be 2a4e fc3d ef52 27be
00000270: 07f0 e7bd 7422 08be 9db5 debd 15bf 4cbe
00000280: 31ca 7abd c4f5 00be 9a97 c33e b227 fcbd
00000290: 65bb ba3e 4c63 3dbc 1d13 80bd fbc5 3a3e
000002a0: 193f 99bd 4d1c 113e 8ca5 ea3c 7129 85bd
000002b0: 0a23 fabb a1eb 21be d302 cfbc 19a5 94bd
000002c0: 02bc 8cbd 6a1e 5bbd 7d4b b3bd 796f 1ebd
000002d0: 0da1 72bc be26 0dbe 5a4b 98bd eba8 2ebe
000002e0: b1ef 29bd 0439 b13d 929d aebd 9a7a 483d
000002f0: c34d c1bd 70d9 a5bc e400 24be b4fd 3abe
00000300: 5042 9cbd ce8c 3ebd c9a4 793d 3027 84bc
00000310: 6f22 22bd 725a bebd 1514 1abe 2d05 e1bc
00000320: bfb5 f7bd 0475 17be 7dde abbc f54f adbd
00000330: a17b 903d c140 e9bc eea7 81bd 66f5 0abe
00000340: 4c61 4ebe f96f 14be 9d48 96bc 86fa a53d
00000350: de77 5cbd a1b6 afbd f74d e7bc 6e01 febd
00000360: 01c9 16be 95c6 563e a808 1abe 20c0 783e
00000370: 8d65 dd3c 2e9c 103e e0d6 d83d 7c88 51bd
00000380: 59b3 113d 0bab c2bd 43bb 31be 4a83 613e
00000390: ad0b 60bd a739 243e bf62 9e3c e6f1 0abe
000003a0: 3b06 d03d a548 673d 8d74 ad3c 6a63 e3bd
000003b0: 51e5 33be 161d d13d b4c8 16be fb2f c53b
000003c0: 3b49 8b3b 76b3 103d de1a 7ebd 6711 8bbb
000003d0: 4bdd bf3b ecc8 1cbe 9165 ebbd b1d7 29be
000003e0: 81a9 b33d d486 ecbd 753c 04be d6f2 6bbc
000003f0: 281d ddbd 15dc 883d c5ce cbbd b150 c8bc

weight_hh_l0 f4 [512, 128]
-0.08605189 0.035062436 -0.018331349 -0.07212161 0.08336603 -0.009744841 -0.0033187578 0.034203105
0.06292582 -0.006532501 -0.07628825 0.06034973 0.050478272 -0.020391135 0.07228733 0.039229456
0.066191 0.015875053 0.020895638 0.017800134 -0.07121197 -0.06256375 0.076805204 0.105916925
0.007213589 -0.016429417 0.032534957 0.028285783 0.016085913 -0.02301131 -0.059245996 -0.020768402
0.007157543 0.027918657 -0.065959506 -0.07242552 0.038992632 0.0056215823 -0.008283336 -0.049264275
0.04909858 0.06398119 -0.058553588 0.0018550926 -0.023062797 -0.01702574 -0.053240255 -0.010867403
0.07114747 -0.025477462 0.048139453 -0.11126476 -0.06400072 -0.0016516438 -0.018106617 -0.05218498
-0.024605107 -0.020119322 -0.03209243 0.010447167 0.082714535 0.08973738 -0.17579883 -0.057334695
-0.09091968 0.05891871 0.01645154 0.020189837 -0.033547312 0.0776502 -0.05345927 -0.018594505
0.028394522 -0.06896274 -0.048797976 -0.05401811 -0.050076034 -0.06132085 0.006438466 0.02353441
0.0001776256 0.07423485 0.0730285 -0.0860423 -0.027734121 0.02237573 -0.046639033 0.030392908
-0.037963647 -0.0073337182 -0.024860581 0.013297898 -0.041770026 0.09566698 -0.042625856 0.043729026
-0.031420223 -0.038152404 -0.071351655 0.024473444 0.080201186 0.03332729 -0.057255987 -0.0662617
0.11380629 0.03760675 0.083769746 0.026704285 -0.08144307 0.010074645 0.06567701 -0.049611155
-0.045597643 0.068462156 0.121555656 0.0086455 0.0018525633 0.0018165626 -0.034862187 -0.021669434
-0.02065868 -0.0004784887 0.021516778 0.16536598 0.09186618 -0.06266242 -0.0318565 -0.010816722
-0.050868228 -0.12273603 -0.08894727 -0.04788134 -0.03360986 -0.077423975 0.06239576 0.10256897
-0.15186648 -0.010769504 0.08824963 -0.06432766 -0.03324971 -0.08578409 0.05903986 -0.11530772
-0.040953442 -0.06844714 -0.02688998 -0.045363102 0.17564176 0.06696158 0.13055217 -0.021187857
0.12542814 -0.0882178 -0.12118171 -0.054059267 -0.03186465 -0.0046904143 0.1237739 -0.055511653
-0.16169517 0.13341169 0.10696195 -0.046484783 0.0055597676 -0.0741345 -0.049134545 -0.095204726
0.011382054 -0.00056610344 -0.07088522 -0.11932654 0.0490048 0.0066699525 -0.028575297 -0.09463606
0.0003547658 -0.042252347 0.060767174 0.031306125 -0.07919048 -0.045361225 0.031516094 0.05856881
0.119625784 -0.04235287 -0.05283772 -0.056472722 -0.059275907 0.0036012612 -0.15425421 -0.042486936
0.10295334 -0.005503611 -0.13765594 -0.05643727 -0.10989393 -0.04473755 -0.03219646 0.0042971903
0.056967247 0.15085693 -0.083154656 -0.00539734 -0.05827121 -0.021724604 -0.078248985 0.05466583
0.009243391 0.052847784 0.04571725 -0.0069647944 0.00034631963 0.010113208 -0.20990063 -0.043088097
-0.036517963 0.013363491 -0.027862571 -0.004259013 0.04629631 -0.04041973 -0.0057728165 0.08468775
-0.1233451 -0.035787016 0.15698175 0.049945172 0.075294375 0.011997206 0.19298331 -0.0172959
-0.08274678 0.09598507 0.022109546 0.026841952 -0.17903283 -0.03405437 -0.055006288 -0.0031138458
0.012066893 0.06653048 0.042347204 0.015770562 -0.08510782 -0.0016323741 -0.23813646 -0.12370689
0.09184556 -0.02867485 0.057879753 0.017116146 0.08860777 -0.07465185 0.057329662 0.06832848
00000000: f93b b0bd a19d 0f3d a02b 96bc 7fb4 93bd
00000010: cfbb aa3d d3a8 1fbc 847f 59bb 8e18 0c3d
00000020: 41df 803d 970e d6bb 043d 9cbd 4731 773d
00000030: 4ec2 4e3d 4f0b a7bc 610b 943d 11af 203d
00000040: 268f 873d 660c 823c 542d ab3c 96d1 913c
00000050: 95d7 91bd 6c21 80bd 0c4c 9d3d f9ea d83d
00000060: f85f ec3b fc96 86bc 6043 053d 96b7 e73c
00000070: 9bc6 833c 3782 bcbc eeab 72bd 7f22 aabc
00000080: d389 ea3b abb5 e43c c715 87bd d553 94bd
00000090: bdb6 1f3d 4035 b83b d4b6 07bc 56c9 49bd
000000a0: 981b 493d 9208 833d e3d5 6fbd 9426 f33a
000000b0: 31ee bcbc 9179 8bbc 7412 5abd 310d 32bc
000000c0: c4b5 913d 1cb6 d0bc e02d 453d c7de e3bd
000000d0: cf12 83bd f87b d8ba 5454 94bc ebbf 55bd
000000e0: a690 c9bc 47d1 a4bc 5a73 03bd 982a 2b3c
000000f0: 3d66 a93d 3bc8 b73d 9c04 34be c9d7 6abd
00000100: 1934 babd bf54 713d 61c5 863c 2865 a53c
00000110: e868 09bd 1107 9f3d 1cf8 5abd 8153 98bc
00000120: a19b e83c 563c 8dbd 63e0 47bd 1842 5dbd
00000130: 871c 4dbd 922b 7bbd c4f9 d23b 3ccb c03c
00000140: 0241 3a39 7108 983d f78f 953d f236 b0bd
00000150: ab32 e3bc 4f4d b73c 9208 3fbd 8cfa f83c
00000160: c57f 1bbd b04f f0bb 6ba8 cbbc 6ddf 593c
00000170: 0c17 2bbd 0ded c33d 7398 2ebd 351d 333d
00000180: 7eb2 00bd b245 1cbd d120 92bd 887c c83c
00000190: 8540 a43d 3282 083d 4185 6abd 37b4 87bd
000001a0: 4613 e93d 8909 1a3d 798f ab3d f2c2 da3c
000001b0: a0cb a6bd 2010 253c ab81 863d 1135 4bbd
000001c0: 98c4 3abd e335 8c3d 2cf2 f83d dba5 0d3c
000001d0: b6d1 f23a ba19 ee3a a7cb 0ebd 1984 b1bc
000001e0: 643c a9bc abdd fab9 f443 b03c b355 293e
000001f0: 5624 bc3d 2855 80bd f67b 02bd 9f38 31bc
00000200: 345b 50bd 075d fbbd fc29 b6bd 391f 44bd
00000210: 7eaa 09bd 7690 9ebd b292 7f3d ae0f d23d
00000220: e382 1bbe 9372 30bc 39bc b43d 38be 83bd
00000230: d930 08bd 92af afbd c8d3 713d 7426 ecbd
00000240: ccbe 27bd 042e 8cbd 6048 dcbc a9ce 39bd
00000250: 6fdb 333e 2723 893d 78af 053e 2892 adbc
00000260: 3c70 003e 89ab b4bd 1e2e f8bd 406d 5dbd
00000270: 8284 02bd 0cb2 99bb 2c7d fd3d 3060 63bd
00000280: 6b93 25be 139d 083e de0e db3d d466 3ebd
00000290: b62e b63b d4d3 97bd 4e41 49bd b2fa c2bd
000002a0: cb7b 3a3c 8f66 14ba 452c 91bd 7961 f4bd
000002b0: 42b9 483d 9e8f da3b be16 eabc 8dd0 c1bd
000002c0: dcff b939 cc10 2dbd 00e7 783d da3a 003d
000002d0: 9e2e a2bd b1cc 39bd 0517 013d d9e5 6f3d
000002e0: 5dfe f43d 347a 2dbd 5d6c 58bd f14f 67bd
000002f0: 4bcb 72bd 2303 6c3b d1f4 1dbe c806 2ebd
00000300: 33d9 d23d a357 b4bb aef5 0cbe c42a 67bd
00000310: 1210 e1bd b93e 37bd 6fe0 03bd 72cf 8c3b
00000320: 7d56 693d 3d7a 1a3e fd4c aabd 2bdc b0bb
00000330: cbad 6ebd ccf7 b1bc 0141 a0bd 47e9 5f3d
00000340: 9871 173c eb76 583d 0342 3b3d ee38 e4bb
00000350: 3c92 b539 deb1 253c 31f0 56be 257d 30bd
00000360: dc93 15bd 8bf2 5a3c 0c40 e4bc 318f 8bbb
00000370: 33a1 3d3d 298f 25bd e529 bdbb c570 ad3d
00000380: 5b9c fcbd 6895 12bd d3bf 203e 4f93 4c3d
00000390: f033 9a3d ee8f 443c 6b9d 453e 22b0 8dbc
000003a0: 2577 a9bd d293 c43d 141f b53c a7e3 db3c
000003b0: 6254 37be 987c 0bbd 464e 61bd aa11 4cbb
000003c0: 38b4 453c 2241 883d 4374 2d3d 4431 813c
000003d0: 024d aebd 63f5 d5ba 0bda 73be 0a5a fdbd
000003e0: 8619 bc3d 85e7 eabc 5213 6d3d 2937 8c3c
000003f0: fe77 b53d 12e3 98bd 82d2 6a3d cdef 8b3d
