outputs/2023-04-04/04-11-21/rve_model.pt (torch, 570590 bytes, 19 tensors)

weight_ih_l0 f4 [512, 2]
-0.29194847 0.04286238 0.11902472 -0.06268173 0.13670097 0.058994457 0.1572947 -0.0027047067
-0.06855408 0.1426957 0.26227567 -0.16341303 0.0629131 -0.23125058 -0.030386064 -0.08618104
-0.19962753 0.2131594 -0.13096485 -0.06402203 -0.16849549 0.05000105 -0.16175781 0.22602853
0.16477087 0.13258445 0.1603346 0.05594776 -0.15347366 0.12488125 0.14327301 -0.0038027216
0.24907237 -0.1321515 -0.025618836 -0.17168373 -0.09483994 0.13831477 -0.006490703 0.23093702
-0.07124289 0.33514184 0.24270464 -0.2275465 0.14888954 -0.064041555 0.3792147 -0.2549653
-0.03872033 0.0016527518 0.15261358 -0.11305352 0.012581905 -0.311089 0.05115597 -0.1408362
-0.116544634 0.09886497 -0.1547096 -0.07652104 -0.7818741 0.13782284 0.17254546 -0.19103761
-0.12460397 0.28685662 0.05505491 0.18134259 0.1716476 0.033762373 -0.14043674 0.16470908
0.13041118 0.011462924 0.053274088 -0.19052716 0.23867923 -0.17901166 0.2959485 -0.18012029
-0.19151525 0.18177943 0.15848938 -0.25747344 0.10807582 0.14090614 -0.02565828 -0.04315382
0.032582983 -0.09499991 0.09831282 0.094508395 0.25296673 -0.27308112 -0.08324846 -0.115584806
0.04077814 -0.046207204 -0.13151626 0.13191564 -0.1909047 -0.079244964 -0.117856905 0.3588856
-0.6781594 0.07587063 -0.18813618 0.08881198 0.17812464 -0.2522838 0.15263283 0.10262225
-0.123651624 0.31500173 0.19729349 -0.16108671 0.34386688 -0.38157368 -0.100480504 0.019950282
0.10771254 -0.1901695 0.33509383 -0.033675507 -0.14703596 0.29261127 0.039030075 0.17908141
-0.00028819506 0.045142222 -0.13156182 0.11190136 0.17283778 -0.16655904 0.10798634 0.116440624
0.039956335 0.08736901 -0.0841103 0.11954908 0.38524485 -0.17136697 0.13080685 -0.233775
0.23078357 0.15283534 0.078422226 0.12051216 0.20884751 0.13541128 0.17175837 -0.21447401
-0.6638663 -0.036974818 0.10654594 -0.084570356 -0.08769759 0.0024339391 -0.14774747 0.20988354
0.18524343 0.12981212 0.100432426 -0.06690645 -0.25458595 0.18764035 -0.061820872 0.16466142
0.38814494 -0.16472878 0.008816889 -0.019983934 -0.020063603 -0.22032718 0.16823077 -0.1981649
-0.11548339 0.08146825 -0.51982385 0.167491 0.1450345 -0.15802981 0.31243965 0.09614492
0.0765357 -0.1756344 -0.1402043 0.17796203 -0.015778273 0.08025448 -0.048889168 -0.00026613916
-0.14581883 -0.061186172 0.020201687 -0.08269345 0.14679478 0.16981949 0.055490028 -0.19903581
-0.027435176 0.15396246 0.11692132 -0.19161446 0.19442628 0.023493182 0.15674426 -0.2374962
-0.040601756 0.07786535 -0.35874477 0.07068922 -0.09029993 0.14872935 -0.21017824 0.13692285
-0.07499644 0.04096339 -0.08792897 0.2132965 0.33082125 -0.3762161 -0.057238143 -0.03018367
0.14945306 -0.20960191 -0.041185047 -0.088354476 -0.16016288 0.22351083 -0.1034349 -0.0027217928
-0.040760774 0.059055705 -0.10389599 0.20616221 0.017665869 -0.004920851 -0.8520509 0.13684298
0.10255254 -0.15507148 -0.03765701 -0.059590705 -0.07689507 -0.10195589 -0.08709949 0.14097923
0.11500216 -0.051869657 0.18333419 -0.17273797 -0.18814585 0.14827007 0.010208033 -0.19175945
00000000: 457a 95be 7790 2f3d 3bc3 f33d 475f 80bd
00000010: 57fb 0b3e 2ca4 713d dd11 213e 7341 31bb
00000020: 1566 8cbd d21e 123e ff48 863e bf55 27be
00000030: 95d8 803d f4cc 6cbe 32ec f8bc af7f b0bd
00000040: 296b 4cbe 7546 5a3e a61b 06be fb1d 83bd
00000050: 158a 2cbe e7cd 4c3d d7a3 25be 0674 673e
00000060: b2b9 283e 38c4 073e c12e 243e 7a29 653d
00000070: 3328 1dbe bec1 ff3d 29b6 123e 1537 79bb
00000080: d40c 7f3e b952 07be 98de d1bc dccd 2fbe
00000090: 713b c2bd 63a2 0d3e f7af d4bb c17a 6c3e
000000a0: cbe7 91bd b697 ab3e 9187 783e f301 69be
000000b0: 8076 183e 3828 83bd 6e28 c23e d08a 82be
000000c0: 3599 1ebd 26a1 d83a bc46 1c3e 9b88 e7bd
000000d0: 5624 4e3c 0f47 9fbe ec88 513d 5d37 10be
000000e0: f4ae eebd b879 ca3d 326c 1ebe 10b7 9cbd
000000f0: e728 48bf 6e21 0d3e c2af 303e 5d9f 43be
00000100: 5e30 ffbd dfde 923e 4281 613d dfb1 393e
00000110: 63c4 2f3e 6a4a 0a3d a6ce 0fbe 7fa9 283e
00000120: 828a 053e fdce 3b3c ee35 5a3d 8d19 43be
00000130: 5468 743e d54e 37be 9086 973e 7471 38be
00000140: 931c 44be 6324 3a3e 0a4b 223e 8fd3 83be
00000150: db56 dd3d b349 103e 5031 d2bc 0fc2 30bd
00000160: bc75 053d 508f c2bd 3b58 c93d 9e8d c13d
00000170: db84 813e 4ad1 8bbe 2b7e aabd bab7 ecbd
00000180: fb06 273d c443 3dbd 33ac 06be e514 073e
00000190: 867c 43be 2f4b a2bd f65e f1bd dabf b73e
000001a0: db9b 2dbf 1062 9b3d c5a6 40be 0ee3 b53d
000001b0: 4e66 363e 582b 81be c84b 1c3e 9d2b d23d
000001c0: 103d fdbd e847 a13e 4e07 4a3e eaf3 24be
000001d0: 520f b03e a05d c3be b9c8 cdbd c66e a33c
000001e0: 6498 dc3d cbbb 42be 6b91 ab3e 54ef 09bd
000001f0: 9890 16be 25d1 953e 00de 1f3d 1e61 373e
00000200: e318 97b9 0de7 383d 24b8 06be 8a2c e53d
00000210: 63fc 303e 748e 2abe f127 dd3d 6c78 ee3d
00000220: 41a9 233d 86ee b23d 0542 acbd 26d6 f43d
00000230: d03e c53e d37a 2fbe 3bf2 053e b762 6fbe
00000240: 8752 6c3e de80 1c3e d59b a03d 14cf f63d
00000250: 1fdc 553e 41a9 0a3e 6de1 2f3e 139f 5bbe
00000260: 24f3 29bf e872 17bd c234 da3d 3933 adbd
00000270: cb9a b3bd b982 1f3b 1d4b 17be b6eb 563e
00000280: 74b0 3d3e 78ed 043e 84af cd3d 4006 89bd
00000290: 1759 82be cb24 403e e237 7dbd 019d 283e
000002a0: efba c63e a9ae 28be b674 103c 59b5 a3bc
000002b0: 6d5c a4bc 739d 61be b044 2c3e bdeb 4abe
000002c0: 8e82 ecbd d3d8 a63d 2d13 05bf c382 2b3e
000002d0: ed83 143e 91d2 21be 17f8 9f3e a1e7 c43d
000002e0: c0be 9c3d 81d9 33be b791 0fbe ae3b 363e
000002f0: 7041 81bc 765c a43d 0240 48bd 9888 8bb9
00000300: 8851 15be 5a9e 7abd 027e a53c 2f5b a9bd
00000310: 5f51 163e 29e5 2d3e 8349 633d 0bd0 4bbe
00000320: bcbf e0bc 56a8 1d3e 7274 ef3d 9536 44be
00000330: af17 473e c674 c03c 9181 203e 3432 73be
00000340: 074e 26bd de77 9f3d 65ad b7be 83c5 903d
00000350: 2bef b8bd 824c 183e f738 57be 8135 0c3e
00000360: bc97 99bd 3ac9 273d 1b14 b4bd 666a 5a3e
00000370: 6761 a93e 669f c0be 8b72 6abd be43 f7bc
00000380: 390a 193e e2a1 56be a7b1 28bd 31f3 b4bd
00000390: bd01 24be 06e0 643e add5 d3bd 1b60 32bb
000003a0: c5f4 26bd 65e4 713d 6cc7 d4bd 301c 533e
000003b0: 03b8 903c 173f a1bb 0220 5abf 9120 0c3e
000003c0: 1107 d23d 0fcb 1ebe 3d3e 1abd 6215 74bd
000003d0: 2a7b 9dbd 40ce d0bd 3861 b2bd dc5c 103e
000003e0: 4186 eb3d 4775 54bd f5bb 3b3e 39e2 30be
000003f0: 4ea9 40be 1cd4 173e 983f 273c 975c 44be

weight_hh_l0 f4 [512, 128]
0.0098842 -0.009042768 0.15211362 -0.040835142 -0.33990493 -0.01068073 0.34714946 -0.11267272
-0.09815734 0.031889632 -0.32830203 0.1407966 0.15388243 0.18637742 -0.14080949 0.090806544
-0.33124423 0.159067 -0.41348803 0.15494512 0.34221834 0.13364825 0.07668193 0.14777361
-0.028421473 0.05792453 -0.18000335 0.28281543 -0.005575628 -0.14458142 0.15968904 -0.00333445
-0.022738008 0.14342567 0.2226093 -0.21727292 -0.22700554 0.011429742 0.0198474 -0.013160497
-0.41613042 0.025877345 0.10250439 -0.02773609 0.14127043 0.18559092 0.19570716 0.17040604
-0.11546516 0.36843142 0.140984 0.13031629 0.17690963 0.22883292 -0.010484512 0.06702867
-0.16513723 0.037307654 -0.0087363105 0.030643485 0.02589172 0.18476503 -0.34109354 0.1603445
-0.27562854 -0.060185216 0.045419436 0.18034802 -0.006768536 -0.4323189 0.27636966 -0.093165964
0.0047812653 -0.043539137 -0.0004266393 -0.07008012 -0.21949685 -0.04292941 -0.052362848 -0.28095368
-0.09977804 0.12696 -0.10676151 -0.2305181 0.053997852 -0.110333584 0.10636382 -0.007230914
0.0076844464 -0.1771048 -0.03605511 0.06073516 -0.021168312 -0.46556515 -0.18362655 -0.024751166
-0.20623633 -0.19692658 0.2925534 -0.04426422 0.12441219 -0.30106178 0.07450827 0.020297335
-0.2221441 0.2688887 0.2933287 -0.15285236 -0.5144891 0.07534924 -0.15847711 -0.07508401
0.063655555 0.090865746 -0.08915949 0.2738789 -0.27730623 0.35121912 -0.03034998 -0.1861206
0.07820997 -0.06194951 -0.07470724 -0.022930602 0.2602662 0.10372122 0.31557328 0.1996958
-0.0759896 0.06821206 0.057855804 0.13386004 0.13131034 -0.047280945 -0.07833636 0.18618597
0.05571047 -0.006973266 0.09233334 0.045759182 -0.09214838 -0.19473998 -0.026659716 -0.0078119263
0.06603923 0.1741544 0.0880236 -0.24949007 -0.34017438 0.12738028 0.25743937 -0.14379345
0.048233416 0.043430455 0.1400381 -0.09325875 0.037391096 0.076145895 -0.12579317 -0.004841407
0.11649473 -0.058973383 -0.014273095 0.094880186 0.035410766 0.07467461 0.15981595 -0.20763731
0.17014073 -0.0068162763 -0.079215854 0.15655172 -0.18026397 -0.014773648 0.06647757 -0.19796927
-0.12419658 0.028722765 -0.074156605 -0.063980706 -0.06423331 -0.18942377 0.12588328 -0.017372772
0.011903833 0.09777648 0.0066515305 -0.03807571 0.06949551 -0.07513464 0.17847508 -0.20070733
0.26777762 0.1112488 0.067187294 -0.16809517 0.03123776 0.075558014 -0.063401364 -0.04781516
0.045012236 0.08111683 -0.09609384 -0.2153828 0.10518067 -0.16458853 0.045665495 0.06674662
0.11604861 -0.39630398 0.16041014 0.14263953 0.19494691 -0.073548235 0.18773293 -0.051559236
0.0075548096 0.087716416 -0.12658095 0.1762681 0.1367197 0.12306824 -0.030226002 0.05847845
0.022214727 0.07406342 -0.21210183 0.039120935 -0.009180822 0.07045465 0.059258226 -0.25616738
0.2145986 -0.264017 -0.13909931 0.1205334 0.16952401 -0.11617777 0.029667022 -0.16571897
-0.12527555 -0.24916346 -0.026560796 0.08010057 0.16318923 -0.0945614 0.2588203 0.16195434
0.14722191 0.21369725 0.14540441 0.09164506 -0.10976189 0.0717472 -0.16372691 0.07435858
00000000: 57f1 213c 1e28 14bc acc3 1b3e c042 27bd
00000010: 0508 aebe 3bfe 2ebc 93bd b13e f4c0 e6bd
00000020: b706 c9bd b49e 023d 3417 a8be fc2c 103e
00000030: 5b93 1d3e b9d9 3e3e 5d30 10be c8f8 b93d
00000040: d898 a9be 76e2 223e b4b4 d3be efa9 1e3e
00000050: 3e37 af3e 16db 083e 6a0b 9d3d f751 173e
00000060: 26d4 e8bc 4642 6d3d cc52 38be 2fcd 903e
00000070: c2b3 b6bb 270d 14be 8685 233e ca86 5abb
00000080: 0f45 babc 2ede 123e b1f3 633e cb7c 5ebe
00000090: 2474 68be d043 3b3c 0497 a23c 209f 57bc
000000a0: 0c0f d5be bafc d33c d2ed d13d cc36 e3bc
000000b0: 32a9 103e 8c0b 3e3e 7567 483e ec7e 2e3e
000000c0: ff78 ecbd 0ba3 bc3e 1c5e 103e a271 053e
000000d0: cc27 353e 2d53 6a3e 3bc7 2bbc 5446 893d
000000e0: bc19 29be e9cf 183d be22 0fbc 0c08 fb3c
000000f0: df1a d43c 0b33 3d3e d0a3 aebe 5931 243e
00000100: 2f1f 8dbe c684 76bd bb09 3a3d 27ad 383e
00000110: 98ca ddbb e758 ddbe 5380 8d3e cccd bebd
00000120: 29ac 9c3b 1856 32bd 8fae dfb9 2a86 8fbd
00000130: c8c3 60be c0d6 2fbd 6d7a 56bd 29d9 8fbe
00000140: 6e58 ccbd cd01 023e c7a5 dabd f00c 6cbe
00000150: da2c 5d3d 93f6 e1bd 46d5 d93d 4ef1 ecbb
00000160: cfcd fb3b f65a 35be 86ae 13bd 6ec5 783d
00000170: 2b69 adbc 8e5e eebe 9908 3cbe f5c2 cabc
00000180: 9e2f 53be 1fa7 49be 8fc9 953e 664e 35bd
00000190: d1cb fe3d c524 9abe cb97 983d 9946 a63c
000001a0: be79 63be c8ab 893e 2e2f 963e 5485 1cbe
000001b0: 8fb5 03bf b450 9a3d d347 22be a5c5 99bd
000001c0: d85d 823d d217 ba3d 4099 b6bd db39 8c3e
000001d0: 15fb 8dbe fed2 b33e 85a0 f8bc 6696 3ebe
000001e0: 8c2c a03d c5be 7dbd 1c00 99bd f5d8 bbbc
000001f0: 9d41 853e ca6b d43d d292 a13e 0e7d 4c3e
00000200: 6fa0 9bbd c4b2 8b3d 35fa 6c3d 9b12 093e
00000210: 3876 063e aaa9 41bd d06e a0bd 89a7 3e3e
00000220: a930 643d ff7f e4bb 4319 bd3d fb6d 3b3d
00000230: 4ab8 bcbd eb69 47be 7a65 dabc 30fb ffbb
00000240: 933f 873d 8855 323e b845 b43d 537a 7fbe
00000250: 562b aebe fa6f 023e 18cf 833e 973e 13be
00000260: 6790 453d 22e4 313d 2666 0f3e 72fe bebd
00000270: 6827 193d 61f2 9b3d edcf 00be aaa4 9ebb
00000280: ca94 ee3d 138e 71bd b3d9 69bc 8b50 c23d
00000290: e10a 113d 00ef 983d cba6 233e e09e 54be
000002a0: 5f39 2e3e 125b dfbb ec3b a2bd 184f 203e
000002b0: 1e97 38be 2c0d 72bc 6425 883d 75b8 4abe
000002c0: c75a febd 014c eb3c 6bdf 97bd 5108 83bd
000002d0: c18c 83bd 4ef8 41be 8ce7 003e 5851 8ebc
000002e0: 4b08 433c 093f c83d 15f5 d93b 47f5 1bbd
000002f0: a953 8e3d 31e0 99bd 2cc2 363e 3986 4dbe
00000300: 261a 893e 69d6 e33d 7e99 893d 2421 2cbe
00000310: 55e6 ff3c 29be 9a3d 93d8 81bd d4d9 43bd
00000320: c05e 383d 9520 a63d d9cc c4bd 4f8d 5cbe
00000330: f768 d73d e589 28be be0b 3b3d 74b2 883d
00000340: e5aa ed3d 5be8 cabe 8e42 243e 1910 123e
00000350: 2aa0 473e 75a0 96bd 103d 403e c72f 53bd
00000360: 568e f73b aaa4 b33d 709e 01be a07f 343e
00000370: 4000 0c3e 340b fc3d 859c f7bc 1987 6f3d
00000380: a9fb b53c 90ae 973d 3931 59be 463d 203d
00000390: 296b 16bc 874a 903d c1b8 723d 5f28 83be
000003a0: bcbf 5b3e 3c2d 87be 0d70 0ebe 37da f63d
000003b0: b497 2d3e 9cee edbd 4108 f33c 3cb2 29be
000003c0: 3c48 00be b524 7fbe 0796 d9bc c50b a43d
000003d0: 141b 273e 68a9 c1bd 1884 843e 5cd7 253e
000003e0: 57c1 163e 74d3 5a3e e5e4 143e 68b0 bb3d
000003f0: d7ca e0bd 32f0 923d 07a8 27be 5049 983d

bias_ih_l0 f4 [512]
0.33656785 0.034918584 0.32337436 0.13561167 0.0031138093 0.09679753 0.08297106 0.076902844
0.18790166 0.09964864 0.14203309 0.0828296 0.16429588 0.099680066 0.20034656 0.13676587
0.31429887 0.022374475 0.21089801 0.25429216 0.19974238 -0.017003285 0.078490704 0.37422013
-0.07513689 0.14169694 0.14480416 0.060201745 0.1450185 0.13112342 0.15316269 0.090224296
0.08257078 0.124042735 -0.15862973 0.12671244 0.101275854 -0.06505427 0.19301406 0.1606299
0.13711521 0.22518994 0.13757862 0.1437851 0.03518837 -0.13448659 0.15023889 0.2736295
-0.0012647673 0.070535146 -0.12604739 0.047913756 0.4359623 0.11184042 0.36837393 0.13653247
-0.06269567 -0.15161583 0.25461015 -0.049351145 0.21485093 0.20305961 0.26778886 -0.17600599
0.47245234 0.20893842 0.021561086 0.088001125 0.06750589 0.29426154 0.1810499 0.27617127
0.047795717 0.13469988 0.10660177 -0.047560632 0.17373802 0.07150563 0.01569374 0.16425307
0.25528085 0.18538585 0.019963741 0.017741848 0.07479988 0.06686872 0.0959768 0.09292505
0.06978427 0.12214444 -0.081935406 0.39873928 -0.0130226435 0.6353628 0.16967507 0.033308435
-0.018528614 0.09830017 0.075173736 0.009358042 0.15654677 0.09826981 -0.14610295 0.05856876
0.1714466 0.2622131 0.13341859 0.00036285762 -0.09142605 0.48670396 0.29911858 0.116465546
0.381101 0.16974954 0.067348205 0.052624524 0.076099254 0.37115932 -0.023079623 0.12691833
-0.11742634 0.06352386 -0.058409795 0.081443116 0.082202494 0.028314307 0.20320548 0.021375224
0.16386838 0.055846285 -0.1788409 0.07587856 -0.13479272 0.074673235 -0.07193041 -0.007347855
0.024614986 -0.027783325 -0.04018957 -0.19268276 -0.0052635865 -0.08856351 -0.015271639 0.04169806
0.097037144 0.14493921 0.04982759 0.020204537 0.11386657 -0.052737035 0.07606454 0.058184065
-0.093871646 0.08390124 -0.08340739 -0.12743475 0.024829421 0.04755953 0.05899569 -0.09536433
-0.07565894 0.0912743 0.0073740827 -0.054456327 -0.22294559 0.023517279 0.00021165759 -0.0029460783
0.12341447 0.08665914 -0.008780381 -0.0076616816 0.050565206 -0.13006175 0.090031244 0.10202309
0.029736366 0.0004391968 0.007903368 0.107935525 0.20527768 -0.0027705054 0.2527068 -0.12839733
0.012358217 -0.1409387 0.11253215 -0.021223448 -0.25665924 -0.06907447 0.08460368 -0.18220057
0.12426678 -0.12654194 -0.0071979645 0.09697562 0.052428473 0.09154954 0.09748579 -0.055540677
-0.049338326 -0.045621816 -0.074914075 0.06013788 0.13074592 -0.016177507 -0.030072033 -0.04128191
0.10628161 -0.03498635 -0.018968906 -0.09206793 0.09083675 0.059695207 -0.1660744 0.045314435
0.046735417 -0.024240566 -0.025374321 -0.10018287 -0.12628464 0.13675827 0.04181288 -0.008330404
-0.19010286 -0.1369227 -0.092025936 -0.13739026 -0.13363628 -0.054349236 -0.056690983 -0.14825235
-0.029643456 -0.084796146 0.13249288 -0.04967558 -0.118257426 0.027899187 0.03579229 0.027945763
-0.11848841 -0.092286065 0.042109232 -0.04505601 -0.09211151 0.13673872 0.046456493 -0.08605391
-0.079585865 -0.09353394 -0.028970508 0.12174806 0.011171156 -0.06845266 0.026311243 0.14326562
00000000: 9f52 ac3e ca06 0f3d 5391 a53e c9dd 0a3e
00000010: 0d11 4c3b c93d c63d bbec a93d 3d7f 9d3d
00000020: 4b69 403e 9614 cc3d 1f71 113e 91a2 a93d
00000030: 2e3d 283e 1025 cc3d a627 4d3e 5a0c 0c3e
00000040: c8eb a03e ad4a b73c a6f5 573e 9532 823e
00000050: 4489 4c3e 794a 8bbc bcbf a03d c899 bf3e
00000060: 5fe1 99bd 0119 113e 8b47 143e 1b96 763d
00000070: bb7f 143e 3845 063e aed6 1c3e 84c7 b83d
00000080: de1a a93d 1e0a fe3d d56f 22be e8c0 013e
00000090: b769 cf3d 2c3b 85bd 7aa5 453e 2a7c 243e
000000a0: ee67 0c3e 3198 663e 69e1 0c3e 673c 133e
000000b0: ae21 103d dab6 09be 39d8 193e 2a19 8c3e
000000c0: 8cc6 a5ba bb74 903d 9112 01be 3741 443d
000000d0: 7336 df3e 970c e53d 829b bc3e 2bcf 0b3e
000000e0: 9666 80bd 2e41 1bbe 435c 823e 6d24 4abd
000000f0: e201 5c3e dcee 4f3e 9f1b 893e ea3a 34be
00000100: 46e5 f13e f4f3 553e e0a0 b03c ef39 b43d
00000110: 8740 8a3d 73a9 963e 2565 393e 5266 8d3e
00000120: 71c5 433d c4ee 093e 0752 da3d f0ce 42bd
00000130: 61e8 313e 8b71 923d 2990 803c f531 283e
00000140: 2cb4 823e cad5 3d3e 008b a33c 5a57 913c
00000150: ae30 993d 78f2 883d 7c8f c43d 7d4f be3d
00000160: 0eeb 8e3d dd26 fa3d c0cd a7bd 8e27 cc3e
00000170: ed5c 55bc 23a7 223f 4dbf 2d3e 6d6e 083d
00000180: 52c9 97bc 9951 c93d b0f4 993d 7952 193c
00000190: cc4d 203e af41 c93d 039c 15be cce5 6f3d
000001a0: b38f 2f3e cc40 863e e29e 083e ed3d be39
000001b0: 953d bbbd 4331 f93e 1226 993e 7d85 ee3d
000001c0: ac1f c33e d3d2 2d3e dbed 893d d08c 573d
000001d0: edd9 9b3d 9808 be3e 7a11 bdbc e1f6 013e
000001e0: 397d f0bd cc18 823d 1c3f 6fbd a6cb a63d
000001f0: c859 a83d 68f3 e73c 1915 503e 181b af3c
00000200: 1dcd 273e 13bf 643d 1222 37be 3866 9b3d
00000210: 1a07 0abe 48ee 983d 4050 93bd 46c6 f0bb
00000220: 5ea5 c93c db99 e3bc d29d 24bd a14e 45be
00000230: 2a7a acbb c960 b5bd e635 7abc 96cb 2a3d
00000240: 69bb c63d f26a 143e 0418 4c3d fc83 a53c
00000250: e032 e93d ca02 58bd bac7 9b3d 6a52 6e3d
00000260: c73f c0bd 6ad4 ab3d 7ed1 aabd 417e 02be
00000270: 1267 cb3c c8cd 423d 77a5 713d 604e c3bd
00000280: 13f3 9abd 05ee ba3d 4aa2 f13b 990d 5fbd
00000290: d94b 64be 4fa7 c03c 67f0 5d39 fe12 41bb
000002a0: bac0 fc3d 597a b13d 96db 0fbc d80e fbbb
000002b0: 761d 4f3d e82e 05be 4d62 b83d 7bf1 d03d
000002c0: ae99 f33c ff43 e639 217d 013c 4d0d dd3d
000002d0: 5034 523e 5e91 35bb c962 813e 977a 03be
000002e0: 1e7a 4a3c 3c52 10be 4177 e63d ccdc adbc
000002f0: d768 83be ea76 8dbd b244 ad3d c992 3abe
00000300: 957f fe3d 3694 01be e7dc ebbb 279b c63d
00000310: 3dbf 563d 537e bb3d a1a6 c73d 9f7e 63bd
00000320: fc16 4abd f1dd 3abd 8d6c 99bd 2353 763d
00000330: 42e2 053e b186 84bc a059 f6bc 3817 29bd
00000340: 2caa d93d d94d 0fbd ae64 9bbc 1c8e bcbd
00000350: 9e08 ba3d f682 743d 680f 2abe a19b 393d
00000360: a36d 3f3d 2794 c6bc cfdd cfbc ad2c cdbd
00000370: c350 01be 5c0a 0c3e fc43 2b3d 3f7c 08bc
00000380: 53aa 42be 7735 0cbe 1878 bcbd 08b0 0cbe
00000390: f3d7 08be 4e9d 5ebd ce34 68bd 77cf 17be
000003a0: d5d6 f2bc 9aa9 adbd 37ac 073e 9f78 4bbd
000003b0: f330 f2bd d68c e43c f09a 123d 83ee e43c
000003c0: 0daa f2bd 7a00 bdbd bb7a 2c3d a78c 38bd
000003d0: f6a4 bcbd 3c05 0c3e 2a49 3e3d 083d b0bd
000003e0: eafd a2bd b98e bfbd 8f53 edbc 0c57 f93d
000003f0: 3907 373c e930 8cbd ad8a d73c 39b4 123e

bias_hh_l0 f4 [512]
0.2162086 0.084316835 0.3494577 0.038294565 0.0467222 0.16667448 0.22562805 0.011551877
0.3270287 0.079922885 0.17532921 0.025547182 0.27579492 0.041892283 0.050330635 0.14055681
0.25279963 0.16468593 0.13336869 0.3278521 0.16904557 -0.099294096 0.050323334 0.29471603
0.012482891 0.06579162 0.14685555 0.096814424 0.2647213 0.13003752 0.26358026 -0.025668075
0.08568064 0.1902247 -0.068224 0.080392085 0.18765469 -0.036686014 0.19546644 0.138357
0.09531217 0.36957103 0.12353259 0.18425487 0.1080451 -0.0076996107 0.11362526 0.14022648
-0.023189787 0.016007219 -0.029887956 0.12748405 0.5129062 -0.010884284 0.31109607 0.13328238
-0.039115224 -0.11349494 0.24929155 -0.018270785 0.25913334 0.2673097 0.15098529 -0.10800097
0.49707675 0.2708719 0.16963859 0.18439454 0.18316911 0.34455717 0.14065479 0.16385305
0.18957396 0.063955 0.11786376 -0.077943414 0.1853087 0.029183682 0.08300942 0.1415316
0.18300992 0.18958408 -0.015439204 -0.034927458 0.05047562 0.13037302 0.13715881 0.1305049
0.05710553 0.2542296 -0.12594092 0.38400048 -0.005180673 0.64390945 0.08796246 0.122878544
-0.0147515405 -1.0471902e-05 0.1577606 0.041685373 0.28165188 -0.055766974 -0.07560103 0.0015805089
0.089537084 0.15666245 0.0845124 0.03423108 -0.03189611 0.45241377 0.18311174 0.23595342
0.29667583 0.1075844 0.10193853 0.17369284 0.01973735 0.43956628 0.101737246 0.06601656
-0.12365623 0.0836768 -0.0013089632 0.20455584 0.119377576 0.14344427 0.1690632 -0.0067800838
0.0052749496 0.041109875 -0.1080601 -0.040009487 0.020326879 0.1221379 0.010820035 -0.013055665
0.059226878 -0.00745584 -0.091699146 -0.094679 0.0013645287 0.013254591 -0.13237964 0.010564932
0.08696643 0.08162485 0.034553315 -0.025656685 0.039588366 -0.15753965 -0.08916679 0.10262401
-0.0068071447 0.15537459 0.009623392 -0.1271615 0.07468324 0.03038477 -0.025292942 -0.029136611
0.05959749 0.07595016 -0.120288454 0.0076323813 -0.11393693 0.03282553 -0.09717497 -0.050538473
0.014756873 0.14341013 0.048540466 -0.013484104 -0.03945411 -0.14928427 0.03976655 0.0658543
-0.0478812 0.022280993 0.062042754 0.13722911 0.15137796 -0.047195002 0.22813863 -0.16413844
0.06918978 -0.08335502 0.1723648 -0.052487656 -0.19256619 0.0026139691 0.111900344 -0.13002647
0.1220793 -0.104454026 0.0336886 -0.0009952728 0.08653708 0.15530439 -0.044411194 -0.04493691
-0.09040604 -0.14899589 0.028452432 -0.023908485 0.09312067 -0.12839621 0.024681019 0.09366615
0.04131992 0.031199394 -0.0763491 0.026046792 0.022885432 0.0030113412 -0.034797944 0.11619665
0.09770556 0.14119013 -0.13904484 -0.046497263 -0.04886689 0.20713106 -0.04598224 -0.123056
-0.17833368 -0.1090595 -0.03638614 -0.018648354 -0.025587864 0.046244588 -0.07767811 -0.15650164
-0.031097958 -0.12250707 0.08314488 -0.056422647 -0.16256332 0.07966274 -0.018459043 -0.017466465
-0.21447197 -0.10248526 -0.072256416 -0.058940455 -0.13560571 0.08059516 0.085888036 -0.025063774
0.011854225 -0.081204325 -0.025098188 0.049513597 -0.07791795 0.0031108398 0.014194577 0.12101768
00000000: ca65 5d3e 4eae ac3d 1fec b23e c3da 1c3d
00000010: c75f 3f3d b7ac 2a3e 0a0b 673e 1544 3d3c
00000020: 4e70 a73e 9cae a33d 8089 333e 5348 d13c
00000030: fe34 8d3e 3e97 2b3d 7f27 4e3d 20ee 0f3e
00000040: f46e 813e 6ea3 283e cd91 083e 3bdc a73e
00000050: 481a 2d3e b45a cbbd d71f 4e3d 05e5 963e
00000060: 0a85 4c3c c2bd 863d 4d61 163e a446 c63d
00000070: 8d89 873e 8e28 053e fef3 863e db45 d2bc
00000080: 5579 af3d 44ca 423e 06b9 8bbd 9ba4 a43d
00000090: 8d28 403e 1344 16bd 5b28 483e 75ad 0d3e
000000a0: 0733 c33d 6a38 bd3e a8fe fc3d 4fad 3c3e
000000b0: c046 dd3d 044d fcbb 5cb4 e83d 8897 0f3e
000000c0: 82f8 bdbc 9221 833c 96d7 f4bc 2e8b 023e
000000d0: d24d 033f ff53 32bc fc47 9f3e 2d7b 083e
000000e0: 4937 20bd 0970 e8bd 4946 7f3e 9dac 95bc
000000f0: 20ad 843e d1dc 883e e39b 1a3e 9d2f ddbd
00000100: d880 fe3e b9af 8a3e bdb5 2d3e ecd1 3c3e
00000110: af90 3b3e cc69 b03e cf07 103e 18c9 273e
00000120: ad1f 423e d7fa 823d 8e62 f13d cca0 9fbd
00000130: 90c1 3d3e 9e12 ef3c d800 aa3d a9ed 103e
00000140: f466 3b3e 5422 423e b7f4 7cbc 1810 0fbd
00000150: 86bf 4e3d 8180 053e 5c73 0c3e 14a3 053e
00000160: 7de7 693d 622a 823e a8f6 00be b69b c43e
00000170: a3c2 a9bb 40d7 243f aa25 b43d bfa7 fb3d
00000180: 72b0 71bc 7ab0 2fb7 ff8b 213e 48be 2a3d
00000190: ad34 903e e96b 64bd b6d4 9abd 1429 cf3a
000001a0: 385f b73d 1f6c 203e d614 ad3d e435 0c3d
000001b0: 7fa5 02bd c7a2 e73e a581 3b3e c69d 713e
000001c0: e5e5 973e 3655 dc3d 26c5 d03d 89dc 313e
000001d0: 39b0 a13c d50e e13e 9e5b d03d b133 873d
000001e0: 7a3f fdbd be5e ab3d 8491 abba 1677 513e
000001f0: 3b7c f43d 0ee3 123e e71e 2d3e 772b debb
00000200: 7cd9 ac3b d462 283d 9d4e ddbd fde0 23bd
00000210: 8e84 a63c 6f23 fa3d 8446 313c 6ee7 55bc
00000220: e297 723d 1e50 f4bb c3cc bbbd 10e7 c1bd
00000230: fcd9 b23a c929 593c 878e 07be 8918 2d3c
00000240: 751b b23d ee2a a73d c787 0d3d f82d d2bc
00000250: 6927 223d 1352 21be 149d b6bd 892c d23d
00000260: 780e dfbb 841a 1f3e 6eab 1d3c a036 02be
00000270: 87f3 983d 7be9 f83c 2533 cfbc e7af eebc
00000280: 7f1c 743d c28b 9b3d cb59 f6bd 0e19 fa3b
00000290: c457 e9bd 1074 063d ac03 c7bd 6e01 4fbd
000002a0: d0c6 713c 1bda 123e 5ed2 463d 6eec 5cbc
000002b0: a29a 21bd fadd 18be 40e2 223d 9fde 863d
000002c0: 141f 44bd a186 b63c 8b20 7e3d ca85 0c3e
000002d0: d302 1b3e 8c4f 41bd 2c9d 693e e813 28be
000002e0: 5fb3 8d3d 09b6 aabd 6680 303e 4cfd 56bd
000002f0: 1230 45be 204f 2b3b 022c e53d a925 05be
00000300: b604 fa3d feeb d5bd 0ffd 093d d073 82ba
00000310: 5a3a b13d 1d08 1f3e 83e8 35bd c40f 38bd
00000320: cd26 b9bd 6192 18be 1315 e93c badb c3bc
00000330: 0db6 be3d 4c7a 03be d92f ca3c 0ad4 bf3d
00000340: 143f 293d df95 ff3c eb5c 9cbd 1560 d53c
00000350: 3b7a bb3c ec59 453b 4a88 0ebd 82f8 ed3d
00000360: da19 c83d 2594 103e c561 0ebe ea73 3ebd
00000370: a628 48bd 2a1a 543e e057 3cbd c904 fcbd
00000380: 1b9d 36be 965a dfbd a209 15bd 6fc4 98bc
00000390: a49d d1bc f76a 3d3d b315 9fbd f741 20be
000003a0: 25c1 febc fde4 fabd dd47 aa3d 6f1b 67bd
000003b0: 0077 26be 3826 a33d 6b37 97bc d515 8fbc
000003c0: 8a9e 5bbe cbe3 d1bd 2cfb 93bd 8c6b 71bd
000003d0: 39dc 0abe 130f a53d 11e6 af3d 8b52 cdbc
000003e0: 3938 423c 744e a6bd b79a cdbc c5ce 4a3d
000003f0: 7293 9fbd 3bdf 4b3b 5f90 683c 1ed8 f73d

weight_ih_l0 f4 [20, 128]
-0.0452832 -0.31681928 0.15344836 -0.42217687 0.62991613 -0.09318061 -0.045641806 0.42088792
0.3493629 -0.39910382 -0.3648749 0.39325905 -0.2570526 -0.34757832 0.0361758 -0.22278497
0.14095679 -0.5087279 -0.38619873 -0.49377537 -0.02109745 0.0030297372 0.16810474 -0.34019685
-0.10216869 -0.34669828 -0.057893906 -0.07003801 -0.5671597 -0.34451324 0.044435296 0.4452294
0.0838897 -0.2971149 -0.26823074 -0.087378174 0.733505 0.21318002 0.68194807 -0.12852892
0.63806796 0.13521446 0.1327817 -0.065657444 -0.28298092 -0.31545427 -0.2073945 -0.011721541
-0.18260066 0.09544201 0.47143686 0.3915711 -0.17888544 -0.51489156 -0.16607568 -0.2279511
-0.4743005 -0.36851576 -0.6227285 0.037451643 0.71516436 -0.050043438 -0.023721905 0.17676632
-0.06836852 0.3606256 -0.15134135 -0.39040196 0.7348548 0.14337488 0.06607294 -0.028010456
-0.07909732 -0.22235836 -0.44333887 0.32974797 -0.4199773 -0.06948072 -0.26120114 0.4358407
-0.42216495 -0.23400682 -0.026784902 0.14546473 0.22480989 -0.46450213 -0.014937201 0.22893852
0.1780742 0.12668398 -0.8599484 0.34159294 -0.46672213 0.13807367 -0.16405 0.2797936
-0.22456485 -0.14670442 -0.38922158 -0.47057736 0.57745737 -0.20373264 -0.25387812 0.08499846
-0.46612784 -0.25304094 0.34106296 0.2980081 -0.09743608 0.2273341 -0.2738381 -0.22995384
-0.21767612 -0.4792674 0.14305699 -0.044534836 -0.25134212 -0.3729534 -0.06872942 0.0035655473
-0.032931577 0.23093857 0.5933358 0.58389235 -0.04314333 -0.30061755 -0.047489658 0.23237838
-0.345906 -0.3953387 0.3694481 -0.26648623 0.37113392 0.034731764 -0.50797087 0.123510264
-0.15317275 -0.16553132 -0.42896143 0.814613 -0.723251 -0.2656943 -0.4843915 -0.12309874
-0.16394904 -0.2798714 0.14615834 -0.42561394 -0.75284237 0.32541406 -0.29877013 -0.26339865
0.11262001 -0.03648005 0.63138044 0.20500448 0.10064109 0.25136513 0.3134748 -0.20208135
0.6117441 0.15643153 0.043032527 0.43275064 0.8818933 -0.13205911 0.28092694 0.042501077
-0.14754179 -0.2975102 0.032996602 -0.16497952 -0.33615628 -0.4968037 0.29036507 -0.25921384
0.48460636 -0.45620352 -0.067189686 0.41316283 -0.14811704 -0.006455771 -0.6361233 0.3734321
-0.2961098 -0.46973512 -0.5239003 0.25066426 0.01644796 0.12788649 0.4087008 -0.3662049
0.46246994 -0.036120303 0.3448313 0.27075356 0.038237076 0.48102677 0.19939587 -0.19951105
0.08115247 -0.31729433 -0.16246068 -0.21931623 -0.57929605 -0.3557787 0.6300937 0.23045012
-0.6836558 -0.008158709 -0.50457925 0.13567172 0.18288152 -0.5192758 -0.009615312 0.39469185
0.0396804 -0.4557925 -0.451948 0.4783808 0.05818885 0.013014017 0.8580484 0.48079148
0.06331884 0.28285742 -0.44111574 0.19243619 0.74444014 0.36086512 -0.019622244 -0.032823358
-0.43189675 -0.28360134 -0.13830012 0.18648139 -0.020718396 0.2153529 -0.2029352 -0.5922437
0.11925665 -0.119292974 -0.012258847 -0.33359525 -0.04646081 0.16546173 0.03722652 -0.30883145
0.4095392 -0.04879264 -0.2270787 0.2962885 -0.31494862 -0.30350485 0.048774004 0.1455541
00000000: e07a 39bd 2336 a2be 9121 1d3e 9127 d8be
00000010: 2f42 213f 7ad5 bebd e7f2 3abd 9f7e d73e
00000020: b2df b23e 5657 ccbe e2d0 babe 4059 c93e
00000030: 669c 83be c9f5 b1be 132d 143d be21 64be
00000040: fa56 103e fe3b 02bf d7bb c5be 20d0 fcbe
00000050: 8fd4 acbc 8e8e 463b a623 2c3e 482e aebe
00000060: d13d d1bd 7082 b1be 2922 6dbd 1770 8fbd
00000070: 6131 11bf 0a64 b0be c901 363d 1cf5 e33e
00000080: 5dce ab3d 721f 98be 8a55 89be 54f3 b2bd
00000090: fcc6 3b3f dd4b 5a3e 2694 2e3f 169d 03be
000000a0: 6c58 233f a975 0a3e edf7 073e 6977 86bd
000000b0: e0e2 90be 3983 a1be 395f 54be b50b 40bc
000000c0: abfb 3abe 1a77 c33d 2c60 f13e 027c c83e
000000d0: bf2d 37be efcf 03bf be0f 2abe 036c 69be
000000e0: 84d7 f2be 19ae bcbe 236b 1fbf e566 193d
000000f0: 0315 373f 59fa 4cbd 7154 c2bc 3b02 353e
00000100: cb04 8cbd eba3 b83e 3af9 1abe c4e2 c7be
00000110: 721f 3c3f ddd0 123e 4051 873d 2f76 e5bc
00000120: c7fd a1bd e9b1 63be 50fd e2be bad4 a83e
00000130: 4407 d7be e84b 8ebd 28bc 85be 8326 df3e
00000140: 0126 d8be 7c9f 6fbe 036c dbbc b5f4 143e
00000150: 9034 663e 39d3 edbe 29bb 74bc dc6e 6a3e
00000160: 1559 363e 72b9 013e 9425 5cbf 45e5 ae3e
00000170: 34f6 eebe 2f63 0d3e b9fc 27be 1b41 8f3e
00000180: 54f4 65be af39 16be 0d48 c7be 84ef f0be
00000190: 3fd4 133f 4a9f 50be 50fc 81be ac13 ae3d
000001a0: 4fa8 eebe 958e 81be ce9f ae3e 8594 983e
000001b0: 918c c7bd 45ca 683e 8234 8cbe 0579 6bbe
000001c0: 7de6 5ebe 8962 f5be 887d 123e 296a 36bd
000001d0: eaaf 80be bff3 bebe 03c2 8cbd f5ab 693b
000001e0: 43e3 06bd 297b 6c3e dbe4 173f f879 153f
000001f0: 0fb7 30bd 8bea 99be 8484 42bd 99f4 6d3e
00000200: 971a b1be d669 cabe 4d28 bd3e e270 88be
00000210: 4405 be3e e542 0e3d 610a 02bf f3f2 fc3d
00000220: 51d9 1cbe 0b81 29be d5a0 dbbe 7a8a 503f
00000230: fa26 39bf 1509 88be 2a02 f8be 311b fcbd
00000240: 42e2 27be 4e4b 8fbe 88aa 153e 12ea d9be
00000250: 47ba 40bf ac9c a63e 66f8 98be 30dc 86be
00000260: 52a5 e63d 1b6c 15bd 26a2 213f b2ec 513e
00000270: ea1c ce3d eeb2 803e c57f a03e 6aee 4ebe
00000280: 439b 1c3f 962f 203e e042 303d 7e91 dd3e
00000290: c2c3 613f 813a 07be a8d5 8f3e 9c15 2e3d
000002a0: 3215 17be 4253 98be 7227 073d 64f0 28be
000002b0: ad1c acbe 0e5d febe bbaa 943e adb7 84be
000002c0: 531e f83e 8293 e9be bf9a 89bd 148a d33e
000002d0: feab 17be ef8a d3bb fad8 22bf 7e32 bf3e
000002e0: b49b 97be 1f81 f0be 541e 06bf 1157 803e
000002f0: dfbd 863c adf4 023e 3b41 d13e 357f bbbe
00000300: dcc8 ec3e e2f2 13bd ba8d b03e 36a0 8a3e
00000310: 7b9e 1c3d 2449 f63e 6e2e 4c3e a04c 4cbe
00000320: 4433 a63d 6774 a2be 185c 26be 6f94 60be
00000330: bf4c 14bf a028 b6be d24d 213f 1efb 6b3e
00000340: 1104 2fbf 1bac 05bc 1b2c 01bf 87ed 0a3e
00000350: 4b45 3b3e 42ef 04bf 8b89 1dbc 0d15 ca3e
00000360: ea87 223d a25d e9be ba65 e7be 54ee f43e
00000370: 6e57 6e3d be38 553c 0fa9 5b3f 4d2a f63e
00000380: 4fad 813d b0d2 903e ecd9 e1be fe0d 453e
00000390: a193 3e3f 50c3 b83e d4be a0bc c971 06bd
000003a0: 9221 ddbe 3234 91be 8c9e 0dbe faf4 3e3e
000003b0: a0b9 a9bc 7885 5c3e 3fce 4fbe 489d 17bf
000003c0: d53c f43d e04f f4bd 55d9 48bc ffcc aabe
000003d0: b14d 3ebd cd6e 293e d67a 183d 281f 9ebe
000003e0: 1faf d13e cbda 47bd 5287 68be 20b3 973e
000003f0: f240 a1be fd64 9bbe 40c7 473d 220c 153e

weight_hh_l0 f4 [20, 5]
0.14240238 -0.63569045 -0.31781211 -0.33161741 0.14220238 -0.29423422 -0.19650616 -0.30654648
0.040581353 0.11201761 -0.1771318 -0.089418195 -0.18518431 0.12704024 0.11144664 0.08204538
-0.19382672 -0.17841558 0.32978815 -0.4397365 -0.008022464 0.06414734 0.28134665 0.3596374
0.40977064 0.24681374 -0.6105013 -0.44159734 -0.28203943 -0.42425355 -0.47553355 0.3030864
-0.27091718 -0.33397657 -0.3740442 -0.2077162 -0.12388421 0.54358864 0.0033030221 0.0877137
-0.35383257 -0.16603962 -0.32485875 0.07371405 -0.2419047 -0.20021902 -0.02115272 0.43721884
-0.10402128 0.052455895 -0.5462965 0.020208927 -0.07159177 -0.17114547 -0.15097818 -0.22965477
-0.7300245 -0.24350315 -0.3860989 -0.05971615 0.004154351 0.37302178 -0.41736048 0.08625351
-0.56933653 -0.4419455 -0.24604614 0.36308423 -0.5290231 -0.26334015 -0.0037371593 0.052026026
-0.35986257 -0.11346214 -0.65095425 0.20066637 0.07622585 -0.4211295 0.28614953 -0.2776803
-0.17096542 0.13680252 -0.53081244 -0.0503298 -0.21809666 0.34783328 0.40946501 0.47674844
-0.21098095 0.098561816 -0.38581964 -0.5182468 -0.17970414 -0.14167075 0.18352124 -0.11866393
0.014501411 0.20535539 -0.13610546 0.4313434
00000000: eed1 113e 9cbc 22bf 45b8 a2be c2c9 a9be
00000010: 809d 113e dea5 96be e938 49be a9f3 9cbe
00000020: a238 263d 7d69 e53d 0a62 35be e320 b7bd
00000030: f5a0 3dbe d616 023e 233e e43d 6807 a83d
00000040: 837a 46be 93b2 36be fed9 a83e 2425 e1be
00000050: a770 03bc ae5f 833d ab0c 903e 6522 b83e
00000060: 75cd d13e bebc 7c3e d049 1cbf 0c19 e2be
00000070: 7967 90be c337 d9be 2279 f3be 242e 9b3e
00000080: a8b5 8abe fafe aabe b982 bfbe 8eb3 54be
00000090: 01b7 fdbd a028 0b3f 8477 583b 3ea3 b33d
000000a0: 8b29 b5be 4a06 2abe e353 a6be 64f7 963d
000000b0: deb5 77be 3706 4dbe 7848 adbc 26db df3e
000000c0: 1c09 d5bd fedb 563d 16da 0bbf 318d a53c
000000d0: b59e 92bd c240 2fbe 069a 1abe 9f2a 6bbe
000000e0: e3e2 3abf e458 79be c1ae c5be ec98 74bd
000000f0: 3921 883b b6fc be3e 46b0 d5be aea5 b03d
00000100: 0ac0 11bf ae46 e2be 85f3 7bbe 2de6 b93e
00000110: 0f6e 07bf 85d4 86be 21eb 74bb 3e19 553d
00000120: e83f b8be d75e e8bd f0a4 26bf 7c7b 4d3e
00000130: 4c1c 9c3d 499e d7be 3182 923e 1d2c 8ebe
00000140: 8f11 2fbe f615 0c3e 53e3 07bf 9f26 4ebd
00000150: bb54 5fbe 3417 b23e 66a5 d13e 5f18 f43e
00000160: 640b 58be c7da c93d 278a c5be d3ab 04bf
00000170: 5d04 38be 2312 11be feec 3b3e 1306 f3bd
00000180: 5397 6d3c af48 523e 3b5f 0bbe 0bd9 dc3e

bias_ih_l0 f4 [20]
0.19794956 0.50864047 0.058982536 0.5364704 0.123502865 -0.39906913 -0.19805145 0.4030419
-0.052709263 -0.3185895 0.25565588 0.08270996 0.3060711 -0.16456161 -0.07011526 0.16117218
0.1623784 0.5968326 0.68071586 0.69487613
00000000: 4ab3 4a3e 4336 023f ac97 713d 2056 093f
00000010: 12ef fc3d ca52 ccbe 00ce 4abe 825b ce3e
00000020: abe5 57bd 2a1e a3be 54e5 823e d763 a93d
00000030: 5ab5 9c3e d782 28be 9798 8fbd 520a 253e
00000040: 8646 263e 05ca 183f 6543 2e3f 67e3 313f

bias_hh_l0 f4 [20]
0.31626818 0.18671884 0.78842896 0.6932561 0.710894 -0.18155387 -0.20912634 0.2130103
-0.03727875 0.28913414 0.39705926 0.11131288 0.16965199 0.3454849 -0.26532707 0.35934255
0.34723353 0.6376389 0.37495577 0.36885095
00000000: e7ed a13e 3933 3f3e 7bd6 493f 3b79 313f
00000010: 26fd 353f 42e9 39be 3725 56be 5f1f 5a3e
00000020: 9ab1 18bd 6409 943e 5a4b cb3e 02f8 e33d
00000030: 40b9 2d3e 66e3 b03e f3d8 87be bffb b73e
00000040: 98c8 b13e 4e3c 233f 34fa bf3e 08da bc3e

weight_ih_l0 f4 [512, 5]
0.041760538 -0.05730733 0.14347777 -0.08221759 0.14479631 0.112474285 0.07654403 -0.10823924
-0.025206031 -0.133684 -0.44225058 -0.093329385 -0.06969068 -0.3108424 -0.14937784 -0.17468454
-0.040055756 0.02120902 -0.20780939 -0.044499446 -0.40372142 -0.15386896 0.1445313 0.01350333
0.096002445 0.09780679 0.003676758 0.2405109 0.11849796 0.29791787 -0.11257943 -0.04350241
-0.1315407 -0.22554007 -0.15137182 -0.0017049913 -0.04835489 -0.045964047 -0.054566406 0.038816363
0.11805833 0.078897394 -0.08935034 -0.08351391 -0.1841746 0.0861285 0.01860203 -0.1429483
0.04361219 -0.20218518 -0.17789085 0.10917965 -0.071218334 0.24489218 -0.17684065 -0.16509347
0.094066195 -0.08380305 -0.012903455 0.05835754 -0.20175235 0.17876352 -0.22469905 -0.19548446
-0.13447568 -0.2568524 -0.2646833 0.02128436 -0.2179982 0.09322293 0.24639833 0.2614447
0.19004369 0.20202155 0.0635575 0.20734178 0.09329038 0.31980512 -0.25336257 0.40182152
-0.16563714 -0.33218744 0.24300893 -0.2321045 0.255695 -0.2494166 -0.06850358 0.033783365
-0.28212708 -0.022287577 -0.08599603 -0.08274513 -0.24569666 0.29297587 -0.36450717 -0.033444777
-0.03488748 0.07345478 -0.17895418 0.03943961 0.009241731 -0.1319391 -0.07586634 -0.17098047
-0.059420723 -0.12686276 -0.06605944 0.16657247 -0.10810137 0.29692107 0.17798476 0.09864801
0.09755277 0.07969767 0.13760522 -0.17381246 -0.2049541 0.092591494 -0.14216827 0.05137153
0.0417459 0.22697999 -0.21989429 -0.0071391584 -0.21734692 0.09343128 0.035112746 -0.14150362
-0.036754455 -0.12733836 -0.13766041 -0.15759948 -0.008085258 -0.07140509 0.08383031 0.042169392
-0.04181951 0.14689249 -0.15896343 0.07279842 -0.09514494 0.06643094 -0.35428604 0.13004462
-0.38892466 -0.23556863 -0.36716855 -0.40318924 0.033017125 -0.15902968 -0.16701193 -0.03623111
-0.141556 -0.13532305 0.014284104 -0.00077613845 -0.051076006 0.20568316 -0.09845379 0.067823716
-0.21187793 -0.19123894 -0.14549316 0.04352293 -0.009407486 -0.42194772 0.11349961 -0.037164267
-0.1412624 0.047851704 0.2795372 0.019131718 0.2016246 0.13690947 0.0424151 -0.14790681
-0.10018483 -0.195427 -0.1534325 -0.37021843 -0.11356459 -0.17696072 -0.013437577 -0.1428416
-0.07257116 -0.13830993 -0.35864878 0.024690758 -0.19880657 0.06983297 -0.2846855 -0.1666783
-0.0015472275 -0.23714307 -0.0524634 0.16821861 0.16534516 0.09339417 -0.039907683 0.15713395
-0.034672752 -0.26785612 0.09913954 -0.19134596 0.060109783 -0.10652099 -0.017159848 0.1811168
0.10800913 0.10689621 0.23062949 0.00907153 0.08740622 -0.101284504 0.19647047 0.10249147
-0.050425876 0.28979337 0.0821294 0.28221247 0.045997668 0.1830192 0.11268607 0.19770554
0.06964141 -0.25252795 -0.13787778 -0.18372422 -0.14566126 -0.050836254 -0.34195983 -0.17711209
-0.09881159 -0.24904709 -0.0548792 -0.28852537 -0.2314835 0.19048116 -0.19351467 0.15660247
0.22443414 -0.03942071 0.033108488 0.07962255 -0.046088684 -0.1519142 -0.06203864 -0.015271439
-0.04778414 -0.019575158 -0.16386513 -0.2613122 0.041684084 -0.20569304 0.16244406 -0.057923228
00000000: 190d 2b3d 17bb 6abd d6eb 123e b261 a8bd
00000010: 7c45 143e eb58 e63d 1ec3 9c3d 89ac ddbd
00000020: e17c cebc 75e4 08be ab6e e2be 7a23 bfbd
00000030: fdb9 8ebd bc26 9fbe 81f6 18be 81e0 32be
00000040: 8111 24bd 8abe ad3c fccb 54be 0d45 36bd
00000050: 93b4 cebe d38f 1dbe 0300 143e 123d 5d3c
00000060: ee9c c43d ed4e c83d c3f5 703b 7d48 763e
00000070: 0faf f23d b188 983e 0b90 e6bd 952f 32bd
00000080: 9bb2 06be faf3 66be 3701 1bbe 047a dfba
00000090: c70f 46bd cc44 3cbd 0681 5fbd e8fd 1e3d
000000a0: 91c8 f13d f594 a13d 50fd b6bd 5709 abbd
000000b0: 4498 3cbe 2464 b03d 4963 983c 0a61 12be
000000c0: b2a2 323d a209 4fbe 0529 36be 9599 df3d
000000d0: ebda 91bd 04c5 7a3e b715 35be 430e 29be
000000e0: c7a5 c03d efa0 abbd 0369 53bc 5108 6f3d
000000f0: 2b98 4ebe c90d 373e 8217 66be 142d 48be
00000100: feb3 09be 2882 83be 9284 87be 8a5c ae3c
00000110: ec3a 5fbe aaeb be3d d84f 7c3e 14dc 853e
00000120: d09a 423e bdde 4e3e 6f2a 823d 6751 543e
00000130: 070f bf3d 7fbd a33e bdb8 81be 8dbb cd3e
00000140: c89c 29be 7914 aabe 55d7 783e cdac 6dbe
00000150: 74ea 823e 1167 7fbe 9b4b 8cbd 6d60 0a3d
00000160: f672 90be 7094 b6bc b01e b0bd 4776 a9bd
00000170: e897 7bbe ef00 963e afa0 babe 64fd 08bd
00000180: 2de6 0ebd 766f 963d c43f 37be 6e8b 213d
00000190: a16a 173c 0b1b 07be d05f 9bbd 8115 2fbe
000001a0: 2563 73bd 50e8 01be 2c4a 87bd f991 2a3e
000001b0: 4064 ddbd 0a06 983e a341 363e f807 ca3d
000001c0: bfc9 c73d 8838 a33d 62e8 0c3e e5fb 31be
000001d0: 7ddf 51be 9ca0 bd3d 8f94 11be f46a 523d
000001e0: c0fd 2a3d 716d 683e f82b 61be 9aef e9bb
000001f0: 3190 5ebe e658 bf3d 62d2 0f3d 53e6 10be
00000200: d78b 16bd fd64 02be daf6 0cbe c261 21be
00000210: 0878 04bc d53c 92bd 3aaf ab3d d0b9 2c3d
00000220: ef4a 2bbd fc6a 163e 4fc7 22be 5717 953d
00000230: 5adb c2bd f20c 883d fb64 b5be 6b2a 053e
00000240: 2221 c7be e738 71be 84fd bbbe d26e cebe
00000250: f73c 073d add8 22be 2d05 2bbe 1367 14bd
00000260: 0ef4 10be 2092 0abe e007 6a3c c575 4bba
00000270: 1335 51bd 9b9e 523e 24a2 c9bd 29e7 8a3d
00000280: 87f6 58be 24d4 43be 29fc 14be 1a45 323d
00000290: db21 1abc 8809 d8be 7c72 e83d 8f39 18bd
000002a0: 17a7 10be 2600 443d 801f 8f3e 1fba 9c3c
000002b0: ae76 4e3e ff31 0c3e 75bb 2d3d e274 17be
000002c0: b42d cdbd 041e 48be 691d 1dbe 458d bdbe
000002d0: 8d94 e8bd 3135 35be 4829 5cbc 1245 12be
000002e0: 30a0 94bd 1ea1 0dbe d0a0 b7be 4644 ca3c
000002f0: f393 4bbe 9704 8f3d 4cc2 91be b7ad 2abe
00000300: 57cc caba a2d5 72be dde3 56bd 8041 2c3e
00000310: 3e50 293e 7145 bf3d 3d76 23bd b9e7 203e
00000320: 0405 0ebd 7024 89be ac09 cb3d 32f0 43be
00000330: ad35 763d ad27 dabd cf92 8cbc af76 393e
00000340: e433 dd3d 66ec da3d 232a 6c3e c1a0 143c
00000350: 0802 b33d 406e cfbd 8e2f 493e 0ce7 d13d
00000360: 5d8b 4ebd cc5f 943e 7533 a83d 277e 903e
00000370: 0d68 3c3d 6369 3b3e f4c7 e63d 5273 4a3e
00000380: 28a0 8e3d 584b 81be d52f 0dbe 3422 3cbe
00000390: 3a28 15be ad39 50bd 5c15 afbe df5c 35be
000003a0: bb5d cabd 3306 7fbe 03c9 60bd 99b9 93be
000003b0: 030a 6dbe 7e0d 433e b628 46be 665c 203e
000003c0: 10d2 653e 9c77 21bd c49c 073d 2611 a33d
000003d0: 7dc7 3cbd 658f 1bbe 3b1c 7ebd 0f35 7abc
000003e0: 4db9 43bd 155c a0bc 43cc 27be b6ca 85be
000003f0: eebc 2a3d 32a1 52be bc57 263e e840 6dbd

weight_hh_l0 f4 [512, 128]
-0.17950982 -0.023824777 0.071172334 0.039121788 -0.041873425 0.097697005 0.046126988 0.00093362626
0.07929399 0.027015455 -0.01175374 -0.036683336 0.04431891 -0.085115924 0.03908297 -0.018372506
0.0010567222 -0.15602739 -0.06545527 0.011811253 0.026684256 0.12741186 -0.01985547 -0.006480975
-0.01625718 -0.112272084 0.0047828658 -0.13885961 -0.04086063 -0.060391344 0.07175057 0.09753213
-0.032133397 0.1685738 0.051189702 -0.08594485 -0.015065911 0.033610724 0.006608913 -0.05980818
-0.10606236 -0.26085964 -0.08000891 0.03496671 -0.14474495 -0.037515573 0.0014797971 -0.1113945
-0.17352663 -0.2556746 -0.035431612 0.052957024 -0.024108065 -0.054782726 0.111455396 0.038249113
0.017344454 -0.12925582 0.05541829 0.12034915 -0.05838185 -0.016257051 0.16004618 0.079838164
0.044680297 -0.08284799 -0.065160275 -0.15090396 0.042659346 -0.0304461 -0.0017534806 -0.31797323
0.020383712 0.017216101 0.07044887 -0.02136345 -0.012580916 0.14894511 -0.03739957 0.017493816
0.012069799 -0.0571514 -0.02254137 0.005818617 0.045317233 -0.11472375 -0.04544743 0.0029334466
0.01916197 0.20195696 0.041191045 0.049025413 0.06587225 0.04452588 0.10217249 0.06728933
-0.058732636 0.015380372 0.1178212 0.010421167 -0.016200116 -0.107563436 0.06504031 -0.061535362
-0.025009425 -0.029081594 -0.07375116 -0.050660387 -0.112376325 0.031636648 -0.05554023 -0.13656531
0.11802811 0.02364063 0.0072753904 0.05867954 0.04092747 0.0014651328 -0.3218402 -0.07267381
0.08814371 -0.04663232 0.12704438 -0.08251116 0.06795505 -0.018525403 -0.06732987 0.027835615
-0.17767408 -0.10861388 0.09039787 -0.057198443 -0.13021688 -0.04430305 0.079797685 0.16726369
-0.022109425 0.04103443 0.108412795 -0.04234533 -0.124913774 0.02903694 0.05319683 0.040773306
0.1822301 0.11743701 -0.030028058 -0.034200426 -0.07418604 -0.17381917 -0.04606891 -0.063413575
0.0102841975 -0.00018235859 -0.022241693 -0.13504066 0.06649375 -0.088474594 0.20446794 -0.10118735
0.06933069 -0.023532609 -0.071016386 -0.09610894 0.018827014 0.041303024 0.00016271252 0.055795494
0.0055581667 -0.08290022 0.044712663 0.113355644 0.084980115 -0.011112036 -0.1470852 0.017757202
-0.048663344 -0.022632571 -0.09054474 -0.11236714 -0.15064047 -0.01299005 -0.028478615 0.0013282466
-0.0316764 -0.009925175 0.05679443 -0.15421641 0.08456842 0.03630723 -0.06514864 0.18891266
0.13554876 -0.15501969 0.07327936 -0.24684969 -0.1729313 0.111982904 -0.03750449 -0.021302214
0.052094795 -0.020650253 -0.0101126535 0.029900067 -0.010340795 -0.07602217 -0.012296943 0.07456232
-0.029000364 -0.018766716 0.01767122 0.11365814 0.05742827 0.038412515 -0.0563795 -0.005985939
0.046703182 0.14167684 -0.07928193 0.06474058 0.17547584 0.119502425 0.0106464485 -0.03056055
-0.022218117 -0.14372484 -0.052562263 -0.1273013 -0.025888672 0.06588185 0.01849385 0.1537859
-0.06476334 -0.0037829115 -0.03296765 0.03842545 -0.0780031 -0.026298303 0.06855429 -0.07226695
-0.026349958 0.00825017 -0.13418905 -0.08271641 0.12089958 -0.03145804 -0.096964315 0.14518705
0.013112391 -0.061801195 -0.20677699 0.024347126 -0.1058555 -0.026789967 -0.048072785 0.07774141
00000000: 6cd1 37be 2e2c c3bc cdc2 913d 2b3e 203d
00000010: 7883 2bbd 5e15 c83d a7ef 3c3d 99be 743a
00000020: e364 a23d 844f dd3c c292 40bc 4441 16bd
00000030: bf87 353d 4251 aebd 7715 203d f081 96bc
00000040: b781 8a3a a5c5 1fbe 6a0d 86bd fc83 413c
00000050: f198 da3c 4178 023e f0a7 a2bc 5c5e d4bb
00000060: c72d 85bc e8ee e5bd 96b9 9c3b 3731 0ebe
00000070: 7a5d 27bd ea5c 77bd f6f1 923d edbe c73d
00000080: 4f9e 03bd 9c9e 2c3e 4bac 513d db03 b0bd
00000090: 03d7 76bc 66ab 093d 958f d83b 6cf9 74bd
000000a0: 3937 d9bd 658f 85be b6db a3bd 4139 0f3d
000000b0: 0538 14be eea9 19bd c0f5 c13a cd22 e4bd
000000c0: f7b0 31be c8e7 82be bd20 11bd 77e9 583d
000000d0: 477e c5bc da63 60bd ba42 e43d 1aab 1c3d
000000e0: f515 8e3c a35b 04be 4afe 623d 9d79 f63d
000000f0: cf21 6fbd 822d 85bc 25e3 233e 3182 a33d
00000100: b002 373d 35ac a9bd c072 85bd 9186 1abe
00000110: 91bb 2e3d 196a f9bc 0cd5 e5ba 63cd a2be
00000120: befb a63c c808 8d3c 7f47 903d 6702 afbc
00000130: 3020 4ebc 1185 183e 4b30 19bd 314f 8f3c
00000140: 68c0 453c 9617 6abd aea8 b8bc 19aa be3b
00000150: 909e 393d 49f4 eabd 1627 3abd 113f 403b
00000160: 90f9 9c3c cecd 4e3e f1b7 283d dfce 483d
00000170: 08e8 863d c560 363d cf3f d13d fdce 893d
00000180: a291 70bd f5fd 7b3c 3e4c f13d 8bbd 2a3c
00000190: 1bb6 84bc 384a dcbd db33 853d 810c 7cbd
000001a0: 91e0 ccbc 863c eebc d90a 97bd 4481 4fbd
000001b0: 8f25 e6bd 6e95 013d 277e 63bd c7d7 0bbe
000001c0: b9b8 f13d ffa9 c13c 6666 ee3b f559 703d
000001d0: 90a3 273d b309 c03a 3dc8 a4be 02d6 94bd
000001e0: b084 b43d 8801 3fbd ec17 023e 9cfb a8bd
000001f0: 042c 8b3d 96c2 97bc 3ee4 89bd 8407 e43c
00000200: 32f0 35be f470 debd 8522 b93d ea48 6abd
00000210: 9357 05be 1d77 35bd f86c a33d 2c47 2b3e
00000220: d31e b5bc b813 283d 8707 de3d 4c72 2dbd
00000230: cbd2 ffbd e0de ed3c ebe4 593d e901 273d
00000240: 879a 3a3e d182 f03d 67fd f5bc bf15 0cbd
00000250: daee 97bd a7fd 31be c1b2 3cbd fade 81bd
00000260: 0d7f 283c 8337 3fb9 3634 b6bc 1948 0abe
00000270: e02d 883d 2b32 b5bd 0b60 513e 503b cfbd
00000280: 40fd 8d3d 75c7 c0bc 0a71 91bd c4d4 c4bd
00000290: 1c3b 9a3c 5c2d 293d cf9d 2a39 d189 643d
000002a0: 4821 b63b 97c7 a9bd a024 373d 0127 e83d
000002b0: 0e0a ae3d 420f 36bc 819d 16be 8d77 913c
000002c0: 3753 47bd f167 b9bc 856f b9bd be20 e6bd
000002d0: 7f41 1abe 38d4 54bc fc4b e9bc 8f18 ae3a
000002e0: 1dbf 01bd 349d 22bc 47a1 683d e8ea 1dbe
000002f0: 3532 ad3d e4b6 143d a66c 85bd 5272 413e
00000300: 4bcd 0a3e 7bbd 1ebe 7d13 963d 2ac6 7cbe
00000310: e714 31be 4b57 e53d 4f9e 19bd fb81 aebc
00000320: 5a61 553d b82a a9bc 8baf 25bc fcf0 f43c
00000330: 706c 29bc 83b1 9bbd 1e79 49bc 21b4 983d
00000340: 2c92 edbc a8bc 99bc 3cc3 903c 99c5 e83d
00000350: e839 6b3d 7156 1d3d 31ee 66bd b225 c4bb
00000360: d64b 3f3d bc13 113e 915e a2bd b696 843d
00000370: f0af 333e b0bd f43d 716e 2e3c 1e5a fabc
00000380: c502 b6bc 9b2c 13be 874b 57bd 465b 02be
00000390: 7b14 d4bc 10ed 863d 6a80 973c 0d7a 1d3e
000003a0: a4a2 84bd b9ea 77bb 1609 07bd 0164 1d3d
000003b0: 17c0 9fbd 8a6f d7bc 3166 8c3d b200 94bd
000003c0: dedb d7bc b92b 073c db68 09be 3967 a9bd
000003d0: 339a f73d 25da 00bd 3a95 c6bd eaab 143e
000003e0: 5bd5 563c 4023 7dbd 59bd 53be a073 c73c
000003f0: c5ca d8bd a276 dbbc f8e7 44bd e336 9f3d
