outputs/2023-04-04/03-19-33/rve_model.pt (torch, 159902 bytes, 19 tensors)

weight_ih_l0 f4 [256, 2]
00000000: bf2c f63d 46a9 b5ba 5b86 883d 2e29 dcbc
00000010: 6b8f e7bd d6c9 cebd 0708 ec3c f2cc e8bd
00000020: ad40 c13d c01a 18be cd7b 053e 1477 723d
00000030: 6ef6 4e3e e0a0 ebbd 574d 363e 6677 443e
00000040: 7a20 303d f560 3b3c ec5c 013f a82e 473e
00000050: f20b 373e bd1e 213e fb37 df3b c781 43bd
00000060: 977d a2bc af0b f5bc 0c35 ff3e e2ed 0dbc
00000070: c078 9d3e 3d2b 383e 5947 843e 65fa 6f3e
00000080: fe86 3a3e 6c31 243c ab4a c93d 2296 aa3e
00000090: e9b1 833d 96da 4dbd d6b9 c83d b26d e6bd
000000a0: 5e74 20be 495b 17be 44cb d9bb 6604 8d3e
000000b0: 91ea fb3d d1f2 d63d 649d 553e c55a b83d
000000c0: 5d4e ee3d f2cb 4a3e d3c8 45be af19 83bd
000000d0: 796d 2f3e fed4 783e b3c2 32bd 3ffc 20be
000000e0: 062d 263e 3db6 cf3e 64c7 663d a849 983d
000000f0: b81c 0c3e 6a3d 013e b740 e53d f512 2e3e
00000100: 7263 213e 2581 a03e c32a 51bd ad57 82be
00000110: 04e4 1c3e 606d 58be 30bc 9cbe 6c4d 86be
00000120: 8246 3ebc b7b0 543f 992b 9c3d d97d 0e3f
00000130: fb8a 60bd d1dd 40bd 68d0 ee3d 757a 3e3d
00000140: 3601 093e 4a82 463d 638e c0bb 3a2e 083e
00000150: 7ff4 c7bd b439 3fbe 8b83 4e3e c68f 883e
00000160: cacc 7ebd 84c5 203e 2f19 073e 9f35 9abe
00000170: 2fe5 25be 2039 5fbe fadb b83e e9f9 24be
00000180: b957 893e 1c95 843e be3d 183f 7723 30be
00000190: 850f 773e 0714 8b3e b454 583e 6090 ffbd
000001a0: fd8c 563e 312f d0bd 609e 583e c89e 3d3e
000001b0: 7f1e 9d3d 8e5a 3abc eccf 57be d60b 30be
000001c0: 71db 61bd 2813 143e b2ea 893e b165 7b3e
000001d0: ffed 66bd 96ee 653e 8a40 f53d da6e d13e
000001e0: f045 dabc 8ae4 e53b 16e6 d2bd 245a abbe
000001f0: 2a95 f43e 9255 b83e 628e c5bd 205b 253e
00000200: 17e7 11be 11a8 22be a695 c93c 4737 763d
00000210: 0557 0ebd 320e 47be 0ec7 86bd 1e16 acbd
00000220: 240a 5abe a183 23bd b53d dbbd 1b71 3fbe
00000230: 504e 2ebc cb68 c1be 42f3 de3d 3e2b 8d3d
00000240: 679a 1cbd 771d 063e b552 653e 8779 8e3b
00000250: 6c9f 3c3e 0e3b 2d3e eab6 00be 32b8 0fbd
00000260: c6bf f93c 20e0 90bd 0e20 0bbe 5919 83bd
00000270: fdcd aabd 8fbf 323e a028 7abd ece1 1dbd
00000280: dc6b b13d e583 27bd e0b1 e9bd c8f8 11bd
00000290: d08d 8fbd baae cf3d 2a80 af3d 9d62 b1bd
000002a0: 8652 26bb 0a61 803d 414e 023e ff4e 8d3d
000002b0: a9ff 9f3d de7d 31bd eccc b93c 8f9b 3e3d
000002c0: 29ed d63c ea2a debd ab18 39be ff2d 723d
000002d0: 2359 413d 0bd1 2c3d 4801 5d3c f74d 21be
000002e0: 6184 38be e6b2 09be e0ba 7f3d b23d ea3d
000002f0: 772f 5bbe e0c2 123d 369d e03d 6da1 1fbd
00000300: e51e b4bd 99f0 f9bb 777c 36bd 8337 2dbe
00000310: f378 1bbe d4e2 1bbe 7209 8abe a58f c5be
00000320: f51e 2dbe 760e 2e3d 5a5a f8ba 22e8 0f3e
00000330: ad82 32be 378f e8bd aac8 a23d 92f4 9b3d
00000340: 2271 ad3c f8e8 16be 0b55 f83d fe0c dd3d
00000350: d902 06be 1827 51be 9c1f 68bc e36f f73d
00000360: 0ebb b8bd b19e 45be 8868 80be a28a 6dbe
00000370: 217c 20be 58df 403e f079 afbd 8b4c ab3c
00000380: 8293 e13d 2e7d 18bc 2a8f 543d fd0b a2bd
00000390: 8d3f dcbd 5876 ba3d 687e 453e c8f6 533b
000003a0: d4ab 9abd d05e 48be 70ae e63d 35f5 13bd
000003b0: 30e9 4c3d 3fba eb3d 8892 80bd 4749 51be
000003c0: aefc 62be b9a7 dd3c 2dbf 383d 8289 213e
000003d0: e8b1 6ebe a4fe c5bd b042 0dbd 60c7 a3bd
000003e0: 1f86 3ebd 209a 34bd db8f 1fbd 28fe 5cbe
000003f0: b03d 30bd 5a15 cfbd dba9 253d c2eb a23d
0.120202534 -0.0013859652 0.06666251 -0.026875105 -0.11306652 -0.10097091 0.028812421 -0.11367215
0.09436164 -0.14853954 0.13035508 0.059195593 0.20211193 -0.11505294 0.1780294 0.19186172
0.042999722 0.011436691 0.5053241 0.19451392 0.1787565 0.15734382 0.0068120933 -0.047731187
-0.019835277 -0.029912798 0.4984516 -0.008662673 0.30756187 0.17985244 0.25835684 0.23435362
0.18215558 0.010021549 0.09828695 0.33317667 0.06430418 -0.050257288 0.098010704 -0.112513915
-0.1566939 -0.14780916 -0.0066465456 0.27542418 0.12300599 0.10495532 0.20860821 0.09001688
0.1163604 0.19804361 -0.1931489 -0.06401383 0.17131604 0.243 -0.04364271 -0.15721224
0.16228113 0.40568724 0.056342497 0.07435924 0.1368283 0.12621084 0.11193984 0.16999419
0.15760592 0.3134853 -0.05106617 -0.25457516 0.15321356 -0.21135473 -0.30612326 -0.26230943
-0.01161349 0.83082145 0.07625503 0.5566078 -0.054820042 -0.04708654 0.11660844 0.046503503
0.13379368 0.048464097 -0.005876349 0.13298884 -0.09763431 -0.18674356 0.20167367 0.2667219
-0.06220702 0.15700346 0.131932 -0.30119035 -0.16200708 -0.21799135 0.3610533 -0.16110958
0.2682474 0.2589501 0.5946921 -0.17201029 0.24127014 0.27163717 0.21126062 -0.12478709
0.2095222 -0.10165251 0.21154165 0.18517601 0.07671832 -0.011374129 -0.2107541 -0.17192015
-0.055140916 0.14460433 0.2693687 0.24550511 -0.056379315 0.22454295 0.119752005 0.40904886
-0.026644677 0.0070157694 -0.10297792 -0.3346721 0.47770053 0.36002785 -0.09646298 0.16148043
-0.1424831 -0.15884425 0.02460749 0.06011131 -0.034750957 -0.19439009 -0.065809354 -0.08402656
-0.21292931 -0.039920453 -0.10705129 -0.1869549 -0.010638788 -0.37775263 0.108862415 0.068930134
-0.038233187 0.13097177 0.22394831 0.0043479833 0.1842019 0.16917059 -0.12569776 -0.03508777
0.030486953 -0.070739985 -0.13586447 -0.06401319 -0.083400704 0.17455886 -0.0610739 -0.038545534
0.08663151 -0.04089727 -0.1141088 -0.035637647 -0.070094705 0.10140748 0.08569367 -0.08661387
-0.0025378778 0.06268509 0.12725164 0.06899833 0.07812435 -0.043332927 0.022680722 0.04653507
0.026236134 -0.10848029 -0.18075816 0.059125897 0.047204148 0.042191546 0.013489075 -0.15752397
-0.18019249 -0.1344715 0.062434077 0.11437549 -0.21404825 0.03583038 0.109674856 -0.038972307
-0.08794955 -0.0076275584 -0.044552293 -0.16915707 -0.15182857 -0.15223247 -0.2696033 -0.38586155
-0.1690634 0.04249426 -0.0018947825 0.14053395 -0.17432661 -0.11355441 0.0794843 0.076150075
0.02117211 -0.14737308 0.12125596 0.10793494 -0.13087024 -0.2042507 -0.0141676925 0.120818876
-0.09020053 -0.19298817 -0.2507975 -0.23197415 -0.15672351 0.18835199 -0.085681796 0.020910522
0.11014463 -0.009307189 0.051894344 -0.07912443 -0.10754309 0.091046035 0.19286501 0.0032343138
-0.07552305 -0.19567418 0.1126374 -0.03612252 0.050027072 0.11510133 -0.062779486 -0.2043811
-0.22166702 0.027057515 0.045104194 0.15775111 -0.23310053 -0.096677095 -0.034487426 -0.07997012
-0.046514627 -0.044092298 -0.03895555 -0.21581328 -0.04302758 -0.10111494 0.04044519 0.079551235

weight_hh_l0 f4 [256, 64]
00000000: d413 dbbc 0d8d 22be 3ed3 4abd 4aea a73d
00000010: 967e 783d 35e5 193e 9e4b 423e 35b9 42bd
00000020: 8e33 833d 6037 e73d e0d6 af3d f12b 8ebd
00000030: b05f 253d 9b23 083c 2644 093e b254 19bc
00000040: 383d 75bd bafd c13d 42ba 293e da47 f53d
00000050: 3b30 debc d568 c83c f8a2 90bd 4fee c4bc
00000060: 9d23 98bd 4d04 11bd aa29 a2bd 769f efbd
00000070: 1ba3 9c3d 5d99 90bd 5b94 6b3e 281b c13d
00000080: 9497 59be 701f 1cbe 436c 063e bb6f d43c
00000090: d40d 46be 3c7d ccbc f989 d7bc 1513 ac3d
000000a0: b4b6 99bd d672 41bd 257a 5d3d e371 6d3e
000000b0: dd3c 143e 3a44 bf3d 1bcb 8abd 3d79 363d
000000c0: c863 d2bc 12b6 d2bd 4ed1 1ebe c7e2 75bd
000000d0: bd48 5cbe 5cb7 37bb 1fce 0a3d c09e b5bc
000000e0: ced2 fbbc 7a1b 0cbd df44 203e 6cda 513e
000000f0: 8044 233d 6aae 0abe 076d 94bd d44b f1bd
00000100: 7bd0 a1bc 3e84 72be a625 73be 650f 4bbe
00000110: d0dc ccbc 8ece 25bb c7cc e6be ba60 21bd
00000120: a041 49be fe52 803e 98bd 9a3e 8c09 36be
00000130: c8bd 0e3e b3c5 94be fea7 033e ce20 6b3e
00000140: 637f 43be c59d a0be 03af a03d 74c9 02be
00000150: 5d47 8cbe ff45 9bbd 73f7 9a3d bcc4 2a3d
00000160: 6998 313e c85a c13d 8447 633d 98b7 883e
00000170: 4314 b43d b1f1 d0bd 268c 3bbd 9085 88be
00000180: 1324 933e 9080 ddba 26eb 36be a3ff d93e
00000190: 51f8 b0bd 3979 07be 9010 393e de0c a93d
000001a0: 08f1 2abe 4466 263d f300 40be 49fe 9f3b
000001b0: a69a b3be 9da8 e1be 065d 08bd e786 003e
000001c0: 2114 05be d41c 2cbe da9a 84be 1259 d73c
000001d0: 64b0 ed3e f655 5cbd 6c9c aebe e70a a4bc
000001e0: baf2 613e dce7 01bd fc93 d93c 0a37 05be
000001f0: e3cf a33d 33b6 41be 09b2 e2bd d94b ddbd
00000200: b02c 193e 5930 053d 8a86 dd3d 807b 273e
00000210: 3d6c a2be f825 c2bd 4176 9b3d 766b 64bd
00000220: 1d4d eeb9 e1c7 ad3c 1b53 1abe dead 50bd
00000230: 7c60 38be 11bb ae3d 57b3 793c 6418 2abd
00000240: 86ba 663e 9a2e d53d e670 84be 3fcf 643d
00000250: 61bc 653d f27b 76bd 014d b5bd 0555 5ebe
00000260: 1374 bf3d e550 cebd 2476 593d eac9 b4bd
00000270: 399c bd3d 13ae 6dbd baf6 3f3d 97ad 3cbd
00000280: 325c fcbd 65fb 543e 6f1e 58be b4c1 c03d
00000290: 1ab0 833d 5c62 8a3e 7b73 193d bc89 b4bd
000002a0: 1f17 7d3d d2b6 8bbd 1d80 143e 5ea9 233d
000002b0: e0bb ab3c 727e 143e e934 813c 9a3c 8c3c
000002c0: 878c 913c fb3f 3b3e 0ecd 8ebd 11bc 5f3e
000002d0: 76c0 62bd 6057 503c 834c f63c 39ba db3c
000002e0: 397e 45be c1e9 7d3d ddc1 023e 36ff 0c3e
000002f0: 2f3d cbbe 14d4 5ebd 14bf eabd 3d2e cabd
00000300: 0580 d03d 9232 883d 1a23 01be ceab dcbd
00000310: 6344 9ebd 1ef7 0bbe fbd1 e93c ab18 f9bc
00000320: 505d be3d 6d1f 883d ab4a aabc 869c 0cbd
00000330: b01e 893d 4b5a 223e 3ff9 b6bd ed41 8b3d
00000340: 218d 8cbd 6eaf 18be b8f7 40bb 7e3d bc3d
00000350: 9250 8d3c 4732 233e 15da be3d f4d3 71bd
00000360: 2874 043e a0a0 07bd 7237 90bd 4062 0a3c
00000370: a42c f5bc 8c72 d03c 1154 003c ae4c 19be
00000380: 4c13 94bb 45ea 503e 71d3 9ebc a0ec 4c3e
00000390: b6bf 3e3e 012f ae3d 0bc4 fdbc eee0 2abc
000003a0: 7089 60bd d186 35bd 57b1 c0bc bcd1 333e
000003b0: 5739 f2bd bbeb 2ebe bc6a 14bd b0be 563c
000003c0: f472 98bb 6d95 4fbd 372c f03d e573 9c3d
000003d0: 379b 233c 943b 8e3d c1d1 26be 5145 be3c
000003e0: ea2a 0b3d f5be ed3c 633a 8a3d 1a2d fcbd
000003f0: a05c 47bd 78d4 c5be 2b01 d93d 212e 9dbc
-0.026742853 -0.15874119 -0.049517862 0.08198984 0.060667597 0.15028842 0.18974158 -0.04753991
0.06406318 0.11289859 0.08585906 -0.06941975 0.040374458 0.00830927 0.13404903 -0.009358572
-0.059872836 0.094722226 0.16574958 0.11976595 -0.027122607 0.02446405 -0.07062334 -0.024039416
-0.07428668 -0.035404492 -0.07918103 -0.11700337 0.076482974 -0.07060502 0.23005812 0.09429008
-0.21249229 -0.15246367 0.13127236 0.025932183 -0.19341213 -0.02496206 -0.026310908 0.08402077
-0.07505551 -0.047228657 0.054071564 0.23187976 0.14476342 0.09339185 -0.067770205 0.044549216
-0.025682345 -0.102886334 -0.15509531 -0.060030725 -0.21512122 -0.0028032875 0.03388798 -0.022170424
-0.030740168 -0.03420589 0.15651272 0.20493478 0.03986025 -0.13543096 -0.07247358 -0.11782041
-0.019752732 -0.23683259 -0.2374483 -0.19830091 -0.025007635 -0.0025300118 -0.45078108 -0.039398886
-0.1965394 0.25063318 0.30222774 -0.1777708 0.13939583 -0.29057083 0.12857053 0.22961733
-0.19091563 -0.3137037 0.07845881 -0.12772161 -0.27398196 -0.0758171 0.075667284 0.041691527
0.17343296 0.09441143 0.055488124 0.2670257 0.08792927 -0.10202349 -0.045787953 -0.266644
0.2873846 -0.0016899277 -0.1786314 0.42577848 -0.086411126 -0.13229837 0.18072724 0.08254407
-0.16693509 0.04062487 -0.18750362 0.004882608 -0.35078925 -0.44073954 -0.03329184 0.12551461
-0.1299596 -0.16807872 -0.25899392 0.02628759 0.46423638 -0.053792916 -0.34103715 -0.02002473
0.22065249 -0.03171526 0.026559822 -0.13009277 0.079986356 -0.1891716 -0.11069114 -0.108054824
0.14958453 0.03251681 0.10816677 0.16355705 -0.31723204 -0.09479898 0.075909145 -0.055766545
-0.0004545235 0.021213474 -0.15070765 -0.050947063 -0.18005556 0.08531774 0.015240512 -0.041527167
0.2253209 0.10409279 -0.25867385 0.055861708 0.056087855 -0.060176797 -0.08852578 -0.2171212
0.09348311 -0.10074023 0.053091183 -0.088275746 0.09258313 -0.05802734 0.046866156 -0.046063986
-0.12322272 0.20799024 -0.2110536 0.09411946 0.06430073 0.27028167 0.037463646 -0.08815333
0.061789628 -0.068219796 0.14501996 0.039956443 0.02096361 0.1450136 0.0157723 0.01711874
0.017767204 0.18286125 -0.06972705 0.21849085 -0.055359326 0.012716144 0.03006578 0.026822196
-0.19286431 0.061990503 0.12769265 0.1376923 -0.39695117 -0.054401472 -0.114622265 -0.098721005
0.10180668 0.066502705 -0.12611046 -0.10774957 -0.077278875 -0.13668486 0.02854251 -0.03040727
0.09295142 0.06646619 -0.020787558 -0.03432896 0.06695306 0.15854757 -0.08934259 0.06799684
-0.06862856 -0.14910671 -0.0029444527 0.09191416 0.017250333 0.15937148 0.093189396 -0.059040025
0.12934935 -0.03311217 -0.07041825 0.008446276 -0.029928513 0.025445245 0.007832543 -0.14970657
-0.004518902 0.20401867 -0.019387932 0.2001214 0.1862782 0.08505059 -0.03097727 -0.010429604
-0.05481857 -0.044318024 -0.023522062 0.17560476 -0.11827343 -0.17082112 -0.036234602 0.013106987
-0.0046523754 -0.050679613 0.11727183 0.07639293 0.009985737 0.069449574 -0.16290952 0.023226412
0.033976473 0.02902172 0.06749418 -0.1231329 -0.04867232 -0.38638663 0.10595926 -0.019187035

bias_ih_l0 f4 [256]
00000000: 2bce d83d ccfb 043e fac0 833e 1456 3d3e
00000010: f67b 223f 577c e13d 40a7 d83d 0bee f03d
00000020: 94fc c83d 4fed ba3e ab41 af3e 8bdf 03bd
00000030: 280a fd3d 70d9 603f 1f8a af3e 3a39 593f
00000040: fa65 173e 59b8 893e 7cb9 0b3f 4762 9e3e
00000050: 0017 7c3e 207c 0c3e f8f8 713e e63d 273f
00000060: e5d3 dd3d 3c84 b9bc 5d30 de3c b79e cb3d
00000070: 4e99 433e 4fad 31be 823f e93e 0158 63bd
00000080: 6439 843e 3df4 113d 746f 673e 7ab5 a03e
00000090: cfb9 0f3f 99f2 843c 56ff 953d 3160 513e
000000a0: 38fc 113e d770 233d d478 98bd 44c3 fdbd
000000b0: d1af 913e 560e 0d3f 001b 933e 87b7 d53e
000000c0: 03d9 ce3b 5ed0 6c3f 9373 ce3e 568b eb3e
000000d0: f7be 18bc 2efb 013e 1d63 103d a581 e73d
000000e0: e3e3 b63e 3b34 0bbc 07ce 293d 8c70 a63e
000000f0: b11e 903e 0100 d03e a71a 4b3f 7801 c13d
00000100: 093c 783d 4628 ed3d 2f46 0cbd f5d2 fabd
00000110: eeae 4e3e 5215 433c 5fe2 a2bd 2f1e 033d
00000120: af5a 68bc 2c8f 833d df3c c43d 4453 0b3d
00000130: f7dc 433d a746 89bd 1fc6 54be e6a0 e43d
00000140: 1609 203e daa4 cfbd fceb 7c3d 617d 1d3e
00000150: a85d d33d 8f09 8abd 82f3 11be f69e 9a3d
00000160: a9cd b23d 4bae 8cbd ce9e dcbb e589 d4b9
00000170: 3a87 3dbb 1db7 81bd d730 213c c130 8c3d
00000180: cc4d 00be 0522 2f3d c3b9 56bd 0c00 19be
00000190: b705 fa3d f990 c13d 9d4a 053d 8b43 0bbd
000001a0: 82d8 be3c 7e71 403d 2ff0 05bd fe1d fe3a
000001b0: af95 bcbd 029a 82bd fa34 1d3d 6cbe cabd
000001c0: 4e2f aabc a5f5 633e 2e77 f63b eedd 993d
000001d0: 996f a0bd f226 83bd 320f 9a3d 7f0d 0b3d
000001e0: e071 76bd 4e16 8fbd dbbd e7bc dc83 403d
000001f0: 6029 3f3e fccc 9b3c 95c3 4b3e ab9d 44be
00000200: dd16 91be 8fb4 e8bd d737 bbbe 9143 a1be
00000210: 1c6d 7c3d 56a4 63ba 26f2 7bbe ccc9 5b3e
00000220: af08 0ebe c19e a73e 513b b03e 3736 c8bd
00000230: 81a1 063f b438 5bbe 83a1 9bbc 4980 413e
00000240: 7d4b 963c 7e12 18be e8d8 9cbc 7e74 39be
00000250: 191e 8ebe 34e6 c33d 17ee 2c3e 37d4 253e
00000260: 5615 583e 117f 903e c008 363e 7914 233e
00000270: f6f7 7cbd 97cf 5a3e 8d7a 4cbe b5eb 41be
00000280: 3904 753e 5174 5a3d 6777 a3bd fc71 4b3e
00000290: 4809 4cbc 2468 a9bd 0003 bd3d 256a b2bc
000002a0: c5af e8bd a851 9d3d 5ba6 2dbe e0de 623c
000002b0: 7071 aabe f1fa b7be e187 47be c571 873e
000002c0: a716 71be d424 a0be 4d76 e0bd 6bdf d2bc
000002d0: b07a 0c3e 9058 8fbd 4dd5 ffbd 55b1 abbd
000002e0: 3b74 063e 1c1a 5e3e 6d00 33be 5f1c a5bd
000002f0: 7413 713d 10d9 64bb de2a 87bb c85a 883d
00000300: 514a dc3d e1ec fe3d f3d7 b43e 0ec5 563d
00000310: 6ed5 653e 8fda d83d e638 ca3d 9cf3 823e
00000320: 0af8 bcbd cd82 773e 23d1 ea3d 006e 3a3e
00000330: aea5 2a3e 9795 663f a1bc 1d3e 13a1 513e
00000340: a1c6 3bbd 174b 1e3d 7d14 673e 61dc 8f3e
00000350: 2fa7 253d daa6 fa3d 261c 0f3e e2d7 e73e
00000360: b056 0e3d 6c5f ff3c 1d68 c1bd 2906 003e
00000370: 62f8 733e ff28 873d 4c8d 7a3e 7c38 123e
00000380: 7333 cb3e 3b93 173d dccc 5a3e a650 8a3e
00000390: cc76 023f 80c1 50bb fac0 963d 3f06 053e
000003a0: c2ab 0c3e 3b04 e43c 0f4e 1f3e edd4 b73c
000003b0: b804 133f 3739 ea3e 4899 073e 4089 d73d
000003c0: b521 6d3d ce4d 7c3e 8809 a43e c5b1 813e
000003d0: 9f29 773e 9aee edbc 6391 e93c d531 843d
000003e0: ec1b a13e a059 e1bd 7a75 2c3e d601 863e
000003f0: 55f9 873e 16db 3e3e 6b41 4f3f ce2e 1ebd
0.105861984 0.12986678 0.25733167 0.18489867 0.634704 0.11010044 0.105787754 0.11764153
0.098138005 0.36509177 0.34229788 -0.03219561 0.12355453 0.87831783 0.34285066 0.84852946
0.14784995 0.2689846 0.545799 0.30934355 0.24618149 0.13719225 0.2363013 0.65328825
0.10831431 -0.022646062 0.02712267 0.09942382 0.1910145 -0.17351268 0.45556265 -0.05550385
0.25825036 0.035633314 0.2260111 0.31388456 0.56142896 0.01622896 0.07324092 0.2044685
0.1425637 0.039902534 -0.07444921 -0.123907596 0.2845445 0.551 0.28731537 0.41741583
0.006312491 0.92505443 0.4032255 0.46004742 -0.009322873 0.12693474 0.03525077 0.113040246
0.3572074 -0.008496339 0.04145625 0.3250774 0.28148416 0.40625003 0.79337543 0.09424108
0.06060413 0.11579947 -0.03424662 -0.12247268 0.20183918 0.011906939 -0.07953333 0.032011207
-0.014181777 0.06423792 0.09581923 0.034014955 0.04781815 -0.06702929 -0.20778702 0.111635014
0.15628466 -0.10138865 0.06174849 0.1537986 0.10320598 -0.067401044 -0.14253047 0.07549851
0.08730633 -0.06869181 -0.006732798 -0.0004053853 -0.0028919713 -0.06333754 0.0098383045 0.068452366
-0.12529677 0.042757053 -0.05242325 -0.14941424 0.12208121 0.094514795 0.03254186 -0.03399996
0.023296598 0.046983235 -0.03269976 0.00193876 -0.092082374 -0.06377031 0.0383806 -0.09899601
-0.02077451 0.22261675 0.0075215315 0.07513033 -0.078337856 -0.064039126 0.075224295 0.033948418
-0.060167193 -0.06986676 -0.028288772 0.04700075 0.18668127 0.019018643 0.19898827 -0.1920077
-0.28337756 -0.11362564 -0.3656604 -0.31496862 0.061627492 -0.0008683851 -0.24604091 0.21463698
-0.138705 0.32738307 0.34420255 -0.09775966 0.52590185 -0.2140835 -0.018997913 0.18896593
0.018346542 -0.14850804 -0.019146398 -0.18110844 -0.27757338 0.09565392 0.16887699 0.16194235
0.21101889 0.28221944 0.17776775 0.15925778 -0.06175991 0.21368252 -0.19968624 -0.18937571
0.23927392 0.053333584 -0.079817586 0.198677 -0.012453385 -0.082718164 0.09229088 -0.02177913
-0.113616504 0.0768159 -0.16957991 0.013847083 -0.3328967 -0.3593364 -0.19485427 0.26453987
-0.23543797 -0.31278098 -0.10960064 -0.0257413 0.13718677 -0.06999314 -0.12491856 -0.08383433
0.13130276 0.21689647 -0.17480631 -0.08062052 0.058856443 -0.0034919418 -0.004124983 0.0665794
0.10756362 0.12447525 0.35321006 0.05243402 0.22444698 0.10588562 0.09874134 0.25576484
-0.09226997 0.2417099 0.11465671 0.18206024 0.16664764 0.90072006 0.15403987 0.20471601
-0.045843724 0.03864583 0.2256641 0.28097823 0.04044264 0.12238856 0.13975582 0.45281893
0.03475064 0.03117343 -0.09443686 0.1250235 0.2382522 0.06599616 0.24467963 0.1427936
0.3968769 0.037005644 0.2136721 0.27014655 0.5096252 -0.0031853616 0.07361026 0.12990664
0.13737395 0.027834048 0.1555712 0.022440398 0.57429075 0.45746776 0.13242066 0.10524225
0.057893474 0.24639055 0.32038522 0.2533094 0.24136971 -0.029044438 0.028511709 0.06454817
0.31466615 -0.11003423 0.16841689 0.26173276 0.26557413 0.18638262 0.80959195 -0.038618855

bias_hh_l0 f4 [256]
00000000: 1492 403e 8c51 923e 8cf9 2c3e ff78 263e
00000010: 5d6c 263f e322 a73e 58b5 763e e620 3a3e
00000020: 1a2d 373e fa48 e03e 9791 bf3e c415 953d
00000030: 4945 963e 3f05 7c3f 0930 b53e b4ff 3a3f
00000040: c8ba 143d 4a1b 3d3e e856 053f e62b 473e
00000050: a4b8 683e 6609 bd3c 6b70 5b3e 753a 393f
00000060: 6a8e 243d a888 c83d 693c 4c3d ae95 493e
00000070: 3c28 1e3e 81ab 7abd 8d57 a33e 70f6 133d
00000080: f162 c63e bfc2 573d 72f3 a03e 8637 b33e
00000090: 16a5 3d3f 3256 bfbb eddc 073e 3c12 4b3e
000000a0: efbf cdbc ffeb f93d 4489 2cbd db0d 07be
000000b0: 4bc9 933e 9b49 053f 9b5d b63e e9a7 943e
000000c0: 1ccc 303c db22 5b3f cd31 133f f4aa 103f
000000d0: 4dab 473d d7ad c6bb 2663 063e c4bd 543e
000000e0: 3ac1 dc3e 5167 1cbe 118a 013e 5b19 ad3e
000000f0: c1c6 b43e 07f1 b93e cc49 4d3f 1ec1 c63c
00000100: 4f6a a9bd 06d7 a53d 96bb 00be 2825 47bb
00000110: 2254 da3d 7796 0e3e 0fc4 dbbd 4e8c 613d
00000120: 689c 47bd d767 4b3e c73d ad3d e207 84bd
00000130: 7e70 8b3d 9d89 383e ef74 29be 6e5f 0a3e
00000140: 730c 143e 25db 133d cbfe 8a3e 0bf2 143e
00000150: 279f 623d 2ddb cabc c0fb 05be b8b0 823d
00000160: b8a5 9ebd 3305 b9bd c438 65bd 9111 20bd
00000170: dab1 25be ad9d 2dbe dc12 fabd c369 39bd
00000180: b5ff f0bd c3e5 a3bc 996b 8abd ce69 d0bd
00000190: 92a6 363e 364c f83d 5c20 0d3d 3809 a33d
000001a0: 8830 4abc 1dc6 e43b a813 3fbe a190 6bbe
000001b0: 4e90 8bbd 667a 5ebe fef7 c03c 0378 fbbd
000001c0: 04d2 22be 7a6e 083d 77bc 923d e141 723e
000001d0: 0d75 863d d6fd e83c 27ec ad3d cdd6 203e
000001e0: f796 803c d5fd e2bd 28bc 02bd 99b9 15bd
000001f0: ac94 e13b 72af 8f3d b9f2 8f3d 4aa8 77be
00000200: 2ccb c3be 7fcb 2cbb 95a7 a1be 4f28 c9be
00000210: 5a92 00bc 8101 55be 9f6a cfbd a178 5e3d
00000220: ea11 edbd e5c8 e93e 88eb d33e 43f2 c03d
00000230: cc1d 053f e6ed 61bd 05da af3c 38c5 bf3d
00000240: 73ff 14be ba5e 01be 7fa4 823c 267c e6bd
00000250: 62e3 bcbe bf5d 293e 574b 4e3e dc81 a23d
00000260: e10c 733e 7a89 2c3e b0db 843d 61fd 823e
00000270: 0aff 2cbe a22b aebc 71ca aabd c315 01be
00000280: b650 ac3b 2dd9 493d 8a13 41be 28d6 343e
00000290: 46dd ee3d 644d cbbd f576 5c3e a285 e43c
000002a0: 1380 18bd d8e5 e6bd 1ab1 a7be d250 1dbe
000002b0: 4d32 ddbe 8261 cdbe 3407 21be c155 a33d
000002c0: 8a41 d3bd 52d1 78be 8ffb 013c e864 b1bd
000002d0: 517d 2c3e 0171 18be e82d 26be 7c57 0e39
000002e0: f138 5a3d 800e 8f3d 59a8 0fbe e679 2ebe
000002f0: 5358 b0bb 9df5 a0bd 60a9 36bd 6feb ad3c
00000300: c4bf e73d 3be9 f43d 35d2 843e 0b92 d23c
00000310: 182a 283e 8d0d 833e deba c63d cc11 fd3d
00000320: afc6 cf3c 4efc b03c 1e09 003e 67c2 2f3e
00000330: 685a afbb a29c 723f 1d05 c13c 7198 533e
00000340: a2de cb3d 5f2e 803e 4d32 923e e7d7 173e
00000350: 6526 193e 79a8 183e 540c 483e d574 e03e
00000360: 8e1a 4a3e 5b7a 81bd 97d8 eabd 8a42 c23c
00000370: 9e95 4f3e 332a 7e3d e986 9b3e 0c14 81bd
00000380: bafb 743e 0183 543e b6c0 de3e dd6b ad3e
00000390: eec2 d43e 43f4 8d3d 78cb 153d 120b ef3c
000003a0: 7d66 ff3d 3528 ec3b 7241 303e 03ab f6bd
000003b0: 462a f73e 235e 1e3f b937 2a3e c1d4 7a3d
000003c0: d35b 633d 61b3 a03e 98f5 b13e 68b2 773e
000003d0: 8d10 843e accd e7bc 3542 1a3e 94c2 1c3e
000003e0: e2f4 aa3e 041a a83c ef92 203d 661f a03e
000003f0: 97f5 913e 62ea a13e 5ab2 593f 90d0 acbd
0.18805724 0.2857784 0.1689207 0.16257094 0.650091 0.32643804 0.24092615 0.18176612
0.17888299 0.43805677 0.37415764 0.07279542 0.29349735 0.98445505 0.3538821 0.7304642
0.03631094 0.18467441 0.52085733 0.1945034 0.22726685 0.02307577 0.21429603 0.72354823
0.04017488 0.0979169 0.0498623 0.19686005 0.15445036 -0.061198715 0.31902733 0.036123693
0.3874736 0.05267596 0.31435734 0.350033 0.74080026 -0.0058391327 0.1326787 0.19831175
-0.025115935 0.12203216 -0.042123094 -0.13188879 0.28864512 0.5206544 0.3561829 0.29034355
0.010790851 0.8560006 0.57497865 0.56510854 0.04874735 -0.006063204 0.1312376 0.20775515
0.4311617 -0.15273787 0.12650324 0.33808407 0.35307887 0.36316702 0.8019073 0.024262007
-0.0827223 0.08097653 -0.12571558 -0.0030387137 0.10660578 0.13924585 -0.107307546 0.055065446
-0.048733145 0.1986383 0.08459049 -0.06446816 0.068085656 0.18021245 -0.16548513 0.13512966
0.14457874 0.036097664 0.27147517 0.14545457 0.05532756 -0.024762714 -0.13084316 0.06381363
-0.07746452 -0.09034195 -0.05596234 -0.039079253 -0.16181126 -0.1695468 -0.122106284 -0.045266878
-0.11767522 -0.02000702 -0.06758804 -0.10176431 0.17836979 0.12123911 0.03445469 0.07960743
-0.012340672 0.0069816248 -0.18659842 -0.2300439 -0.06814633 -0.21726379 0.023555752 -0.1227875
-0.15900427 0.033308484 0.07164853 0.23657943 0.065652944 0.02844135 0.08492308 0.1570694
0.015696986 -0.11083571 -0.03191772 -0.036553953 0.006884178 0.070158854 0.070287175 -0.24185291
-0.38240945 -0.002636641 -0.31573167 -0.39288566 -0.007847393 -0.20801355 -0.10127758 0.05431426
-0.115756825 0.45661083 0.41390634 0.09421208 0.5199859 -0.05515852 0.021466265 0.09363788
-0.14550571 -0.12633792 0.015947578 -0.11254148 -0.3689223 0.16539668 0.20145927 0.07934925
0.23735382 0.16849318 0.064872146 0.25583938 -0.16894165 -0.02126104 -0.08339394 -0.12605958
0.005258645 0.04927938 -0.1885511 0.17659819 0.11663298 -0.099268705 0.21529754 0.027895752
-0.037231516 -0.11274308 -0.32752305 -0.15362862 -0.4320244 -0.40113455 -0.15725404 0.07975341
-0.10315235 -0.242986 0.007933511 -0.086618245 0.1684468 -0.14886858 -0.1622845 0.00013574766
0.05327696 0.069851875 -0.14029063 -0.17038688 -0.005381623 -0.07859347 -0.044595122 0.021230428
0.11315873 0.11958548 0.25941625 0.025704404 0.16422307 0.25596276 0.09703611 0.1235691
0.025363294 0.021604683 0.12503478 0.17164002 -0.0053513534 0.9477025 0.023562009 0.2066362
0.09954573 0.25035378 0.28554 0.14828454 0.14956053 0.14908017 0.19535953 0.43839136
0.19736692 -0.063221656 -0.114670925 0.023713369 0.20271918 0.062051963 0.30376366 -0.06302652
0.23924151 0.20753099 0.43506402 0.33871356 0.4155497 0.06931355 0.036570996 0.029180083
0.1247072 0.0072069415 0.17212465 -0.12044337 0.4827444 0.6186239 0.16622819 0.061238054
0.055507492 0.31386855 0.34757686 0.2418915 0.25793877 -0.028296314 0.15064318 0.153086
0.33389956 0.020520218 0.039202627 0.31273955 0.28507683 0.31624132 0.8503777 -0.08438218

weight_ih_l0 f4 [20, 64]
00000000: 8a01 55be b286 acbe 30d7 21bf c8ef 3ebf
00000010: 7f84 47be 76f5 dabd b6b9 92be 2bdf e8be
00000020: 7dbb 40bd ac8c 0c3f 6225 963e 2a78 08bf
00000030: 2f7d 8a3e 97ac 793c d902 e1bc 44d5 d93d
00000040: 1ef5 f7be 9ec8 0abf 4491 f93e 560a 8bbe
00000050: 727b 88be 9dd7 ed3d cb01 233f 30ae 403f
00000060: 1614 2b3e f1e7 2e3f e133 0ebf 6626 683d
00000070: db3a 87be fd4a aabd ac11 c6be a8a8 ea3d
00000080: 0dc0 cd3e 4a1b c43d 13eb eabe 59f0 2f3f
00000090: 46a5 043f 83b2 c93e eac7 ae3e 95a0 b83d
000000a0: b5ac adbd 50ba e23e d02e 843e 26f7 2e3e
000000b0: 21c4 adbe 7fc2 9bbe 785d 6ebf 32ba 363f
000000c0: 424c dd3e cce1 363c e6df aebe 827f 9bbe
000000d0: 2a85 313f a0e8 75be cc77 0abf 3125 b0be
000000e0: 7f7b 013f 9d8e 85be 865c 85be ef53 73be
000000f0: aeec ed3e a11e a6be 3e8d 07bf 09fd a13e
00000100: cb84 d6be 7232 1bbf 3861 4a3e 0df2 d1be
00000110: 0719 053e 0717 0c3e 41b2 7f3c 6015 803e
00000120: 1a77 05bf 4821 2d3f c987 843e 87a1 62be
00000130: 8d4d 2e3f 78bb b73d 6f0c ab3e 261c 223e
00000140: 7141 a9be a86f b3be 0f51 033e 9023 b8be
00000150: 6266 ecbe 9a94 b23d 74bc 2cbb b4f9 d43e
00000160: 4c47 0fbd 788a 9e3d 28cd d4be 3dec f83e
00000170: 5e73 c13c a0cf aa3d fae5 c03e 2a3a 3a3e
00000180: 4831 3e3e 713c 17bd 7139 393e 0c73 ff3e
00000190: 84e5 133f a53f 813e 6ffa ae3e 886a e1bd
000001a0: b923 24bf 2009 803c 72a2 ffbe c2de 563d
000001b0: 18a9 19bf 0255 d6be 15aa 5dbf 6028 ad3e
000001c0: c4c4 ec3e 47e3 29bf c018 0d3f da9d 93bc
000001d0: c4c7 f33e 4866 973e 49eb 1a3e 9af5 9cbd
000001e0: 416a 1b3f 8d67 13bf 26fc 1abf e0bf 23bf
000001f0: e242 ee3e 70f1 bbbe a314 bfbc c9ce e83e
00000200: 5deb 15bf 51f0 c53d b7c6 46bf 80cd 9bbe
00000210: de77 243e cfee 783e 2ee4 2abe 267d 2a3c
00000220: 2304 543e cab7 463e c747 a43e 0a40 9abe
00000230: b9c7 723e 4008 00bf baf9 f83e 71fc c13e
00000240: 1bcf 6fbe 55f4 2abe 7f2c ecbe bee0 56bf
00000250: d56e 33bf 2092 5e3e 3d3a 173f fc62 9cbe
00000260: e9ee 1bbe fb93 3f3f 548a 23be d7b8 c6bb
00000270: 5000 0cbe 2c9e 9f3e 1470 4fbe ea56 1c3e
00000280: 1596 073f e08a 693d 58f2 3bbf 28fd a83e
00000290: 5b25 8dbd 2dbe 083f 98d5 373e 9db2 a1bc
000002a0: 2720 c7be 6d58 7c3b c6a7 10bc 0940 e13e
000002b0: 1cff adbe b913 7bbf ebfa 04be 88f9 c23e
000002c0: 4b58 fcbc fd9d 4abf c805 a03e ee9c 543e
000002d0: 8766 b43b b8c6 a33e 8781 223e 4f21 063e
000002e0: 52ae 2f3f 1c80 d1be a833 0cbf 61b8 863d
000002f0: db30 1fbf 09ff 88be c32a 6e3d 5f8b ebbe
00000300: 31dd 5bbf 6143 f3be d6ae 35bf 98b1 a1be
00000310: bcfe b23e e8fe 90bc bef7 af3e a954 8b3e
00000320: 45bc c7bd f633 7c3e 3042 153f 06eb 953c
00000330: 4052 4e3f f9cf 7dbe c647 053f a490 f53e
00000340: 2dff 2bbb 0630 23be 3b94 7e3f 8c87 44bf
00000350: 30b5 d6be 1be0 02be 3ad6 ec3e 5603 773e
00000360: 2233 003d 0c60 c03e 3475 15be c21e 933e
00000370: fe6b a2bd e96e 493e 212a a93d 8be1 d93e
00000380: b9d5 3e3f cb49 b73d 7945 a4be ffc9 af3f
00000390: 68f6 973e cb0e a03e 4b2a 5d3e 8ed6 b13e
000003a0: 926f d5bd 838f 8abd cb49 75be 6b6b f33c
000003b0: 5456 81bf 3799 2fbf e939 4dbf e2ab c4bc
000003c0: 86d4 183e 4d8f e8be 1427 b03e bfc3 87be
000003d0: 83a8 a73d 2451 1d3f 356d 1fbf a7de 0cbe
000003e0: 4414 c73e 2818 0bbe b69c 0bbf 2f9b 3abf
000003f0: 6c03 193f afc0 5bbf 8895 bcbd fc07 523e
-0.20801368 -0.33696514 -0.63218975 -0.7458463 -0.19484137 -0.10691349 -0.2865731 -0.45482764
-0.047053803 0.5490215 0.29325396 -0.53308356 0.27048633 0.0152389025 -0.027467178 0.1063638
-0.48429197 -0.5421237 0.4874364 -0.27156323 -0.2665668 0.116133906 0.6367461 0.7526579
0.16706881 0.68322664 -0.5554791 0.056677245 -0.2641209 -0.08315084 -0.38685358 0.1145795
0.40185586 0.095755175 -0.45882472 0.68726116 0.5181469 0.39394006 0.34136897 0.090150036
-0.08480207 0.4428277 0.25816965 0.17086467 -0.33938697 -0.30421826 -0.9311137 0.7137786
0.43222243 0.011162233 -0.34155196 -0.30370718 0.6934382 -0.2401452 -0.54089046 -0.34403375
0.50579065 -0.26085368 -0.26047152 -0.23762487 0.46469635 -0.32445243 -0.52949893 0.31638363
-0.41898188 -0.6062385 0.19763649 -0.41004983 0.12997828 0.13680659 0.015606464 0.25016308
-0.5213486 0.6762891 0.25884846 -0.2213193 0.68087083 0.08971304 0.33407924 0.1583105
-0.3305774 -0.35046124 0.1282389 -0.35964632 -0.46171862 0.0871975 -0.0026357444 0.41596758
-0.034980103 0.077412546 -0.41562772 0.48617736 0.023614582 0.083403826 0.37675458 0.1818625
0.18573487 -0.036922876 0.18088318 0.4989246 0.5777209 0.2524387 0.3417544 -0.11006647
-0.6411701 0.015629351 -0.49928623 0.052458532 -0.6002364 -0.4186173 -0.8658765 0.33819866
0.4624387 -0.6636242 0.5511589 -0.018019605 0.47613347 0.29570222 0.15128817 -0.07664032
0.60709006 -0.5757988 -0.60541 -0.63964653 0.46535403 -0.3670764 -0.02332527 0.45470265
-0.5856226 0.09664977 -0.77646965 -0.30430222 0.1606135 0.24309848 -0.16688606 0.010405814
0.20704703 0.19406047 0.32086012 -0.30126983 0.23709 -0.5001259 0.48628026 0.3788791
-0.23418848 -0.16694768 -0.46127698 -0.8393668 -0.7009099 0.2173543 0.5907324 -0.3054427
-0.15227856 0.74835175 -0.15970737 -0.006064515 -0.13671994 0.31175363 -0.20257598 0.1526753
0.5296338 0.057017207 -0.7341666 0.33005643 -0.068918906 0.53415185 0.17952573 -0.01973849
-0.38891718 0.0038504854 -0.008829063 0.43994167 -0.33983696 -0.9807697 -0.12986343 0.38081002
-0.03080382 -0.7914732 0.3125441 0.20762989 0.0055053863 0.31987548 0.15869723 0.13098644
0.68625367 -0.40918052 -0.5476632 0.06578136 -0.6218392 -0.26757076 0.05814625 -0.4600477
-0.85884386 -0.47512344 -0.70969903 -0.31580806 0.34959972 -0.017699674 0.343687 0.27213028
-0.097527064 0.24629197 0.5830412 0.018300544 0.80594254 -0.24786367 0.5206264 0.47961915
-0.0026244626 -0.15936288 0.9944493 -0.7676933 -0.4193511 -0.12780802 0.46257192 0.24122366
0.031298764 0.37573278 -0.1459549 0.28734404 -0.07930754 0.19671215 0.082599886 0.42554888
0.74544865 0.08949622 -0.32084253 1.3733519 0.2968018 0.31261286 0.21598165 0.34734005
-0.10421671 -0.06765654 -0.23953931 0.029714307 -1.010447 -0.6859316 -0.8016649 -0.024007741
0.14924821 -0.4542183 0.34404814 -0.2651653 0.08186438 0.61451936 -0.6227601 -0.1375681
0.3888265 -0.13583434 -0.54535997 -0.7289304 0.59770846 -0.85840887 -0.09208208 0.20510858

weight_hh_l0 f4 [20, 5]
00000000: 76d1 88be 882b b63d b990 253e cb36 25bf
00000010: b1f4 583d df5d 9fbe 4fdd e83e 0006 0dbf
00000020: 7021 323d 55fb 233e f2bf b23e 3242 7c3e
00000030: f28f f1bd 0a9b 733e 8db4 1e3e 4da7 763e
00000040: 4539 c5be 1c56 b3be 1287 9e3e 0c3b 25be
00000050: 3904 033f ad3d 28bc ee6c 08bd 2028 153f
00000060: d16f 7a3d 6d9b 8a3e c2c7 69bc 28fb 20bf
00000070: 7694 ac3e 9474 05bf 5044 05bd 8618 3d3e
00000080: b694 dfbe 7f0c 93be 11a5 a1be 7d4e cd3e
00000090: e677 b93e d742 c13e 84bb 7fbe b54a 7ebd
000000a0: 6ee0 1abe 0039 113d 46b2 06bf aa09 a13d
000000b0: e6fb 4dbf 70e6 6bbe 7e9d 313d d3fc 853e
000000c0: 1754 febd ef1c a5bc 1048 16bf 062c bfbd
000000d0: 07d5 bc3e 8db7 ae3d 3365 02bf bbb7 49be
000000e0: 0e09 09bf d348 9e3e 01c4 adbe e405 9cbe
000000f0: b373 933e 4231 cdbb df51 85bf fe10 2d3e
00000100: c699 63be 03b8 05bf 3c2d 2b3d d053 b33e
00000110: fe08 e2be c8f7 9cbe 39a3 c83e 4b6c 7cbe
00000120: df0c 4dbf 8931 c2be 528a dbbe f626 ffbd
00000130: d09c 253e d0d9 c5be 33f6 883e 2d85 043d
00000140: ad2a 6c3e c540 c2be c7d5 f3be e047 ae3d
00000150: a766 67be 66ab 483e 2433 883e 7418 0f3f
00000160: db23 6d3e c1f7 fd3e acf0 cbbe 02a7 7a3e
00000170: bb61 61be 1685 323e 3f61 6c3d eecd f03e
00000180: d1d3 67be b16b a13e a04b c13e bb53 ec3e
-0.26722306 0.08895022 0.16168489 -0.6453673 0.05296773 -0.31126305 0.45481345 -0.5508728
0.04348892 0.16013844 0.34912068 0.24634627 -0.117950335 0.23789611 0.15498562 0.24087258
-0.38520256 -0.35026634 0.30962425 -0.16135806 0.5117832 -0.010268611 -0.03330701 0.5826435
0.061141793 0.27071705 -0.014268817 -0.62883234 0.33707017 -0.5213101 -0.03253585 0.18466386
-0.43668145 -0.2872047 -0.31571248 0.40098944 0.36224288 0.37746307 -0.24973875 -0.062082965
-0.15124676 0.03545475 -0.52615774 0.078631714 -0.8046249 -0.23037124 0.043363087 0.26169452
-0.124183826 -0.020155398 -0.5870371 -0.09334569 0.36881277 0.08531103 -0.5093567 -0.19698994
-0.5352944 0.30914935 -0.33938602 -0.30473244 0.2879921 -0.0062619755 -1.041561 0.16901013
-0.22226629 -0.52233905 0.041791186 0.3502488 -0.44147485 -0.30657792 0.3918703 -0.24650685
-0.80097765 -0.37928417 -0.42878968 -0.12458603 0.161731 -0.3864274 0.26750335 0.03235357
0.23063155 -0.3794004 -0.47624037 0.08509803 -0.22597753 0.19596633 0.26601517 0.5589669
0.23158209 0.49603084 -0.39832056 0.24477771 -0.22009937 0.17433581 0.05770993 0.47032112
-0.22639395 0.31527475 0.3775301 0.4615763

bias_ih_l0 f4 [20]
00000000: 2c90 f03e bfdc 773e 1b28 be3e 211d 813f
00000010: 5a6b 813f 13fe 03bb 60c6 abbe bf9e 58bd
00000020: 054c 0abe dd75 bf3d 0d6d 98be e9c7 b73e
00000030: f324 753e 5faf 873e 3497 693d 25da be3e
00000040: 15bc f03e 1a84 053f dd91 003f f551 333f
0.46984994 0.24205302 0.37139973 1.0087014 1.0110886 -0.0020140454 -0.33549786 -0.052885767
-0.13505562 0.093486525 -0.297707 0.35894707 0.23939876 0.26500985 0.057028964 0.37275806
0.47018495 0.52154696 0.5022257 0.7004693

bias_hh_l0 f4 [20]
00000000: 2790 713f 2d24 763f 7fe5 3e3f 18a2 543f
00000010: a5e3 183f 9fe2 52be ba76 ac3e a491 68bd
00000020: 32e0 afbe 9805 dd3e 1db7 f93e 2010 7cbe
00000030: 5267 2a3e 867d 3abe 2c6b 3abd 82a5 813f
00000040: 9437 f83e 417b 1d3f 4351 4c3f 7cd6 203e
0.94360584 0.9614895 0.74568933 0.83059835 0.5972236 -0.20594262 0.3368433 -0.05677952
-0.34350735 0.4316833 0.48772517 -0.24615526 0.16640976 -0.18211946 -0.045512363 1.0128634
0.48479903 0.61516196 0.79811496 0.1570682

weight_ih_l0 f4 [256, 5]
00000000: 886e 01be 2eaf 0dbe 1a5d f1bd 3dc4 69bd
00000010: 8d59 4f3c 39f5 083b 11d7 2a3e 8aad 19be
00000020: ad4e 123e e251 e8bd 9029 543e 0885 69bd
00000030: b461 2e3e f42c 27be e362 0f3e 1f8d 93bd
00000040: e2df 583d 82c8 81bd d66f abbd df88 3ebd
00000050: 59dd 5abd 28e5 83be a375 b03b 702b 06be
00000060: d75b 0a3e 33e8 ff3c 94ca 2a3d e7bb 30be
00000070: aec0 57be 5aa7 89be 71ff ddbc 15b6 c93d
00000080: 82f6 8cbd 34d4 cc3c 234d 88bd 83c1 ba3d
00000090: 850b f33d a7aa b5bd 0ca5 a0bd c0d0 91bd
000000a0: 0d3e 09be 914e e3bd b679 9f3d 6714 c6be
000000b0: d135 aabd 0b17 5abe b3cc 0a3e bb79 363e
000000c0: b9ef 863c c5f0 143e 8f95 853d cba9 cf3d
000000d0: 6285 cb3d 7eb2 e13d 00b0 7e3d 0f16 88be
000000e0: 623a 39be 567c c03d 0742 0cbe da89 903e
000000f0: a844 87be 3d29 98be a72f 973d 4567 30be
00000100: 05bd 5e3d df12 c2bd 8014 213e 5f55 30bc
00000110: 50e9 3a3e c059 063e 8c06 37be f2b5 40bd
00000120: 1431 0eba b9a7 e3bc 620c 35bd 75c7 8cbd
00000130: 76ef 5a3d 30b1 713c 46aa c13d b6db 5d3c
00000140: 5c8e 06be 20e3 51be 8261 92bb 0610 bfbd
00000150: a869 713e 7456 9d3d a1bd 57bd 62bd 41bb
00000160: 3e1e 18be 6b5e 16bd 8aec abbd 1312 69be
00000170: 4e87 d43e d058 eebd 9a95 823e 6c8c ce3d
00000180: 7646 df3d 29f9 04bd 460f 923b a720 6ebd
00000190: 67c6 54be d0e0 0ebe 9731 41bd 3331 19be
000001a0: 07c6 6bbe ba7a fc3b 8748 533c 1f94 adbd
000001b0: dfac 0cbe 5613 20be db27 27bc e3b2 4bbd
000001c0: 666d 87bd 851e 42be a286 983b 8adc 593d
000001d0: 0a96 613e 8bfe 203e ba6a eb3c df42 0a3e
000001e0: cef0 2dbe f232 e6bc 40d3 61bc 9319 13be
000001f0: 61f2 bebc b9fc 893e 8d4e 8a3e 2df4 fbbd
00000200: 962f f13d 556d 15be 28b2 6a3d 1e2d c5bd
00000210: 8f06 bbbd afa7 04be f536 1e3d 01d4 bcbd
00000220: e2ce 403e 6542 ff3d 30b2 8f3e 8ea9 b63c
00000230: 96e3 483d bac2 663d d0ea dabd d106 e03d
00000240: 620f d7bc ee63 abbd 9b13 583c 3126 4d3e
00000250: 2559 e1bd 70a6 273d 81ce c1bd 0bd9 0ebe
00000260: 388b e2bd e04d 703d 2fe6 53be 9ebf 5dbe
00000270: 289d 02be 2632 13be 74ee 50bd 9a61 833c
00000280: 7285 4fbd 6e31 203d c329 a5be ec36 e23d
00000290: e3f7 acbe fe13 4ebe 22c7 8fbd 0fbf 56bd
000002a0: e91c 7dbe 6bba 923d d89b 81bd b053 ffbd
000002b0: af56 813c 97d3 073e 1f27 62bb a018 23be
000002c0: b608 913c d507 15be b533 b839 9ca6 3ebe
000002d0: f465 c4bd 74c9 25be f927 3abd b219 54bc
000002e0: 26cd 193e 8a43 513c 3de6 b1bd 1c41 dbbc
000002f0: aad7 e43d bc20 d7bd d5df fa3d 29e8 db3e
00000300: c200 febc c68f 043e 9ae3 ebbd b512 62bd
00000310: 217f f1bd 3fd0 573e bc94 71be 4fe9 ab3d
00000320: f3e4 40be 0cf6 c03c 5c78 183e bfa2 373d
00000330: 06e3 7c3e 88a7 9d3c 65e5 2abd ad57 c93c
00000340: 399c 3cbd 8b28 01be c5b3 b73d e0d6 393e
00000350: c30d 1abc 66f9 3c3e a182 ebbd 75c1 71bd
00000360: 73d6 babd 25d2 103e 7dc6 37bc 83a5 903d
00000370: 4984 013e 848e 36be 0ce6 2cbe 8989 f6bd
00000380: 0c88 a3bd 3be7 e03c bf3c a13d cf52 903b
00000390: 028a 6c3e 1ceb aa3d 3d64 a33d edf5 7ebd
000003a0: 9c7c da3d 2571 bb3d 5d3c 0b3d 54a0 a0bd
000003b0: 7ffe 48bd deb6 5fbe 6365 a23d 3ef9 1abe
000003c0: fd30 b43d 2422 aa3d cb89 0e3e ddd0 b4bd
000003d0: 4f4f 823e 16ef 0bbe 84b6 64be 8475 993e
000003e0: cbb6 30be 5a6c 513e cad3 903d 6343 723d
000003f0: 89b4 23be 8584 a7bd 863e a9bd 1208 7fbe
-0.1263982 -0.13836357 -0.11785336 -0.057071913 0.012655628 0.0020898117 0.16683604 -0.15007606
0.14287825 -0.11343743 0.2071898 -0.057011634 0.17029458 -0.16325742 0.14002566 -0.07204651
0.052947886 -0.06337072 -0.083709404 -0.04651725 -0.05343375 -0.2576077 0.005385117 -0.13102508
0.13511597 0.03123865 0.0416971 -0.17259179 -0.21069595 -0.26885492 -0.027099343 0.098491825
-0.06882955 0.02500353 -0.06655338 0.09118941 0.118674316 -0.0887044 -0.0784398 -0.07119894
-0.13402577 -0.1109897 0.077868864 -0.3868744 -0.08311046 -0.21297853 0.13554649 0.17819874
0.01647173 0.14544971 0.06522667 0.10139807 0.0993755 0.11020373 0.062179565 -0.2657933
-0.18088678 0.09398715 -0.13697062 0.28230172 -0.26419568 -0.29718962 0.07382136 -0.17226894
0.05437948 -0.094762556 0.15730476 -0.010762542 0.18253064 0.13120174 -0.17873591 -0.047048517
-0.00054241833 -0.027789937 -0.044201262 -0.06873981 0.053451024 0.014751717 0.09456305 0.013541153
-0.13140243 -0.20496798 -0.0044671902 -0.09329228 0.23575461 0.07682505 -0.05267108 -0.0029562344
-0.14855286 -0.036711138 -0.083947256 -0.22760801 0.4150948 -0.116380334 0.25504762 0.10085377
0.10902111 -0.03246418 0.004457387 -0.05813661 -0.2077881 -0.13952947 -0.047166433 -0.14960174
-0.2302476 0.00770506 0.01289571 -0.084755175 -0.1373782 -0.15632376 -0.010202373 -0.049731147
-0.06612663 -0.18956955 0.0046547214 0.053188838 0.22029892 0.157221 0.028737415 0.13502072
-0.16986391 -0.028100464 -0.013783276 -0.14365225 -0.023308935 0.26950625 0.27013054 -0.12302432
0.117766544 -0.14592488 0.05729881 -0.09627746 -0.0913211 -0.12954591 0.03862663 -0.09220124
0.1882892 0.124638356 0.28065634 0.022297647 0.049045168 0.05633805 -0.10689318 0.109388
-0.026252452 -0.083686695 0.013188268 0.200341 -0.11003331 0.04093021 -0.094632156 -0.13949983
-0.1106171 0.058668017 -0.20693277 -0.21655127 -0.12755263 -0.14374599 -0.051008657 0.016037751
-0.050664373 0.03910964 -0.32258424 0.11045632 -0.33782873 -0.20124814 -0.070204034 -0.0524283
-0.2471806 0.07164463 -0.06328553 -0.12467134 0.015788404 0.13264309 -0.0034508181 -0.15927362
0.017704349 -0.14553769 0.0003513374 -0.18618244 -0.095897585 -0.1619013 -0.045448277 -0.012945579
0.15019664 0.01277245 -0.086864926 -0.026764445 0.11173947 -0.105042905 0.12249724 0.42950562
-0.03100622 0.1294547 -0.11518021 -0.05519362 -0.11791826 0.21075533 -0.23591894 0.083941095
-0.18837337 0.023554824 0.14889663 0.04483294 0.24695978 0.019244924 -0.041722674 0.02457794
-0.046047423 -0.12613122 0.08969835 0.18148375 -0.009402695 0.18454513 -0.11499525 -0.059022386
-0.09122934 0.14142664 -0.011216757 0.07062819 0.12648119 -0.17827803 -0.16884631 -0.120379515
-0.07984933 0.02745401 0.078729145 0.004404403 0.23099521 0.08345625 0.07978103 -0.06224625
0.106682986 0.0915244 0.033993114 -0.0784308 -0.04907083 -0.21847102 0.07929494 -0.15134141
0.08798406 0.08307293 0.13919751 -0.088289 0.25451133 -0.13665423 -0.22335249 0.2997247
-0.1725723 0.20451489 0.070716456 0.059146296 -0.15986837 -0.08179573 -0.082638785 -0.24905422

weight_hh_l0 f4 [256, 64]
00000000: 844c 17be 2b6d 7738 f6e1 1ebd 32c0 2b3e
00000010: 3af0 0d3b db34 80bc 2261 c7bd 76aa 0ebe
00000020: 34c8 493d 3a46 c3bd 4f1c 9f3e e401 133e
00000030: aa22 fcbd 18e3 023e 45f2 5b3c 3b30 d4bd
00000040: bb99 0d3e e874 4abe e7fe 6a3c 3ffb e4bd
00000050: fabe 1d3d 512e 103e 18e4 af3e 9035 c1bd
00000060: 0182 233e ac3a 8cbb d8d7 a4bd bad2 1c3e
00000070: 648c a33c 7506 3bbd fb6d 253e 7a61 d9bd
00000080: e531 823d fdcc 393e c3a7 60be 4ddc 99bc
00000090: cf27 36bc 3b8e 89bb 3da8 f43d b0ad 113e
000000a0: 0d7b a7be f875 e73b 5071 18be 7112 253e
000000b0: a4b0 d9bd 5503 c6bc 08cf 75bd 34b8 07be
000000c0: 7524 323e dfc8 4b3e f422 49bd fc55 54be
000000d0: 6009 0c3e ba06 4fbe 1e2d b1bd 79a6 b03d
000000e0: 63fe 45be 9505 923d cb44 7f3d 890f 2fbd
000000f0: 2afa 3a3c d997 23be 79cf e93c d9d6 88be
00000100: 8afb 37be 1317 aabc 3bd6 e43c 8742 f13d
00000110: 185a 743d 4bb9 e83d 94d2 a83d 7d87 113d
00000120: 367c 6b3d 5eb9 2c3e 01c2 ed3c ea00 353e
00000130: 8ede 953d 7783 183d e5d4 6bbd 5f24 103d
00000140: f2f7 b43c 5e19 883d 4f70 74bd 7904 4a3c
00000150: 4f45 b63d 4aa5 5ebd 83e6 853c 9fb3 8a3d
00000160: 6982 4c3c a300 45bd f23a 02bc 8a6d e3bc
00000170: 48f1 213e 7ba3 253e f2fa 17be b63b bbbd
00000180: 9171 0cbc f0a6 f8bd 052c 74bc 21eb 783d
00000190: f855 1bbe 25fe 19be eca9 443d d903 4b3e
000001a0: 7173 05be 89af 03be d037 883d 87e4 9dbb
000001b0: 2235 08be 30ed b83b 224c f13d 4973 96bd
000001c0: 174b 51bd 3ae0 323e 787d e33d 13c1 38be
000001d0: 7aff 2d3e 5575 3c3e 9282 53bb 5af7 033e
000001e0: a954 e03c d4fe 03be 0f00 4ebb 5816 f0bd
000001f0: 1505 0a3e e4af db3d 361a 0dbe 49fc 33bd
00000200: e9a3 dfbd 8ab5 b83d 6e7b b7bd 9abe 8abc
00000210: 8bf2 203c 1466 f73c f304 873b 507d f13c
00000220: 48da 03bc 4ba9 d8bd eaff 0e3d 59f4 323d
00000230: 50b9 86bd 9c08 14bd 67e8 f23d 0170 be3d
00000240: c8b8 7abd fcc6 98bd 14d2 ad3d 277a 9abd
00000250: 5b76 8c3d 0785 793c bb0e 9cbd b790 e6bc
00000260: 4034 f33d 6966 823d 2ddf 273e e4b4 cb3d
00000270: 486c 8d3d 51ba 96bd 5ad8 debc 3091 82be
00000280: 3183 fbbc 7c27 973d 125e c13d 5685 76bd
00000290: 39c1 9d3a 6037 d13d 868a 88bd 0400 05bd
000002a0: 102e e93d a2ee 6abd c8e7 d6bd 8059 943c
000002b0: 62db 3f3d ae15 023d 8054 18bd decf b2bc
000002c0: ef14 be3c 44b6 05be 4091 983d 8481 233d
000002d0: bcce d9bd 0382 f53d 37b5 1ebe 2fd7 973b
000002e0: f000 2f3e 2cd7 b6bd 0877 063e cdc5 853c
000002f0: 1af4 24bd 6d5b 36bd a0b7 7abd b510 53bd
00000300: cfe4 b6bd 13ee 033e bd93 0f3e 3697 503c
00000310: ce30 ab3d 2371 493d 2367 3dbd 839b 043d
00000320: 15c4 a2bd ee5d 283d 98d8 a7bb 086b 1f3b
00000330: 76b6 0fbd 7aa7 af3c 2f81 dbbd f302 1c3e
00000340: a3bc 043e ae50 8f3c 7ba4 0d3d 3b0f 78bd
00000350: 2732 ba3c 4a21 8cbd 8c84 8e3d 88e9 0cbe
00000360: 0090 773d a9b2 733d dd3f 7a3b 9383 56bc
00000370: 8f02 183e db64 a0bd e555 023d 4969 023d
00000380: 8dc5 a0bd 97b0 2cbd 32a9 e1bd e5ed a33d
00000390: c63d 83bd a939 a8bd 9051 6b3d 530d 5a3d
000003a0: b868 4dbd bbc8 bf3d 32f4 a8bd eb01 92bc
000003b0: b156 efbd 7572 95bd edb0 8e3d a860 c13d
000003c0: 8519 bd3d 65d7 31be 0e08 e4bd 053f 9e3d
000003d0: fe25 59bb ebc5 603d 7674 fa3d 75f1 aebd
000003e0: 18d4 97bd e51c ca3d b317 69bc 7d16 c1bd
000003f0: 0b17 0ebd ba85 cb3d b886 e23d 9625 8cbd
-0.14775282 5.899106e-05 -0.038789712 0.16772535 0.0021658079 -0.015650203 -0.097353235 -0.13932213
0.049263194 -0.09534879 0.31076285 0.1435619 -0.12311299 0.12781942 0.013424461 -0.10360762
0.13828175 -0.19771159 0.014343 -0.11180734 0.038512208 0.14080168 0.3435371 -0.09434044
0.15967561 -0.004279455 -0.080489814 0.15314761 0.019964404 -0.045660455 0.16155235 -0.10614295
0.06357173 0.18144603 -0.21938996 -0.018781805 -0.01111789 -0.0041978634 0.119461514 0.14226413
-0.32711068 0.0070636235 -0.14886975 0.16120316 -0.10629395 -0.02417151 -0.060011894 -0.13253862
0.1739672 0.19900845 -0.0491056 -0.20735925 0.13675451 -0.2021741 -0.086511835 0.08625502
-0.19335322 0.07129971 0.062321465 -0.042739425 0.011412183 -0.15975894 0.028541313 -0.26726416
-0.17967048 -0.020762956 0.027934184 0.11780267 0.059656233 0.11363467 0.082432896 0.035529602
0.057491504 0.16867587 0.029023172 0.1767613 0.073178396 0.03723475 -0.05757608 0.035190936
0.022090886 0.066454634 -0.05967742 0.012330168 0.08899938 -0.05435685 0.016345268 0.06772541
0.012482264 -0.04809631 -0.007948624 -0.027762193 0.15814698 0.16175644 -0.14841822 -0.09142248
-0.008571998 -0.12141216 -0.014903073 0.06077111 -0.15169513 -0.15038355 0.048013613 0.19825687
-0.13032319 -0.1285993 0.066512704 -0.0048185023 -0.13301519 0.0056435093 0.11782099 -0.07346208
-0.051097002 0.17468348 0.11107916 -0.18042402 0.16991988 0.18404134 -0.003227387 0.12887326
0.02738412 -0.12890178 -0.003143314 -0.11723012 0.13478501 0.10726908 -0.1377953 -0.04394177
-0.10919935 0.09019001 -0.08959089 -0.016936589 0.009823452 0.030200042 0.004120463 0.029478699
-0.008047648 -0.10579165 0.034912027 0.04369006 -0.06578314 -0.036141023 0.118607335 0.09298707
-0.061211377 -0.07459828 0.08487335 -0.0754283 0.06858512 0.01522947 -0.07619997 -0.028145177
0.118752 0.063671894 0.16393729 0.099466115 0.06905419 -0.07359756 -0.027202774 -0.25501394
-0.030702205 0.07380578 0.094417706 -0.060185753 0.0012035734 0.1021564 -0.06667046 -0.032470718
0.11385739 -0.057356484 -0.104934275 0.018109083 0.04684008 0.031758957 -0.03718996 -0.021827634
0.023203341 -0.1305781 0.07449579 0.039918438 -0.106351346 0.119876884 -0.15498815 0.004633806
0.17090201 -0.089277595 0.13131344 0.01632967 -0.040271856 -0.044520784 -0.061210275 -0.051529605
-0.089303605 0.12883787 0.14021201 0.012731364 0.08358918 0.04918016 -0.046240937 0.03237487
-0.07947556 0.041105203 -0.0051222555 0.002432527 -0.035086118 0.021442164 -0.10717999 0.152355
0.12962584 0.017494526 0.03458069 -0.0605614 0.022728993 -0.06842287 0.06958875 -0.1376096
0.060440063 0.059496555 0.0038185038 -0.013092893 0.14844726 -0.07831737 0.031820197 0.03183869
-0.0785018 -0.042160597 -0.110185996 0.08004359 -0.06408267 -0.08214123 0.05745083 0.053235363
-0.050148696 0.09364458 -0.082497016 -0.01782318 -0.11686457 -0.072972216 0.0696734 0.09442264
0.09233383 -0.17367323 -0.11134349 0.07726864 -0.0033134217 0.05487625 0.122292444 -0.08542148
-0.074135005 0.098687924 -0.014226842 -0.094281174 -0.034689944 0.09937616 0.11060852 -0.068431064
